(this["webpackJsonplms-front-user"]=this["webpackJsonplms-front-user"]||[]).push([[0],{1625:function(e,n){},1656:function(e,n,t){"use strict";t.r(n);var i=t(2),r=t.n(i),a=t(71),c=t.n(a),s=t(1),o=t(58),l=t.n(o),d=t(1778),b=t(7),m=t(32);const j="\u4f8d\u30c6\u30e9\u30b3\u30e4",u="\u4f8d\u30c6\u30e9\u30b3\u30e4\uff08SAMURAI TERAKOYA\uff09",A="\u30d7\u30ed\u30b0\u30e9\u30df\u30f3\u30b0\u5b66\u7fd2\u30b5\u30a4\u30c8\u3010\u4f8d\u30c6\u30e9\u30b3\u30e4\u3011",h="".concat(j," | ").concat("\u30bc\u30ed\u304b\u3089\u59cb\u3081\u308b\u5b9a\u984d\u30fb\u5b66\u3073\u653e\u984c\u306e\u30d7\u30ed\u30b0\u30e9\u30df\u30f3\u30b0\u5b66\u7fd2\u30b5\u30a4\u30c8"),p="".concat(j,"\u306f\u3001\u30bc\u30ed\u304b\u3089\u59cb\u3081\u3089\u308c\u308b\u5b9a\u984d\u30fb\u5b66\u3073\u653e\u984c\u306e\u30d7\u30ed\u30b0\u30e9\u30df\u30f3\u30b0\u5b66\u7fd2\u30b5\u30a4\u30c8\u3067\u3059\u3002\u5165\u9580\u8005\u3084\u521d\u5fc3\u8005\u3067\u3082\u5b66\u3079\u308b\u6559\u6750\u3001\u5b9f\u8df5\u529b\u304c\u935b\u3048\u3089\u308c\u308b\u8ab2\u984c\u3001\u73fe\u5f79\u30a8\u30f3\u30b8\u30cb\u30a2\u306b\u76f8\u8ac7\u3067\u304d\u308b\u30ec\u30c3\u30b9\u30f3\u30fbQ&A\u63b2\u793a\u677f\u3001\u5b66\u7fd2\u3092\u8a18\u9332\u3059\u308b\u5b66\u7fd2\u30ed\u30b0\u306a\u3069\u3001\u30a8\u30f3\u30b8\u30cb\u30a2\u306b\u306a\u308b\u305f\u3081\u306e\u6a5f\u80fd\u304c\u76db\u308a\u6ca2\u5c71\uff01");var g=t(0);const O={title:h,meta:[{name:"description",content:p},{property:"og:title",content:h},{property:"og:description",content:p}],changeTitle:()=>{},changeMeta:()=>{}},x=r.a.createContext(O),f="RESET",v="CHANGE_TITLE",w="CHANGE_META",C=e=>{const n=(()=>{const e=Object(m.k)().pathname,[n,t]=Object(i.useReducer)(((e,n)=>{switch(n.type){case f:return O;case v:return{...e,title:n.payload};case w:return{...e,meta:n.payload};default:return e}}),O),r=Object(i.useCallback)((e=>{t({type:v,payload:e})}),[]),a=Object(i.useCallback)((e=>{t({type:w,payload:e})}),[]);return Object(i.useLayoutEffect)((()=>{t({type:f})}),[e]),{...n,changeTitle:r,changeMeta:a}})();return Object(g.jsx)(x.Provider,{value:n,children:e.children})},y={isOpen:!1,isHoverOpen:!1,toggle:()=>{},toggleClose:()=>{},toggleHoverOpen:()=>{},toggleHoverClose:()=>{}},V=r.a.createContext(y),S=e=>{const n=(()=>{const[e,n]=Object(i.useReducer)(((e,n)=>{switch(n){case"toggle":return!e;case"close":return!1;case"open":return!0}}),window.innerWidth>950),[t,r]=Object(i.useReducer)(((e,n)=>{switch(n){case"toggle":return!e;case"close":return!1;case"open":return!0}}),!0);return{isOpen:e,isHoverOpen:t,toggle:Object(i.useCallback)((()=>{n("toggle")}),[]),toggleClose:Object(i.useCallback)((()=>{n("close")}),[]),toggleHoverOpen:Object(i.useCallback)((()=>{r("open")}),[]),toggleHoverClose:Object(i.useCallback)((()=>{r("close")}),[])}})();return Object(g.jsx)(V.Provider,{value:n,children:e.children})},k={isOpen:!1,header:null,content:null,setHeader:()=>{},setContent:()=>{},open:()=>{},close:()=>{}},I=r.a.createContext(k),T="SET_HEADER",D="SET_CONTENT",E="OPEN",R="CLOSE",z=e=>{const n=(()=>{const[e,n]=Object(i.useReducer)(((e,n)=>n.type===T?n.payload:e),null),[t,r]=Object(i.useReducer)(((e,n)=>n.type===D?n.payload:e),null),[a,c]=Object(i.useReducer)(((e,n)=>{switch(n.type){case R:return!1;case E:return!0;default:return e}}),!1);return{isOpen:a,header:e,content:t,setHeader:e=>{n({type:T,payload:e})},setContent:e=>{r({type:D,payload:e})},open:()=>{c({type:E})},close:()=>{c({type:R})}}})();return Object(g.jsx)(I.Provider,{value:n,children:e.children})};var M,B,L,N,U,P,F,q,Q,H,G,Y,K,Z,J,W,X,_,$,ee,ne,te,ie,re,ae,ce,se,oe,le,de,be,me,je,ue,Ae,he,pe,ge,Oe,xe,fe,ve,we,Ce,ye,Ve,Se,ke,Ie,Te,De,Ee,Re,ze,Me,Be,Le,Ne,Ue,Pe,Fe,qe,Qe,He,Ge,Ye,Ke,Ze,Je,We,Xe,_e,$e,en,nn,tn,rn,an,cn,sn,on,ln,dn,bn,mn,jn,un,An,hn,pn,gn,On,xn,fn,vn,wn,Cn,yn,Vn,Sn,kn,In,Tn,Dn,En,Rn,zn,Mn,Bn,Ln,Nn,Un,Pn,Fn,qn,Qn,Hn,Gn,Yn,Kn,Zn,Jn,Wn,Xn,_n,$n,et,nt,tt,it,rt,at,ct,st,ot,lt,dt,bt,mt,jt,ut,At,ht,pt,gt,Ot,xt,ft,vt,wt,Ct,yt,Vt,St,kt,It,Tt,Dt,Et,Rt,zt,Mt,Bt,Lt,Nt,Ut,Pt,Ft,qt,Qt,Ht,Gt,Yt,Kt,Zt,Jt,Wt,Xt,_t,$t,ei,ni,ti,ii,ri,ai,ci,si,oi,li,di,bi,mi,ji,ui,Ai,hi,pi,gi,Oi,xi,fi,vi,wi,Ci,yi,Vi,Si,ki,Ii,Ti,Di,Ei,Ri,zi,Mi,Bi,Li,Ni,Ui,Pi,Fi,qi,Qi,Hi,Gi,Yi,Ki,Zi,Ji,Wi,Xi,_i,$i,er,nr,tr,ir,rr,ar,cr,sr,or,lr,dr,br,mr,jr,ur,Ar,hr,pr,gr,Or,xr,fr,vr,wr,Cr,yr,Vr,Sr,kr,Ir,Tr,Dr,Er,Rr,zr,Mr,Br,Lr,Nr,Ur,Pr,Fr,qr,Qr,Hr,Gr,Yr,Kr,Zr,Jr,Wr,Xr,_r,$r,ea,na,ta,ia,ra,aa,ca,sa,oa,la,da,ba,ma,ja,ua,Aa,ha,pa,ga,Oa,xa,fa,va,wa,Ca,ya,Va,Sa,ka,Ia,Ta,Da,Ea,Ra,za,Ma,Ba,La,Na,Ua,Pa,Fa,qa,Qa,Ha,Ga,Ya,Ka,Za,Ja,Wa,Xa,_a,$a=t(115),ec=t(540),nc=t(1753),tc=t(547),ic=t(718),rc=t(546),ac=t(1785),cc=t(1755),sc=t(1751),oc=t.n(sc),lc=t(721),dc=t(516),bc=t(804),mc=t(1792),jc=t(87),uc=t(344),Ac=t(730),hc=t(513),pc=t(79),gc=t(200),Oc=t(815),xc=t(1748),fc=t(1749),vc=t(1750);const wc={};let Cc,yc,Vc,Sc,kc,Ic,Tc,Dc,Ec,Rc,zc,Mc,Bc,Lc,Nc,Uc,Pc,Fc,qc,Qc,Hc,Gc,Yc,Kc,Zc,Jc,Wc,Xc,_c,$c,es,ns,ts,is,rs,as,cs,ss,os,ls,ds,bs,ms,js,us,As,hs,ps,gs,Os,xs,fs,vs,ws,Cs,ys,Vs,Ss,ks,Is,Ts,Ds,Es,Rs,zs,Ms,Bs,Ls,Ns,Us,Ps,Fs,qs,Qs,Hs,Gs,Ys,Ks,Zs,Js,Ws,Xs,_s,$s;!function(e){e.Ai="AI",e.Escalation="ESCALATION",e.WaitingToEscalation="WAITING_TO_ESCALATION"}(Cc||(Cc={})),function(e){e.Ai="AI",e.AutoEscalation="AUTO_ESCALATION",e.Escalation="ESCALATION"}(yc||(yc={})),function(e){e.Basic="BASIC",e.Light="LIGHT",e.Premium="PREMIUM",e.Public="PUBLIC",e.Registered="REGISTERED"}(Vc||(Vc={})),function(e){e.Pc="PC",e.PcAndSp="PC_AND_SP",e.Sp="SP"}(Sc||(Sc={})),function(e){e.News="NEWS",e.Program="PROGRAM",e.Qa="QA",e.TopCenter="TOP_CENTER"}(kc||(kc={})),function(e){e.Free="FREE",e.Graduate="GRADUATE",e.Instructor="INSTRUCTOR",e.NotLoggedIn="NOT_LOGGED_IN",e.Student="STUDENT",e.Subscription="SUBSCRIPTION",e.Team="TEAM"}(Ic||(Ic={})),function(e){e.False="FALSE",e.True="TRUE"}(Tc||(Tc={})),function(e){e.Failed="FAILED",e.Pending="PENDING",e.Succeeded="SUCCEEDED"}(Dc||(Dc={})),function(e){e.Applied="APPLIED",e.Approved="APPROVED",e.Editable="EDITABLE"}(Ec||(Ec={})),function(e){e.Day="DAY",e.Month="MONTH"}(Rc||(Rc={})),function(e){e.FaceToFace="FACE_TO_FACE",e.Online="ONLINE"}(zc||(zc={})),function(e){e.All="ALL",e.Coaching="COACHING",e.Course="COURSE",e.Historical="HISTORICAL"}(Mc||(Mc={})),function(e){e.All="ALL",e.Pc="PC",e.Sp="SP"}(Bc||(Bc={})),function(e){e.Latest="LATEST"}(Lc||(Lc={})),function(e){e.Practice="PRACTICE",e.Program="PROGRAM",e.Qa="QA",e.StudyReport="STUDY_REPORT",e.Tweet="TWEET"}(Nc||(Nc={})),function(e){e.AbTestDuplicatedDeviceType="ABTestDuplicatedDeviceType",e.AbTestDuplicatedOriginUrl="ABTestDuplicatedOriginURL",e.AbTestStartDateIsAfterEndDate="ABTestStartDateIsAfterEndDate",e.BannerIdAndTypeCombinationAlreadyExists="BannerIDAndTypeCombinationAlreadyExists",e.ChatMessageAlreadyDeletedError="ChatMessageAlreadyDeletedError",e.ClaimDetailAlreadyExistsCurriculum="ClaimDetailAlreadyExistsCurriculum",e.ClaimDetailAlreadyExistsLesson="ClaimDetailAlreadyExistsLesson",e.ClaimDetailAlreadyExistsSpotLesson="ClaimDetailAlreadyExistsSpotLesson",e.ClaimDetailNotAllowedFlexibleCurriculum="ClaimDetailNotAllowedFlexibleCurriculum",e.ClaimDetailNotAllowedLessonPreparation="ClaimDetailNotAllowedLessonPreparation",e.ClaimDetailNotAllowedQuestion="ClaimDetailNotAllowedQuestion",e.CommonDatabaseErr="CommonDatabaseErr",e.CommonInvalidImage="CommonInvalidImage",e.CommonInvalidItem="CommonInvalidItem",e.CommonInvalidUser="CommonInvalidUser",e.CommonNoPermission="CommonNoPermission",e.CommonNotAuthorization="CommonNotAuthorization",e.CommonPublicUserIsDenied="CommonPublicUserIsDenied",e.CommonRecordNotFound="CommonRecordNotFound",e.CommonStoreWorkerErr="CommonStoreWorkerErr",e.CommonUnknownErr="CommonUnknownErr",e.CommonUserIsDenied="CommonUserIsDenied",e.CourseInstructorIsNotAssigned="CourseInstructorIsNotAssigned",e.InstructorScheduleAcrossDays="InstructorScheduleAcrossDays",e.InstructorScheduleDuplicated="InstructorScheduleDuplicated",e.InstructorScheduleIsDuringNewYearHolidayPeriod="InstructorScheduleIsDuringNewYearHolidayPeriod",e.InstructorScheduleOutsideBusinessHours="InstructorScheduleOutsideBusinessHours",e.LessThanMinimumNumberOfTeamMembers="LessThanMinimumNumberOfTeamMembers",e.LessonAlreadyReserved="LessonAlreadyReserved",e.LessonIsDuringNewYearHolidayPeriod="LessonIsDuringNewYearHolidayPeriod",e.LessonIsOverCount="LessonIsOverCount",e.LessonIsOverDate="LessonIsOverDate",e.NoAvailableTickets="NoAvailableTickets",e.NotPermittedDownNumberOfTeamMembers="NotPermittedDownNumberOfTeamMembers",e.PracticeSubmitDetailReviewStatusIsInvalid="PracticeSubmitDetailReviewStatusIsInvalid",e.ProgramSatisfactionAlreadyExistsErr="ProgramSatisfactionAlreadyExistsErr",e.ProgramSatisfactionNotAllCompletedYetErr="ProgramSatisfactionNotAllCompletedYetErr",e.PromotionCodeIsInvalid="PromotionCodeIsInvalid",e.PromotionCodeIsUsed="PromotionCodeIsUsed",e.QuestionCommentIsNotPermitted="QuestionCommentIsNotPermitted",e.QuestionCommentIsPendingAnswer="QuestionCommentIsPendingAnswer",e.SessionAlreadyReserved="SessionAlreadyReserved",e.SessionIsDuringNewYearHolidayPeriod="SessionIsDuringNewYearHolidayPeriod",e.SessionIsOverCount="SessionIsOverCount",e.SpotLessonAlreadyDoneOrCanceled="SpotLessonAlreadyDoneOrCanceled",e.SpotLessonAlreadyReserved="SpotLessonAlreadyReserved",e.SpotLessonIsDuplicated="SpotLessonIsDuplicated",e.SpotLessonIsFullOfReservations="SpotLessonIsFullOfReservations",e.SpotLessonIsNotCovered="SpotLessonIsNotCovered",e.SpotLessonIsStarted="SpotLessonIsStarted",e.SpotLessonTooCloseToStartTime="SpotLessonTooCloseToStartTime",e.StripeCardDeclined="StripeCardDeclined",e.StripeCardExpired="StripeCardExpired",e.StripeCardIncorrectCvc="StripeCardIncorrectCVC",e.StripeDoNotHonorErr="StripeDoNotHonorErr",e.StripeProcessingError="StripeProcessingError",e.StripePromotionCodeAlreadyUsedErr="StripePromotionCodeAlreadyUsedErr",e.StripeRequestErr="StripeRequestErr",e.StudyReportMaxTimeError="StudyReportMaxTimeError",e.SubscriptionIsExisted="SubscriptionIsExisted",e.SubscriptionIsMaintained="SubscriptionIsMaintained",e.SubscriptionPaymentMethodIsEmpty="SubscriptionPaymentMethodIsEmpty",e.TeamInvitationAuthError="TeamInvitationAuthError",e.TeamInvitationEmailNotMatch="TeamInvitationEmailNotMatch",e.TeamInvitationInvalidId="TeamInvitationInvalidID",e.TeamInvitationNoValidEmail="TeamInvitationNoValidEmail",e.TeamInvitationReachedMaximumLimit="TeamInvitationReachedMaximumLimit",e.TeamInvitationUserAlreadyJoined="TeamInvitationUserAlreadyJoined",e.TeamInvitationUserAlreadySubscribed="TeamInvitationUserAlreadySubscribed",e.TeamMemberIsLastAdmin="TeamMemberIsLastAdmin",e.UserAlreadyDeleted="UserAlreadyDeleted",e.UserAlreadyExists="UserAlreadyExists",e.UserEmailInvalid="UserEmailInvalid",e.UserNotSetGoogleMeetUrl="UserNotSetGoogleMeetURL"}(Uc||(Uc={})),function(e){e.Bronze="BRONZE",e.Gold="GOLD",e.Shilver="SHILVER"}(Pc||(Pc={})),function(e){e.Issued="ISSUED",e.NotCalculated="NOT_CALCULATED",e.NoNeed="NO_NEED"}(Fc||(Fc={})),function(e){e.StudyReport="STUDY_REPORT"}(qc||(qc={})),function(e){e.No="NO",e.Yes="YES"}(Qc||(Qc={})),function(e){e.All="ALL",e.MyStudents="MY_STUDENTS",e.Reviewed="REVIEWED"}(Hc||(Hc={})),function(e){e.Draft="DRAFT",e.Open="OPEN",e.Paid="PAID",e.Uncollectible="UNCOLLECTIBLE",e.Void="VOID"}(Gc||(Gc={})),function(e){e.BitForward="BIT_FORWARD",e.BitLate="BIT_LATE",e.OnSchedule="ON_SCHEDULE",e.TooForward="TOO_FORWARD",e.TooLate="TOO_LATE"}(Yc||(Yc={})),function(e){e.SpotLessonTicketModal="SPOT_LESSON_TICKET_MODAL"}(Kc||(Kc={})),function(e){e.Finished="FINISHED",e.NotYet="NOT_YET",e.Processing="PROCESSING"}(Zc||(Zc={})),function(e){e.Read="READ",e.Unread="UNREAD"}(Jc||(Jc={})),function(e){e.Active="ACTIVE",e.Deleted="DELETED"}(Wc||(Wc={})),function(e){e.AttendanceStatusChangedNotifications="ATTENDANCE_STATUS_CHANGED_NOTIFICATIONS",e.BackSchoolNotifications="BACK_SCHOOL_NOTIFICATIONS",e.ClaimAppliedNotifications="CLAIM_APPLIED_NOTIFICATIONS",e.GivenFreeSpotLessonTicketNotifications="GIVEN_FREE_SPOT_LESSON_TICKET_NOTIFICATIONS",e.LessonCreatedNotifications="LESSON_CREATED_NOTIFICATIONS",e.LessonScheduleNotifications="LESSON_SCHEDULE_NOTIFICATIONS",e.LessonScheduleUncreatedNotifications="LESSON_SCHEDULE_UNCREATED_NOTIFICATIONS",e.LessonScheduleUpdatedNotifications="LESSON_SCHEDULE_UPDATED_NOTIFICATIONS",e.MessageNotifications="MESSAGE_NOTIFICATIONS",e.PracticeSubmitCreatedNotifications="PRACTICE_SUBMIT_CREATED_NOTIFICATIONS",e.PracticeSubmitDetailReviewCommentCreatedNotifications="PRACTICE_SUBMIT_DETAIL_REVIEW_COMMENT_CREATED_NOTIFICATIONS",e.PracticeSubmitReCreatedNotifications="PRACTICE_SUBMIT_RE_CREATED_NOTIFICATIONS",e.QuestionAnswerCreatedNotifications="QUESTION_ANSWER_CREATED_NOTIFICATIONS",e.QuestionCommentCreatedNotifications="QUESTION_COMMENT_CREATED_NOTIFICATIONS",e.QuestionCreatedNotifications="QUESTION_CREATED_NOTIFICATIONS",e.SessionRemindNotifications="SESSION_REMIND_NOTIFICATIONS",e.SpotLessonCancelNotifications="SPOT_LESSON_CANCEL_NOTIFICATIONS",e.SpotLessonLogUnregisteredNotifications="SPOT_LESSON_LOG_UNREGISTERED_NOTIFICATIONS",e.SpotLessonRegisteredNotifications="SPOT_LESSON_REGISTERED_NOTIFICATIONS",e.SpotLessonRemindNotifications="SPOT_LESSON_REMIND_NOTIFICATIONS",e.StudyReportCommentCreatedNotifications="STUDY_REPORT_COMMENT_CREATED_NOTIFICATIONS"}(Xc||(Xc={})),function(e){e.Canceled="CANCELED",e.Processing="PROCESSING",e.RequiresAction="REQUIRES_ACTION",e.RequiresCapture="REQUIRES_CAPTURE",e.RequiresConfirmation="REQUIRES_CONFIRMATION",e.RequiresPaymentmethod="REQUIRES_PAYMENTMETHOD",e.RequiresSucceeded="REQUIRES_SUCCEEDED",e.UnknOwN="UNKNOwN"}(_c||(_c={})),function(e){e.Bank="BANK",e.CreditCard="CREDIT_CARD"}($c||($c={})),function(e){e.Create="CREATE",e.Delete="DELETE",e.Read="READ",e.Update="UPDATE"}(es||(es={})),function(e){e.Easier="EASIER",e.Harder="HARDER",e.Normal="NORMAL",e.VeryEasy="VERY_EASY",e.VeryHard="VERY_HARD"}(ns||(ns={})),function(e){e.Draft="DRAFT",e.Passing="PASSING",e.RePresent="RE_PRESENT",e.Waiting="WAITING"}(ts||(ts={})),function(e){e.All="ALL",e.Everyone="EVERYONE",e.Mine="MINE",e.MyDraft="MY_DRAFT"}(is||(is={})),function(e){e.CreatedAt="CREATED_AT",e.UpdatedAt="UPDATED_AT"}(rs||(rs={})),function(e){e.PriceTypeOnetime="PRICE_TYPE_ONETIME",e.PriceTypeRecurring="PRICE_TYPE_RECURRING"}(as||(as={})),function(e){e.Tech="TECH",e.Trouble="TROUBLE"}(cs||(cs={})),function(e){e.Average="AVERAGE",e.Bad="BAD",e.Excellent="EXCELLENT",e.Good="GOOD",e.Poor="POOR"}(ss||(ss={})),function(e){e.All="ALL",e.CompletedStudy="COMPLETED_STUDY",e.WhileStudying="WHILE_STUDYING"}(os||(os={})),function(e){e.Instructor="INSTRUCTOR",e.Normal="NORMAL"}(ls||(ls={})),function(e){e.Deleted="DELETED",e.Draft="DRAFT",e.Open="OPEN",e.Paid="PAID",e.Uncollectible="UNCOLLECTIBLE",e.Void="VOID"}(ds||(ds={})),function(e){e.Active="ACTIVE",e.Canceled="CANCELED",e.Incomplete="INCOMPLETE",e.IncompleteExpired="INCOMPLETE_EXPIRED",e.PastDue="PAST_DUE",e.Trialing="TRIALING",e.Unpaid="UNPAID"}(bs||(bs={})),function(e){e.Bad="BAD",e.Good="GOOD"}(ms||(ms={})),function(e){e.Hide="HIDE",e.Invalid="INVALID",e.Valid="VALID"}(js||(js={})),function(e){e.Tech="TECH",e.Trouble="TROUBLE"}(us||(us={})),function(e){e.Hide="HIDE",e.Invalid="INVALID",e.Valid="VALID"}(As||(As={})),function(e){e.All="ALL",e.Mine="MINE",e.MyAnswered="MY_ANSWERED",e.MyDraft="MY_DRAFT",e.MyStudents="MY_STUDENTS"}(hs||(hs={})),function(e){e.ActionedAt="ACTIONED_AT",e.AnswerCount="ANSWER_COUNT",e.AnswerFavoriteCount="ANSWER_FAVORITE_COUNT",e.CreatedAt="CREATED_AT",e.QuestionFavoriteCount="QUESTION_FAVORITE_COUNT"}(ps||(ps={})),function(e){e.Draft="DRAFT",e.Hide="HIDE",e.Invalid="INVALID",e.Valid="VALID"}(gs||(gs={})),function(e){e.Day="DAY",e.Month="MONTH",e.Week="WEEK",e.Year="YEAR"}(Os||(Os={})),function(e){e.AwsProgram="AWS_PROGRAM",e.Environment="ENVIRONMENT",e.HtmlCssProgram="HTML_CSS_PROGRAM",e.JavaScriptProgram="JAVA_SCRIPT_PROGRAM",e.Lesson="LESSON",e.Others="OTHERS",e.OthersProgram="OTHERS_PROGRAM",e.PhpRubyProgram="PHP_RUBY_PROGRAM",e.PythonProgram="PYTHON_PROGRAM",e.Qa="QA"}(xs||(xs={})),function(e){e.Development="DEVELOPMENT",e.Education="EDUCATION",e.Efficiency="EFFICIENCY",e.JobChange="JOB_CHANGE",e.Others="OTHERS",e.SideBusiness="SIDE_BUSINESS"}(fs||(fs={})),function(e){e.AddNewFunction="ADD_NEW_FUNCTION",e.AddNewProgram="ADD_NEW_PROGRAM",e.AskAQuestion="ASK_A_QUESTION",e.BetterThanOther="BETTER_THAN_OTHER",e.Campaign="CAMPAIGN",e.GotMoreTime="GOT_MORE_TIME",e.Others="OTHERS"}(vs||(vs={})),function(e){e.Created="CREATED",e.DbConnectionFail="DB_CONNECTION_FAIL",e.Duplicated="DUPLICATED",e.Fail="FAIL",e.InvalidExtension="INVALID_EXTENSION",e.InvalidMimetype="INVALID_MIMETYPE",e.NotFound="NOT_FOUND",e.ServiceError="SERVICE_ERROR",e.SessionFail="SESSION_FAIL",e.Success="SUCCESS",e.Unauthorized="UNAUTHORIZED",e.Unknown="UNKNOWN",e.ValidationFail="VALIDATION_FAIL",e.WrongInput="WRONG_INPUT"}(ws||(ws={})),function(e){e.Asap="ASAP",e.FewDays="FEW_DAYS",e.SevenDays="SEVEN_DAYS"}(Cs||(Cs={})),function(e){e.Ai="AI",e.All="ALL",e.Escalation="ESCALATION",e.Solved="SOLVED"}(ys||(ys={})),function(e){e.Canceled="CANCELED",e.CanceledByStudent="CANCELED_BY_STUDENT",e.Completed="COMPLETED",e.NotCompleted="NOT_COMPLETED"}(Vs||(Vs={})),function(e){e.ChangeToInstructor="CHANGE_TO_INSTRUCTOR",e.InstructToInstructor="INSTRUCT_TO_INSTRUCTOR",e.Other="OTHER",e.ReconsiderCurricurum="RECONSIDER_CURRICURUM",e.ShareInfoToInstructor="SHARE_INFO_TO_INSTRUCTOR",e.StudentMental="STUDENT_MENTAL",e.TalkToCancel="TALK_TO_CANCEL",e.TalkToChangeCourse="TALK_TO_CHANGE_COURSE",e.TalkToExtensionCourse="TALK_TO_EXTENSION_COURSE",e.TalkToJobchamgeSupport="TALK_TO_JOBCHAMGE_SUPPORT",e.TalkToPayment="TALK_TO_PAYMENT",e.TalkToServiceDiscontent="TALK_TO_SERVICE_DISCONTENT"}(Ss||(Ss={})),function(e){e.AdminRequestTask="ADMIN_REQUEST_TASK",e.CheckStudentInfoTask="CHECK_STUDENT_INFO_TASK",e.MessageTask="MESSAGE_TASK",e.OtherTask="OTHER_TASK"}(ks||(ks={})),function(e){e.Forever="FOREVER",e.Once="ONCE",e.Repeating="REPEATING"}(Is||(Is={})),function(e){e.Instructor="INSTRUCTOR",e.Student="STUDENT"}(Ts||(Ts={})),function(e){e.Cancel="CANCEL",e.Complete="COMPLETE",e.Incomplete="INCOMPLETE",e.NonAttendance="NON_ATTENDANCE"}(Ds||(Ds={})),function(e){e.ChargeAutomatically="CHARGE_AUTOMATICALLY",e.SendInvoice="SEND_INVOICE"}(Es||(Es={})),function(e){e.Personal="PERSONAL",e.Team="TEAM",e.Unknown="UNKNOWN"}(Rs||(Rs={})),function(e){e.High="HIGH",e.Low="LOW",e.Middle="MIDDLE"}(zs||(zs={})),function(e){e.AdminCancel="ADMIN_CANCEL",e.ExitFeeJob="EXIT_FEE_JOB",e.MigrationJob="MIGRATION_JOB",e.TeamChangeCanceledAt="TEAM_CHANGE_CANCELED_AT",e.TeamCreate="TEAM_CREATE",e.TeamUpdate="TEAM_UPDATE",e.UserCancelAll="USER_CANCEL_ALL",e.UserChangeCanceledAt="USER_CHANGE_CANCELED_AT",e.UserCreate="USER_CREATE",e.UserRelease="USER_RELEASE",e.UserUpdate="USER_UPDATE",e.WebhookCreate="WEBHOOK_CREATE",e.WebhookUpdate="WEBHOOK_UPDATE"}(Ms||(Ms={})),function(e){e.Delete="DELETE",e.Insert="INSERT",e.Update="UPDATE",e.Upsert="UPSERT"}(Bs||(Bs={})),function(e){e.Active="ACTIVE",e.AutoCancel="AUTO_CANCEL",e.SelcCancel="SELC_CANCEL",e.Unknown="UNKNOWN"}(Ls||(Ls={})),function(e){e.Active="ACTIVE",e.Canceled="CANCELED",e.ChangeContractPeriod="CHANGE_CONTRACT_PERIOD",e.Completed="COMPLETED"}(Ns||(Ns={})),function(e){e.Active="ACTIVE",e.Canceled="CANCELED",e.Incomplete="INCOMPLETE",e.IncompleteExpired="INCOMPLETE_EXPIRED",e.PastDue="PAST_DUE",e.Trialing="TRIALING",e.Unknown="UNKNOWN",e.Unpaid="UNPAID"}(Us||(Us={})),function(e){e.Basic="BASIC",e.Light="LIGHT",e.Premium="PREMIUM"}(Ps||(Ps={})),function(e){e.DowngradeSchedule="DOWNGRADE_SCHEDULE",e.Immediate="IMMEDIATE",e.NotAvailable="NOT_AVAILABLE",e.Operation="OPERATION",e.Schedule="SCHEDULE",e.Self="SELF"}(Fs||(Fs={})),function(e){e.Tech="TECH",e.Trouble="TROUBLE"}(qs||(qs={})),function(e){e.Program="PROGRAM",e.RegisteredQuestionnaire="REGISTERED_QUESTIONNAIRE",e.SpotLesson="SPOT_LESSON"}(Qs||(Qs={})),function(e){e.All="ALL",e.ByDevice="BY_DEVICE",e.Pc="PC",e.Sp="SP"}(Hs||(Hs={})),function(e){e.Admin="ADMIN",e.General="GENERAL"}(Gs||(Gs={})),function(e){e.Active="ACTIVE",e.Ban="BAN",e.Deleted="DELETED"}(Ys||(Ys={})),function(e){e.Admin="ADMIN",e.Common="COMMON",e.Instructor="INSTRUCTOR"}(Ks||(Ks={})),function(e){e.All="ALL",e.Plus="PLUS",e.Pro="PRO"}(Zs||(Zs={})),function(e){e.Active="ACTIVE",e.Ban="BAN",e.Deleted="DELETED"}(Js||(Js={})),function(e){e.Admin="ADMIN",e.Coach="COACH",e.Instructor="INSTRUCTOR",e.NotLogin="NOT_LOGIN",e.Student="STUDENT",e.StudentFree="STUDENT_FREE",e.StudentGraduated="STUDENT_GRADUATED",e.StudentSubscription="STUDENT_SUBSCRIPTION",e.StudentSubscriptionBasic="STUDENT_SUBSCRIPTION_BASIC",e.StudentSubscriptionLight="STUDENT_SUBSCRIPTION_LIGHT",e.StudentSubscriptionPremium="STUDENT_SUBSCRIPTION_PREMIUM",e.Subscription="SUBSCRIPTION",e.SubscriptionBasic="SUBSCRIPTION_BASIC",e.SubscriptionFree="SUBSCRIPTION_FREE",e.SubscriptionLight="SUBSCRIPTION_LIGHT",e.SubscriptionPremium="SUBSCRIPTION_PREMIUM",e.TeamAdmin="TEAM_ADMIN",e.TeamAdminFree="TEAM_ADMIN_FREE",e.TeamMember="TEAM_MEMBER",e.TeamMemberFree="TEAM_MEMBER_FREE"}(Ws||(Ws={})),function(e){e.Invalid="INVALID",e.Valid="VALID"}(Xs||(Xs={})),function(e){e.JustRight="JUST_RIGHT",e.NotUsed="NOT_USED",e.TooDifficult="TOO_DIFFICULT",e.TooEasy="TOO_EASY"}(_s||(_s={})),function(e){e.Achieved="ACHIEVED",e.Busy="BUSY",e.ChangePlan="CHANGE_PLAN",e.DissatisfiedWithLesson="DISSATISFIED_WITH_LESSON",e.DissatisfiedWithPrograms="DISSATISFIED_WITH_PROGRAMS",e.DissatisfiedWithQa="DISSATISFIED_WITH_QA",e.Expensive="EXPENSIVE",e.FoundOtherServices="FOUND_OTHER_SERVICES",e.NotAcquiredSkills="NOT_ACQUIRED_SKILLS",e.Others="OTHERS",e.StopLearning="STOP_LEARNING",e.Unnecessary="UNNECESSARY",e.UnsupportedSkill="UNSUPPORTED_SKILL"}($s||($s={}));const eo=Object(gc.e)(M||(M=Object(s.a)(["\n    fragment AbTestDelivery on AbTestDelivery {\n  originURL\n  deviceType\n  totalRate\n  startDate\n  endDate\n  abTestDeliveryDetails {\n    deliveryURL\n    deliveryRate\n  }\n}\n    "]))),no=Object(gc.e)(B||(B=Object(s.a)(["\n    fragment BannerCid on BannerCid {\n  id\n  type\n  deviceType\n  cid\n  banner {\n    link\n    imageURL\n    title\n  }\n}\n    "]))),to=Object(gc.e)(L||(L=Object(s.a)(["\n    fragment Campaign on Campaign {\n  title\n  imageURL\n}\n    "]))),io=Object(gc.e)(N||(N=Object(s.a)(["\n    fragment Category on Category {\n  id\n  name\n  status\n  createdAt\n  updatedAt\n}\n    "]))),ro=Object(gc.e)(U||(U=Object(s.a)(["\n    fragment ProgramSearchSimple on Program {\n  id\n  title\n  description\n  icon\n}\n    "]))),ao=(Object(gc.e)(P||(P=Object(s.a)(["\n    fragment ChapterDetailSearch on Chapter {\n  id\n  title\n  description\n  number\n  type\n  programElement {\n    program {\n      ...ProgramSearchSimple\n    }\n  }\n}\n    ",""])),ro),Object(gc.e)(F||(F=Object(s.a)(["\n    fragment ChatMessageChatRoom on ChatRoom {\n  id\n  unreadCount\n  lastMessage {\n    id\n    content\n    status\n    createdAt\n    updatedAt\n  }\n}\n    "]))),Object(gc.e)(q||(q=Object(s.a)(["\n    fragment ChatMessageUser on User {\n  id\n  nickName\n  image\n  isInstructor\n  isStudent\n  isAdmin\n  updatedAt\n  instructor {\n    isCoach\n  }\n  maskedPersonalInfo {\n    name\n  }\n  snsType\n}\n    "])))),co=Object(gc.e)(Q||(Q=Object(s.a)(["\n    fragment UserChatMessage on UserChatMessage {\n  id\n  userID\n  chatRoomID\n  isRead\n  createdAt\n  updatedAt\n}\n    "]))),so=Object(gc.e)(H||(H=Object(s.a)(["\n    fragment ChatMessageList on ChatMessage {\n  id\n  content\n  status\n  createdAt\n  updatedAt\n  user {\n    ...ChatMessageUser\n  }\n  userChatMessage {\n    ...UserChatMessage\n  }\n}\n    ","\n",""])),ao,co),oo=Object(gc.e)(G||(G=Object(s.a)(["\n    fragment ChatMessageEdge on ChatMessageEdge {\n  node {\n    ...ChatMessageList\n  }\n  cursor\n}\n    ",""])),so),lo=Object(gc.e)(Y||(Y=Object(s.a)(["\n    fragment ChatMessageDraft on ChatMessageDraft {\n  chatRoomID\n  userID\n  content\n}\n    "]))),bo=Object(gc.e)(K||(K=Object(s.a)(["\n    fragment ChatMemberUser on User {\n  id\n  nickName\n  image\n  isInstructor\n  isStudent\n  isAdmin\n  updatedAt\n  instructor {\n    isCoach\n  }\n  student {\n    status\n  }\n  maskedPersonalInfo {\n    name\n  }\n  snsType\n}\n    "]))),mo=Object(gc.e)(Z||(Z=Object(s.a)(["\n    fragment ChatMemberList on ChatMember {\n  id\n  status\n  user {\n    ...ChatMemberUser\n  }\n}\n    ",""])),bo),jo=Object(gc.e)(J||(J=Object(s.a)(["\n    fragment ChatRoomList on ChatRoom {\n  id\n  title\n  status\n  createdAt\n  updatedAt\n  unreadCount\n  chatMembers {\n    ...ChatMemberList\n  }\n  lastMessage {\n    id\n    content\n    status\n    createdAt\n    updatedAt\n  }\n}\n    ",""])),mo),uo=Object(gc.e)(W||(W=Object(s.a)(["\n    fragment Claim on Claim {\n  id\n  applyStatus\n  month\n}\n    "]))),Ao=Object(gc.e)(X||(X=Object(s.a)(["\n    fragment StudySummary on StudySummary {\n  id\n  studyReportTime\n  studyReportCount\n  studyReportTimeMonth\n  studyReportTimeWeek\n  studyReportRunningLayDays\n  studyReportCurrentRunningLayDays\n}\n    "]))),ho=Object(gc.e)(_||(_=Object(s.a)(["\n    fragment User on User {\n  id\n  image\n  instructor {\n    id\n    isCoach\n  }\n  isAI\n  isAdmin\n  isInstructor\n  isStudent\n  maskedPersonalInfo {\n    name\n  }\n  nickName\n  snsType\n  studySummary {\n    ...StudySummary\n  }\n}\n    ",""])),Ao),po=Object(gc.e)($||($=Object(s.a)(["\n    fragment ClaimDetail on ClaimDetail {\n  id\n  subTotal\n  amount\n  date\n  additionalPayment\n  remark\n  unitPrice\n  course {\n    id\n    student {\n      id\n      status\n      user {\n        ...User\n      }\n    }\n    plan {\n      name\n    }\n  }\n  lesson {\n    id\n    title\n    type\n  }\n  spotLesson {\n    id\n    startAt\n  }\n  claimCategory {\n    id\n    name\n  }\n}\n    ",""])),ho),go=Object(gc.e)(ee||(ee=Object(s.a)(["\n    fragment ClaimCategory on ClaimCategory {\n  id\n  name\n}\n    "]))),Oo=Object(gc.e)(ne||(ne=Object(s.a)(["\n    fragment PageInfo on PageInfo {\n  startCursor\n  endCursor\n  hasNextPage\n  hasPreviousPage\n}\n    "]))),xo=Object(gc.e)(te||(te=Object(s.a)(["\n    fragment CourseStudent on Student {\n  id\n  user {\n    id\n    image\n    nickName\n    maskedPersonalInfo {\n      name\n    }\n  }\n}\n    "]))),fo=Object(gc.e)(ie||(ie=Object(s.a)(["\n    fragment Course on Course {\n  id\n  absentStartDate\n  absentEndDate\n  absent2StartDate\n  absent2EndDate\n  absent3StartDate\n  absent3EndDate\n  instructorChangeStartDate\n  instructorChangeEndDate\n  instructorChange2StartDate\n  instructorChange2EndDate\n  instructorChange3StartDate\n  instructorChange3EndDate\n  consultant\n  status\n  lessonType\n  lessonPlace\n  startDate\n  endDate\n  student {\n    ...CourseStudent\n  }\n  plan {\n    name\n  }\n  contractType\n  curriculum\n  jobChange\n  careerSupport\n  customerAcquisition\n  delayInPayment\n  breakInContact\n  teachingMaterialCost\n  lessonMinutesUpperLimit\n  status\n  plannedLessonCount\n  finishedLessonCount\n  coaching {\n    finishedSessionCount\n    plannedSessionCount\n  }\n  studentInformation {\n    customerInformation\n    transferInformation\n  }\n  instructorMemo\n}\n    ",""])),xo),vo=Object(gc.e)(re||(re=Object(s.a)(["\n    fragment CourseList on Course {\n  id\n  endDate\n  student {\n    user {\n      ...User\n    }\n  }\n  plan {\n    name\n  }\n  coaching {\n    id\n    plannedSessionCount\n    finishedSessionCount\n  }\n}\n    ",""])),ho),wo=Object(gc.e)(ae||(ae=Object(s.a)(["\n    fragment StudentCourse on Course {\n  startDate\n  endDate\n  curriculum\n  finishedLessonCount\n  plannedLessonCount\n  plan {\n    name\n  }\n  coaching {\n    plannedSessionCount\n    finishedSessionCount\n  }\n  status\n}\n    "]))),Co=Object(gc.e)(ce||(ce=Object(s.a)(["\n    fragment HistoricalCourse on Course {\n  id\n  lessons {\n    id\n    startAt\n    endAt\n    completed\n    canceled\n    title\n  }\n  plan {\n    isLessonPreparationAllowed\n    isQuestionAllowed\n    isFlexibleCurriculum\n    name\n  }\n  student {\n    ...CourseStudent\n  }\n}\n    ",""])),xo),yo=Object(gc.e)(se||(se=Object(s.a)(["\n    fragment CourseNewLesson on Course {\n  id\n  student {\n    user {\n      ...User\n    }\n  }\n  lessons {\n    id\n  }\n  plan {\n    name\n    lessonMinutes\n  }\n  plannedLessonCount\n  endDate\n}\n    ",""])),ho),Vo=Object(gc.e)(oe||(oe=Object(s.a)(["\n    fragment ChapterForCourseProgramStepItem on Chapter {\n  id\n  studyLog {\n    id\n  }\n  type\n}\n    "]))),So=Object(gc.e)(le||(le=Object(s.a)(["\n    fragment PracticeForCourseProgramStepItem on Practice {\n  id\n  type\n  mySubmit {\n    id\n    practiceSubmitDetails {\n      id\n      reviewStatus\n    }\n  }\n}\n    "]))),ko=Object(gc.e)(de||(de=Object(s.a)(["\n    fragment ProgramElementForCourseProgramStepItem on ProgramElement {\n  id\n  number\n  programID\n  chapter {\n    ...ChapterForCourseProgramStepItem\n  }\n  practice {\n    ...PracticeForCourseProgramStepItem\n  }\n}\n    ","\n",""])),Vo,So),Io=Object(gc.e)(be||(be=Object(s.a)(["\n    fragment CourseProgramStepItem on CourseProgramStepItem {\n  id\n  program {\n    id\n    icon\n    thumbnail\n    title\n    description\n    questionCount\n    answerCount\n    chapterCount\n    requireTime\n    studyLogCount(userID: $userID)\n    programElements {\n      ...ProgramElementForCourseProgramStepItem\n    }\n    completedTime\n    currentProgramElement {\n      ...ProgramElementForCourseProgramStepItem\n    }\n  }\n}\n    ",""])),ko),To=Object(gc.e)(me||(me=Object(s.a)(["\n    fragment CourseProgramDetail on CourseProgram {\n  id\n  title\n  image\n  content\n  description\n  overview\n  totalChapterCount\n  totalCompletedChapterCount\n  totalRequireTime\n  totalCompletedTime\n  courseProgramUserData {\n    createdAt\n    isStarted\n  }\n  courseProgramSteps {\n    id\n    title\n    description\n    number\n    courseProgramStepItems {\n      ...CourseProgramStepItem\n    }\n  }\n}\n    ",""])),Io),Do=Object(gc.e)(je||(je=Object(s.a)(["\n    fragment CourseProgramTag on Tag {\n  id\n  name\n}\n    "]))),Eo=Object(gc.e)(ue||(ue=Object(s.a)(["\n    fragment CourseProgram on CourseProgram {\n  id\n  title\n  image\n  content\n  description\n  overview\n  totalChapterCount\n  totalCompletedChapterCount\n  totalRequireTime\n  totalCompletedTime\n  courseProgramUserData {\n    createdAt\n    isStarted\n  }\n  tags {\n    ...CourseProgramTag\n  }\n}\n    ",""])),Do),Ro=Object(gc.e)(Ae||(Ae=Object(s.a)(["\n    fragment ProgramTag on Tag {\n  id\n  name\n}\n    "]))),zo=Object(gc.e)(he||(he=Object(s.a)(["\n    fragment Practice on Practice {\n  id\n  programID\n  key\n  program {\n    id\n    icon\n    title\n    category\n    tags {\n      ...ProgramTag\n    }\n  }\n  title\n  description\n  requireTime\n  content\n  answer\n  type\n  submitPassingCount\n  mySubmit {\n    id\n    practiceSubmitDetails {\n      id\n      reviewStatus\n    }\n  }\n  difficulty\n  status\n  createdAt\n  updatedAt\n}\n    ",""])),Ro),Mo=Object(gc.e)(pe||(pe=Object(s.a)(["\n    fragment ExamScore on ExamScore {\n  score\n  medalType\n}\n    "]))),Bo=Object(gc.e)(ge||(ge=Object(s.a)(["\n    fragment StudyLog on StudyLog {\n  id\n  chapterID\n  understandingLevel\n}\n    "]))),Lo=Object(gc.e)(Oe||(Oe=Object(s.a)(["\n    fragment ExamQuestion on ExamQuestion {\n  id\n  content\n  commentary\n  examAnswers {\n    id\n    content\n    isCorrect\n  }\n}\n    "]))),No=Object(gc.e)(xe||(xe=Object(s.a)(["\n    fragment Chapter on Chapter {\n  content\n  createdAt\n  description\n  id\n  key\n  number\n  requireTime\n  status\n  title\n  type\n  updatedAt\n  programElement {\n    programID\n    program {\n      title\n      tags {\n        ...ProgramTag\n      }\n    }\n  }\n  examScores {\n    ...ExamScore\n  }\n  studyLog {\n    ...StudyLog\n  }\n  examQuestions {\n    ...ExamQuestion\n  }\n}\n    ","\n","\n","\n",""])),Ro,Mo,Bo,Lo),Uo=Object(gc.e)(fe||(fe=Object(s.a)(["\n    fragment QuestionUser on User {\n  id\n  nickName\n  image\n  isStudent\n  isInstructor\n  isAdmin\n  snsType\n  isAI\n}\n    "]))),Po=Object(gc.e)(ve||(ve=Object(s.a)(["\n    fragment QuestionComment on QuestionComment {\n  id\n  user {\n    ...QuestionUser\n  }\n  content\n  status\n  createdAt\n  updatedAt\n}\n    ",""])),Uo),Fo=Object(gc.e)(we||(we=Object(s.a)(["\n    fragment QuestionAnswer on QuestionAnswer {\n  id\n  user {\n    ...QuestionUser\n  }\n  content\n  answerType\n  status\n  questionComments {\n    ...QuestionComment\n  }\n  questionAnswerFavorites {\n    userID\n  }\n  createdAt\n  updatedAt\n}\n    ","\n",""])),Uo,Po),qo=Object(gc.e)(Ce||(Ce=Object(s.a)(["\n    fragment Question on Question {\n  id\n  title\n  content\n  solved\n  editedAt\n  answerCount\n  answerRequestType\n  status\n  createdAt\n  updatedAt\n  questionAnswers {\n    ...QuestionAnswer\n  }\n  questionFavorites {\n    userID\n  }\n  user {\n    ...QuestionUser\n  }\n  program {\n    id\n    title\n  }\n  chapter {\n    id\n    title\n  }\n  practice {\n    id\n    title\n  }\n  tags {\n    id\n    name\n  }\n}\n    ","\n",""])),Fo,Uo),Qo=Object(gc.e)(ye||(ye=Object(s.a)(["\n    fragment StudyReportTag on Tag {\n  id\n  name\n  iconImage\n  studyReportCount\n}\n    "]))),Ho=Object(gc.e)(Ve||(Ve=Object(s.a)(["\n    fragment ProgramSampleSimple on ProgramSample {\n  id\n  title\n  url\n}\n    "]))),Go=Object(gc.e)(Se||(Se=Object(s.a)(["\n    fragment ChapterSearch on Chapter {\n  id\n  title\n  description\n  number\n  type\n  examScores {\n    ...ExamScore\n  }\n  studyLog {\n    ...StudyLog\n  }\n}\n    ","\n",""])),Mo,Bo),Yo=Object(gc.e)(ke||(ke=Object(s.a)(["\n    fragment PracticeSearch on Practice {\n  id\n  title\n  description\n  type\n}\n    "]))),Ko=Object(gc.e)(Ie||(Ie=Object(s.a)(["\n    fragment Program on Program {\n  id\n  icon\n  thumbnail\n  title\n  description\n  questionCount\n  answerCount\n  chapterCount\n  requireTime\n  studyLogCount(userID: $userID)\n  repository\n  programSample {\n    ...ProgramSampleSimple\n  }\n  tags {\n    ...ProgramTag\n  }\n  programElements {\n    chapter {\n      ...ChapterSearch\n    }\n    practice {\n      ...PracticeSearch\n    }\n  }\n  completedTime\n}\n    ","\n","\n","\n",""])),Ho,Ro,Go,Yo),Zo=Object(gc.e)(Te||(Te=Object(s.a)(["\n    fragment StudyReportDetail on StudyReportDetail {\n  id\n  tag {\n    ...StudyReportTag\n  }\n  time\n  program {\n    ...Program\n  }\n  createdAt\n  updatedAt\n}\n    ","\n",""])),Qo,Ko),Jo=Object(gc.e)(De||(De=Object(s.a)(["\n    fragment StudyReportComment on StudyReportComment {\n  id\n  content\n  studyReportID\n  user {\n    ...User\n  }\n  createdAt\n  updatedAt\n}\n    ",""])),ho),Wo=Object(gc.e)(Ee||(Ee=Object(s.a)(["\n    fragment StudyReportFavorite on StudyReportFavorite {\n  id\n  studyReportID\n  userID\n}\n    "]))),Xo=Object(gc.e)(Re||(Re=Object(s.a)(["\n    fragment StudyReport on StudyReport {\n  id\n  user {\n    ...User\n  }\n  date\n  content\n  studyReportDetails {\n    ...StudyReportDetail\n  }\n  studyReportComments {\n    ...StudyReportComment\n  }\n  studyReportFavorites {\n    ...StudyReportFavorite\n  }\n  status\n  createdAt\n  updatedAt\n}\n    ","\n","\n","\n",""])),ho,Zo,Jo,Wo),_o=Object(gc.e)(ze||(ze=Object(s.a)(["\n    fragment TweetComment on TweetComment {\n  tweetCommentID\n  content\n  createdAt\n  user {\n    ...User\n  }\n}\n    ",""])),ho),$o=Object(gc.e)(Me||(Me=Object(s.a)(["\n    fragment TweetFavorite on TweetFavorite {\n  id\n  userID\n}\n    "]))),el=Object(gc.e)(Be||(Be=Object(s.a)(["\n    fragment Tweet on Tweet {\n  tweetID: id\n  createdAt\n  tweetDetail {\n    content\n    detailType\n    user {\n      ...User\n    }\n    tweetImages {\n      id\n      content\n    }\n    tweetComments {\n      ...TweetComment\n    }\n    tweetFavorites {\n      ...TweetFavorite\n    }\n  }\n  tweetPostDestination\n}\n    ","\n","\n",""])),ho,_o,$o),nl=Object(gc.e)(Le||(Le=Object(s.a)(["\n    fragment DocumentList on Document {\n  documentID\n  type\n  practice {\n    ...Practice\n  }\n  chapter {\n    ...Chapter\n  }\n  qa {\n    ...Question\n  }\n  studyReport {\n    ...StudyReport\n  }\n  tweet {\n    ...Tweet\n  }\n}\n    ","\n","\n","\n","\n",""])),zo,No,qo,Xo,el),tl=Object(gc.e)(Ne||(Ne=Object(s.a)(["\n    fragment AnswerResponse on AnswerResponse {\n  questionID\n  answerID\n  result\n}\n    "]))),il=Object(gc.e)(Ue||(Ue=Object(s.a)(["\n    fragment UploadFile on UploadFilesResponse {\n  code\n  fileName\n  s3FilePath\n}\n    "]))),rl=Object(gc.e)(Pe||(Pe=Object(s.a)(["\n    fragment InstructorSchedule on InstructorSchedule {\n  id\n  startAt\n  endAt\n}\n    "]))),al=Object(gc.e)(Fe||(Fe=Object(s.a)(["\n    fragment LessonsAssistance on LessonsAssistance {\n  id\n  name\n}\n    "]))),cl=Object(gc.e)(qe||(qe=Object(s.a)(["\n    fragment InstructorLesson on Lesson {\n  id\n  startAt\n  endAt\n  taughtSkill\n  title\n  type\n  homework\n  prepare\n  progress\n  delayReason\n  assistanceDetail\n  lessonsAssistances {\n    id\n  }\n  canceled\n  completed\n  course {\n    id\n    plannedLessonCount\n    student {\n      user {\n        ...User\n      }\n    }\n    plan {\n      id\n      lessonMinutes\n    }\n  }\n}\n    ",""])),ho),sl=Object(gc.e)(Qe||(Qe=Object(s.a)(["\n    fragment StudentLesson on Lesson {\n  id\n  startAt\n  endAt\n  taughtSkill\n  title\n  type\n  homework\n  prepare\n  progress\n  delayReason\n  assistanceDetail\n  lessonsAssistances {\n    id\n  }\n  canceled\n  completed\n  course {\n    id\n    plannedLessonCount\n    plan {\n      id\n      lessonMinutes\n      name\n    }\n    instructor {\n      user {\n        ...User\n      }\n    }\n  }\n}\n    ",""])),ho),ol=Object(gc.e)(He||(He=Object(s.a)(["\n    fragment MailSetting on MailSetting {\n  messageReceived\n  lessonRegistered\n  lessonRemind\n  lessonUnregistered\n  lessonScheduleUpdated\n  practiceSubmitRegistered\n  practiceSubmitReRegistered\n  practiceSubmitDetailReviewCommentRegistered\n  questionRegistered\n  questionAnswerRegistered\n  questionCommentRegistered\n  claimApplied\n  backSchool\n  attendanceStatusChanged\n  notice\n  lessonLogUnregistered\n  studyReportCommentRegistered\n  studyReportAchieved\n  spotLessonRegistered\n  spotLessonRemind\n  spotLessonCancel\n  spotLessonLogUnregistered\n  ticketRemind\n  sessionRemind\n}\n    "]))),ll=Object(gc.e)(Ge||(Ge=Object(s.a)(["\n    fragment Modal on Modal {\n  id\n  isRead\n}\n    "]))),dl=Object(gc.e)(Ye||(Ye=Object(s.a)(["\n    fragment Notice on Notice {\n  id\n  title\n  content\n  createdAt\n  noticeRead {\n    noticeID\n  }\n}\n    "]))),bl=Object(gc.e)(Ke||(Ke=Object(s.a)(["\n    fragment NotificationQuestion on Question {\n  id\n  title\n}\n    "]))),ml=Object(gc.e)(Ze||(Ze=Object(s.a)(["\n    fragment NotificationLesson on Lesson {\n  id\n  title\n  startAt\n  endAt\n}\n    "]))),jl=Object(gc.e)(Je||(Je=Object(s.a)(["\n    fragment NotificationCourse on Course {\n  id\n  plan {\n    name\n  }\n  student {\n    user {\n      nickName\n    }\n  }\n  instructor {\n    user {\n      nickName\n    }\n  }\n}\n    "]))),ul=Object(gc.e)(We||(We=Object(s.a)(["\n    fragment NotificationSpotLesson on SpotLesson {\n  id\n  categories {\n    name\n  }\n  startAt\n  endAt\n}\n    "]))),Al=Object(gc.e)(Xe||(Xe=Object(s.a)(["\n    fragment NotificationSession on Session {\n  id\n  title\n  startAt\n  endAt\n}\n    "]))),hl=Object(gc.e)(_e||(_e=Object(s.a)(["\n    fragment NotificationPracticeSubmit on PracticeSubmit {\n  id\n  practice {\n    title\n  }\n}\n    "]))),pl=Object(gc.e)($e||($e=Object(s.a)(["\n    fragment Notification on Notification {\n  id\n  type\n  notificationReadStatus\n  notificationStatus\n  createdAt\n  user {\n    id\n    nickName\n  }\n  notificationDetail {\n    title\n    actor {\n      ...User\n    }\n    question {\n      ...NotificationQuestion\n    }\n    lesson {\n      ...NotificationLesson\n    }\n    course {\n      ...NotificationCourse\n    }\n    studyReport {\n      id\n    }\n    spotLesson {\n      ...NotificationSpotLesson\n    }\n    session {\n      ...NotificationSession\n    }\n    practiceSubmit {\n      ...NotificationPracticeSubmit\n    }\n  }\n}\n    ","\n","\n","\n","\n","\n","\n",""])),ho,bl,ml,jl,ul,Al,hl),gl=Object(gc.e)(en||(en=Object(s.a)(["\n    fragment PaymentIntent on PaymentIntent {\n  id\n  amountPaid\n  createdAt\n  charges {\n    receiptURL\n  }\n  paymentIntentPurchaseItems {\n    quantity\n    purchaseItem {\n      name\n    }\n  }\n}\n    "]))),Ol=Object(gc.e)(nn||(nn=Object(s.a)(["\n    fragment PracticeListItem on PracticeListItem {\n  id\n  programID\n  key\n  program {\n    id\n    icon\n    title\n    category\n    tags {\n      ...ProgramTag\n    }\n  }\n  title\n  description\n  requireTime\n  type\n  submitPassingCount\n  mySubmit {\n    id\n    practiceSubmitDetails {\n      id\n      reviewStatus\n    }\n  }\n  difficulty\n  status\n  createdAt\n  updatedAt\n}\n    ",""])),Ro),xl=Object(gc.e)(tn||(tn=Object(s.a)(["\n    fragment ProgramDetail on Program {\n  ...Program\n  summary\n  summaryImage1\n  summaryImage2\n  summaryImage3\n  summaryImage4\n  summaryImage5\n  category\n  programElements {\n    chapter {\n      ...Chapter\n    }\n    practice {\n      ...Practice\n    }\n  }\n}\n    ","\n","\n",""])),Ko,No,zo),fl=Object(gc.e)(rn||(rn=Object(s.a)(["\n    fragment PracticeDetail on Practice {\n  id\n  programID\n  program {\n    ...ProgramDetail\n  }\n  title\n  description\n  requireTime\n  content\n  answer\n  type\n  submitPassingCount\n  mySubmit {\n    id\n    practiceSubmitDetails {\n      id\n      reviewStatus\n    }\n  }\n  difficulty\n  status\n  createdAt\n  updatedAt\n}\n    ",""])),xl),vl=Object(gc.e)(an||(an=Object(s.a)(["\n    fragment PracticeSubmitList on PracticeSubmitSearch {\n  id\n  practice {\n    id\n    title\n    type\n    program {\n      id\n      title\n    }\n  }\n  user {\n    ...User\n  }\n  latestPracticeSubmitDetailID\n  latestPracticeSubmitDetailEditedAt\n  reviewStatus\n  reviewedCount\n  isViewable\n  createdAt\n  updatedAt\n}\n    ",""])),ho),wl=Object(gc.e)(cn||(cn=Object(s.a)(["\n    fragment PracticeSubmitDetailReviewComment on PracticeSubmitDetailReviewComment {\n  id\n  practiceSubmitDetailID\n  userID\n  user {\n    ...User\n  }\n  content\n  createdAt\n  updatedAt\n}\n    ",""])),ho),Cl=Object(gc.e)(sn||(sn=Object(s.a)(["\n    fragment PracticeSubmitDetail on PracticeSubmitDetail {\n  id\n  practiceSubmitID\n  url\n  content\n  reviewStatus\n  editedAt\n  createdAt\n  updatedAt\n  practiceSubmitDetailReviewComment {\n    ...PracticeSubmitDetailReviewComment\n  }\n}\n    ",""])),wl),yl=Object(gc.e)(on||(on=Object(s.a)(["\n    fragment PracticeSubmit on PracticeSubmit {\n  id\n  practice {\n    ...Practice\n  }\n  user {\n    ...User\n  }\n  createdAt\n  updatedAt\n  practiceSubmitDetails {\n    ...PracticeSubmitDetail\n  }\n}\n    ","\n","\n",""])),zo,ho,Cl),Vl=Object(gc.e)(ln||(ln=Object(s.a)(["\n    fragment InstructorPracticeSubmit on InstructorPracticeSubmit {\n  id\n  practice {\n    ...Practice\n  }\n  user {\n    ...User\n  }\n  createdAt\n  updatedAt\n  withoutDraftPracticeSubmitDetails {\n    ...PracticeSubmitDetail\n  }\n}\n    ","\n","\n",""])),zo,ho,Cl),Sl=Object(gc.e)(dn||(dn=Object(s.a)(["\n    fragment TeamPrice on Price {\n  id\n  recurringIntervalCount\n  unitAmount\n}\n    "]))),kl=Object(gc.e)(bn||(bn=Object(s.a)(["\n    fragment ProgramSearch on Program {\n  id\n  title\n  description\n  icon\n  programElements {\n    chapter {\n      ...ChapterSearch\n    }\n    practice {\n      ...PracticeSearch\n    }\n  }\n}\n    ","\n",""])),Go,Yo),Il=Object(gc.e)(mn||(mn=Object(s.a)(["\n    fragment ProgramSample on ProgramSample {\n  id\n  title\n  description\n  thumbnail\n  url\n  program {\n    ...ProgramSearchSimple\n  }\n}\n    ",""])),ro),Tl=Object(gc.e)(jn||(jn=Object(s.a)(["\n    fragment ProgramSatisfaction on ProgramSatisfaction {\n  userID\n  programID\n  level\n  comment\n  createdAt\n}\n    "]))),Dl=Object(gc.e)(un||(un=Object(s.a)(["\n    fragment ProgramForProgramSatisfaction on Program {\n  id\n  title\n  programElements {\n    chapter {\n      ...Chapter\n    }\n    practice {\n      ...Practice\n    }\n  }\n}\n    ","\n",""])),No,zo),El=Object(gc.e)(An||(An=Object(s.a)(["\n    fragment PromotionCodeApplyResult on PromotionCodeApplyResult {\n  isValid\n  amountOff\n  percentOff\n  price\n  appliedPrice\n  pvdDuration\n  pvdDurationInMonths\n}\n    "]))),Rl=Object(gc.e)(hn||(hn=Object(s.a)(["\n    fragment QuestionList on Question {\n  id\n  title\n  content\n  solved\n  editedAt\n  answerCount\n  answerRequestType\n  status\n  createdAt\n  updatedAt\n  user {\n    ...User\n  }\n  program {\n    id\n    title\n  }\n  chapter {\n    id\n    title\n  }\n  tags {\n    id\n    name\n  }\n}\n    ",""])),ho),zl=Object(gc.e)(pn||(pn=Object(s.a)(["\n    fragment SessionInstrForInstructor on Session {\n  id\n  title\n  coaching {\n    id\n    course {\n      id\n      student {\n        user {\n          ...User\n        }\n      }\n    }\n  }\n  assignedCoach {\n    id\n    user {\n      ...User\n    }\n  }\n  startAt\n  endAt\n  phase\n  status\n  createdAt\n  updatedAt\n}\n    ",""])),ho),Ml=(Object(gc.e)(gn||(gn=Object(s.a)(["\n    fragment SessionList on Session {\n  id\n  title\n  startAt\n  endAt\n  phase\n  coaching {\n    id\n    course {\n      student {\n        user {\n          ...User\n        }\n      }\n    }\n  }\n}\n    ",""])),ho),Object(gc.e)(On||(On=Object(s.a)(["\n    fragment SessionListForInstructor on Session {\n  id\n  title\n  startAt\n  endAt\n  phase\n  coaching {\n    id\n    course {\n      student {\n        user {\n          ...User\n        }\n      }\n    }\n  }\n}\n    ",""])),ho)),Bl=Object(gc.e)(xn||(xn=Object(s.a)(["\n    fragment SessionListForStudent on Session {\n  id\n  title\n  startAt\n  endAt\n  phase\n  coaching {\n    id\n    course {\n      plan {\n        name\n      }\n    }\n    coach {\n      user {\n        ...User\n      }\n    }\n  }\n}\n    ",""])),ho),Ll=Object(gc.e)(fn||(fn=Object(s.a)(["\n    fragment SessionReportPreparation on SessionReportPreparation {\n  id\n  sessionReportID\n  type\n}\n    "]))),Nl=Object(gc.e)(vn||(vn=Object(s.a)(["\n    fragment SessionReportAnnouncement on SessionReportAnnouncement {\n  id\n  sessionReportID\n  type\n}\n    "]))),Ul=Object(gc.e)(wn||(wn=Object(s.a)(["\n    fragment SessionReportForInstructor on SessionReport {\n  id\n  sessionID\n  content\n  hasPreparations\n  preparations {\n    ...SessionReportPreparation\n  }\n  preparationOthers\n  isOnSchedule\n  delayReason\n  hasAnnouncements\n  announcements {\n    ...SessionReportAnnouncement\n  }\n  hasAnnouncementsDetail\n  responseDeadline\n  coachingMemo\n}\n    ","\n",""])),Ll,Nl),Pl=Object(gc.e)(Cn||(Cn=Object(s.a)(["\n    fragment SpotLesson on SpotLesson {\n  id\n  troubleContent\n  researchContent\n  startAt\n  endAt\n  phase\n  tags {\n    id\n    name\n  }\n  categories {\n    id\n    name\n  }\n  zoomURL\n  instructorUser {\n    ...User\n  }\n  user {\n    ...User\n  }\n}\n    ",""])),ho),Fl=Object(gc.e)(yn||(yn=Object(s.a)(["\n    fragment TimeBlock on SpotLessonTimeBlock {\n  duration\n  disable\n  slotCount\n  reservationCount\n  startAt\n}\n    "]))),ql=Object(gc.e)(Vn||(Vn=Object(s.a)(["\n    fragment SpotLessonCalendar on SpotLessonCalendar {\n  date\n  timeBlocks {\n    ...TimeBlock\n  }\n}\n    ",""])),Fl),Ql=Object(gc.e)(Sn||(Sn=Object(s.a)(["\n    fragment PricePermission on PricePermission {\n  program\n  studyLog\n  question\n  practice\n  submitPractice\n}\n    "]))),Hl=Object(gc.e)(kn||(kn=Object(s.a)(["\n    fragment StripeStoredSubscription on StripeStoredSubscription {\n  id\n  currentPeriodStart\n  currentPeriodEnd\n  collectionMethod\n  latestInvoice\n  status\n  cancelAtPeriodEnd\n}\n    "]))),Gl=Object(gc.e)(In||(In=Object(s.a)(["\n    fragment StripeSubscription on StripeSubscription {\n  id\n  providerQuantity\n  providerStatus\n  price {\n    id\n    unitAmount\n    isSingleMonthContract\n    isMultiMonthContract\n    numberOfTickets\n    product {\n      id\n      name\n    }\n    pricePermission {\n      ...PricePermission\n    }\n  }\n  stripeSubscriptionResponse {\n    ...StripeStoredSubscription\n  }\n}\n    ","\n",""])),Ql,Hl),Yl=Object(gc.e)(Tn||(Tn=Object(s.a)(["\n    fragment StripeInvoice on StripeInvoice {\n  id\n  periodEnd\n  periodStart\n  total\n  invoicePDF\n  created\n  status\n  stripeInvoiceLines {\n    price {\n      productDetail {\n        id\n        name\n      }\n    }\n    periodEnd\n    periodStart\n  }\n}\n    "]))),Kl=Object(gc.e)(Dn||(Dn=Object(s.a)(["\n    fragment StripePaymentMethod on StripePaymentMethod {\n  id\n  cardNumber\n  cardBrand\n  expireMonth\n  expireYear\n  isDefault\n}\n    "]))),Zl=Object(gc.e)(En||(En=Object(s.a)(["\n    fragment StudyFavoriteSummary on StudyFavoriteSummary {\n  user {\n    ...User\n  }\n  studyFavoriteCount\n  studyFavoriteCountWeek\n  studyFavoriteCountMonth\n}\n    ",""])),ho),Jl=Object(gc.e)(Rn||(Rn=Object(s.a)(["\n    fragment StudySummaryList on StudySummary {\n  id\n  studyReportTime\n  studyReportCount\n  studyReportTimeMonth\n  studyReportTimeWeek\n  studyReportRunningLayDays\n  user {\n    ...User\n  }\n}\n    ",""])),ho),Wl=Object(gc.e)(zn||(zn=Object(s.a)(["\n    fragment StudyTagSummaryList on StudyTagSummary {\n  studyReportTime\n  studyReportTimeMonth\n  studyReportTimeWeek\n  tag {\n    id\n    name\n    iconImage\n  }\n}\n    "]))),Xl=Object(gc.e)(Mn||(Mn=Object(s.a)(["\n    fragment ScheduledSubscriptionContract on ScheduledSubscriptionContract {\n  startDate\n  endDate\n  product {\n    name\n  }\n  quantity\n}\n    "]))),_l=(Object(gc.e)(Bn||(Bn=Object(s.a)(["\n    fragment SubscriptionContract on SubscriptionContract {\n  id\n  canceledAt\n  periodStart\n  periodEnd\n}\n    "]))),Object(gc.e)(Ln||(Ln=Object(s.a)(["\n    fragment SubscriptionContractForList on SubscriptionContract {\n  id\n  canceledAt\n  periodStart\n  periodEnd\n  endDate\n  price {\n    product {\n      name\n    }\n  }\n}\n    "])))),$l=Object(gc.e)(Nn||(Nn=Object(s.a)(["\n    fragment SubscriptionCancellationPeriod on SubscriptionCancellationPeriod {\n  startDate\n  endDate\n}\n    "]))),ed=Object(gc.e)(Un||(Un=Object(s.a)(["\n    fragment Tag on Tag {\n  id\n  name\n  iconImage\n  questionCount\n  studyReportCount\n  overview\n}\n    "]))),nd=(Object(gc.e)(Pn||(Pn=Object(s.a)(["\n    fragment Team on Team {\n  image\n  companyName\n  adminEmail\n}\n    "]))),Object(gc.e)(Fn||(Fn=Object(s.a)(["\n    fragment MyTeamMember on TeamMember {\n  id\n  teamID\n  role\n  team {\n    companyName\n    image\n    status\n  }\n}\n    "])))),td=Object(gc.e)(qn||(qn=Object(s.a)(["\n    fragment TeamMemberList on TeamMember {\n  id\n  role\n  user {\n    id\n    nickName\n    image\n    completedPrograms {\n      id\n    }\n    totalLessonCount {\n      id\n    }\n    studySummary {\n      studyReportTime\n      studyReportCount\n    }\n  }\n}\n    "]))),id=Object(gc.e)(Qn||(Qn=Object(s.a)(["\n    fragment Ticket on Ticket {\n  id\n  expireAt\n}\n    "]))),rd=Object(gc.e)(Hn||(Hn=Object(s.a)(["\n    fragment TimelineStudyReport on StudyReport {\n  studyReportID: id\n  date\n  content\n  createdAt\n  user {\n    ...User\n  }\n  studyReportDetails {\n    time\n    tag {\n      id\n      iconImage\n      name\n    }\n    program {\n      id\n      title\n      thumbnail\n      icon\n      repository\n    }\n  }\n  studyReportComments {\n    id\n    content\n    createdAt\n    user {\n      ...User\n    }\n  }\n  studyReportFavorites {\n    id\n    userID\n  }\n}\n    ",""])),ho),ad=Object(gc.e)(Gn||(Gn=Object(s.a)(["\n    fragment UserPageLayout on User {\n  id\n  nickName\n  isInstructor\n}\n    "]))),cd=Object(gc.e)(Yn||(Yn=Object(s.a)(["\n    fragment StudyCalendar on StudyCalendar {\n  id\n  date\n  studyReportTime\n}\n    "]))),sd=Object(gc.e)(Kn||(Kn=Object(s.a)(["\n    fragment StudyTagSummary on StudyTagSummary {\n  id\n  studyReportTime\n  studyReportTimeMonth\n  studyReportTimeWeek\n  tag {\n    id\n    name\n    iconImage\n    status\n  }\n}\n    "]))),od=Object(gc.e)(Zn||(Zn=Object(s.a)(["\n    fragment UserProfile on User {\n  id\n  nickName\n  isInstructor\n  isStudent\n  image\n  profile\n  objective\n  tags {\n    id\n    name\n  }\n  userTags {\n    id\n    term\n    tag {\n      id\n      name\n    }\n  }\n  studySummary {\n    ...StudySummary\n  }\n  monthlyStudyCalendars {\n    ...StudyCalendar\n  }\n  studyTagSummaries {\n    ...StudyTagSummary\n  }\n  completedPrograms {\n    id\n  }\n  whileStudyingPrograms {\n    id\n  }\n  totalLessonCount {\n    id\n  }\n  questions {\n    id\n  }\n}\n    ","\n","\n",""])),Ao,cd,sd),ld=Object(gc.e)(Jn||(Jn=Object(s.a)(["\n    fragment UserProgram on Program {\n  id\n  icon\n  thumbnail\n  title\n  description\n  questionCount\n  answerCount\n  chapterCount\n  requireTime\n  studyLogCount(userID: $id)\n  tags {\n    ...ProgramTag\n  }\n  completedTime(userID: $id)\n}\n    ",""])),Ro),dd=(Object(gc.e)(Wn||(Wn=Object(s.a)(["\n    fragment IconUser on User {\n  id\n  image\n  isAI\n  isAdmin\n  isInstructor\n  isStudent\n  instructor {\n    isCoach\n  }\n  maskedPersonalInfo {\n    name\n  }\n  nickName\n  snsType\n}\n    "]))),Object(gc.e)(Xn||(Xn=Object(s.a)(["\n    fragment CurrentUser on User {\n  id\n  snsType\n  status\n  isAdmin\n  isInstructor\n  profile\n  objective\n  nickName\n  createdAt\n  tags {\n    id\n    name\n  }\n  userTags {\n    id\n    term\n    tag {\n      id\n      name\n    }\n  }\n  instructor {\n    id\n    isCoach\n  }\n  isStudent\n  image\n  personalInfo {\n    name\n    email\n    sex\n  }\n  student {\n    id\n    status\n    courses {\n      coaching {\n        id\n      }\n    }\n  }\n  maskedPersonalInfo {\n    name\n  }\n}\n    "])))),bd=Object(gc.e)(_n||(_n=Object(s.a)(["\n    fragment ContractOfStripeSubscriptionForAnalytics on ContractOfStripeSubscriptionForAnalytics {\n  contractDetailForAnalytics {\n    productID\n    productName\n    periodStart\n    periodEnd\n    canceledAt\n  }\n  stripeCustomerType\n}\n    "]))),md=Object(gc.e)($n||($n=Object(s.a)(["\n    fragment CurrentPermissionList on PermissionList {\n  roles\n  teamIDs\n  teamIDsForTeamAdmin\n}\n    "]))),jd=Object(gc.e)(et||(et=Object(s.a)(["\n    fragment CurrentUserWithPermissionList on UserWithPermissionList {\n  user {\n    ...CurrentUser\n  }\n  contractsOfStripeSubscriptionForAnalytics {\n    ...ContractOfStripeSubscriptionForAnalytics\n  }\n  permissionList {\n    ...CurrentPermissionList\n  }\n}\n    ","\n","\n",""])),dd,bd,md),ud=Object(gc.e)(nt||(nt=Object(s.a)(["\n    query getAbTestDeliveries {\n  abTestDeliveries {\n    ...AbTestDelivery\n  }\n}\n    ",""])),eo);const Ad=Object(gc.e)(tt||(tt=Object(s.a)(["\n    query getBannerCids($targetType: BannerTargetType!, $cidTypes: [BannerCidType!]!, $limit: Uint64!) {\n  bannerCids(input: {targetType: $targetType, cidTypes: $cidTypes, limit: $limit}) {\n    ...BannerCid\n  }\n}\n    ",""])),no);const hd=Object(gc.e)(it||(it=Object(s.a)(["\n    query getCampaign {\n  getCampaign {\n    ...Campaign\n  }\n}\n    ",""])),to);function pd(e){const n={...wc,...e};return Oc.b(hd,n)}const gd=Object(gc.e)(rt||(rt=Object(s.a)(["\n    query getCategories {\n  categories {\n    ...Category\n  }\n}\n    ",""])),io);const Od=Object(gc.e)(at||(at=Object(s.a)(["\n    query getChapter($chapterID: Uint64!, $includeExam: Boolean!) {\n  chapter(chapterID: $chapterID) {\n    ...Chapter\n  }\n  programExam(chapterID: $chapterID) @include(if: $includeExam) {\n    ...ExamQuestion\n  }\n}\n    ","\n",""])),No,Lo);const xd=Object(gc.e)(ct||(ct=Object(s.a)(["\n    query getChatMessages($chatRoomID: Uint64!, $first: Int!, $after: String) {\n  chatMessages(chatRoomID: $chatRoomID, first: $first, after: $after) {\n    edges {\n      ...ChatMessageEdge\n    }\n    pageInfo {\n      ...PageInfo\n    }\n  }\n}\n    ","\n",""])),oo,Oo);const fd=Object(gc.e)(st||(st=Object(s.a)(["\n    query getChatMessageUnreadCount($chatRoomID: Uint64) {\n  chatMessageUnreadCount(chatRoomID: $chatRoomID)\n}\n    "])));const vd=Object(gc.e)(ot||(ot=Object(s.a)(["\n    mutation readAllChatMessage($chatRoomID: Uint64!) {\n  readAllChatMessage(chatRoomID: $chatRoomID) {\n    chatRoomID\n    result\n  }\n}\n    "])));const wd=Object(gc.e)(lt||(lt=Object(s.a)(["\n    mutation createChatMessage($input: ChatMessageCreateInput!) {\n  createChatMessage(input: $input) {\n    ...ChatMessageList\n  }\n}\n    ",""])),so);const Cd=Object(gc.e)(dt||(dt=Object(s.a)(["\n    mutation updateChatMessage($id: Uint64!, $input: ChatMessageUpdateInput!) {\n  updateChatMessage(id: $id, input: $input) {\n    ...ChatMessageList\n  }\n}\n    ",""])),so);const yd=Object(gc.e)(bt||(bt=Object(s.a)(["\n    mutation deleteChatMessage($id: Uint64!) {\n  deleteChatMessage(id: $id) {\n    ...ChatMessageList\n  }\n}\n    ",""])),so);const Vd=Object(gc.e)(mt||(mt=Object(s.a)(["\n    subscription chatMessagePosted($chatRoomID: Uint64!) {\n  chatMessagePosted(chatRoomID: $chatRoomID) {\n    ...ChatMessageList\n  }\n}\n    ",""])),so);const Sd=Object(gc.e)(jt||(jt=Object(s.a)(["\n    query getChatMessageDraft($chatRoomID: Uint64!) {\n  chatMessageDraft(chatRoomID: $chatRoomID) {\n    ...ChatMessageDraft\n  }\n}\n    ",""])),lo);const kd=Object(gc.e)(ut||(ut=Object(s.a)(["\n    mutation upsertChatMessageDraft($chatRoomID: Uint64!, $content: String!) {\n  upsertChatMessageDraft(chatRoomID: $chatRoomID, content: $content)\n}\n    "])));const Id=Object(gc.e)(At||(At=Object(s.a)(["\n    mutation deleteChatMessageDraft($chatRoomID: Uint64!) {\n  deleteChatMessageDraft(chatRoomID: $chatRoomID)\n}\n    "])));const Td=Object(gc.e)(ht||(ht=Object(s.a)(["\n    query getChatRooms($first: Int!, $after: Time) {\n  chatRooms(first: $first, after: $after) {\n    items {\n      ...ChatRoomList\n    }\n    pageInfo {\n      ...PageInfo\n    }\n  }\n}\n    ","\n",""])),jo,Oo);const Dd=Object(gc.e)(pt||(pt=Object(s.a)(["\n    subscription chatRoomContentChanged {\n  chatRoomContentChanged {\n    ...ChatRoomList\n  }\n}\n    ",""])),jo);const Ed=Object(gc.e)(gt||(gt=Object(s.a)(["\n    query getClaimAndDetailsForInstructor($yearMonth: Time!, $input: InstructorClaimDetailSearchInput) {\n  claimForInstructor(yearMonth: $yearMonth) {\n    ...Claim\n  }\n  claimDetailsForInstructor(yearMonth: $yearMonth, input: $input) {\n    ...ClaimDetail\n  }\n}\n    ","\n",""])),uo,po);const Rd=Object(gc.e)(Ot||(Ot=Object(s.a)(["\n    query getClaimCategoriesForInstructor {\n  claimCategoriesForInstructor {\n    ...ClaimCategory\n  }\n}\n    ",""])),go);function zd(e){const n={...wc,...e};return Oc.b(Rd,n)}const Md=Object(gc.e)(xt||(xt=Object(s.a)(["\n    mutation addClaimDetailForInstructor($yearMonth: Time!, $input: ClaimDetailInput!) {\n  createClaimDetailForInstructor(yearMonth: $yearMonth, input: $input) {\n    id\n  }\n}\n    "])));const Bd=Object(gc.e)(ft||(ft=Object(s.a)(["\n    mutation updateClaimDetailForInstructor($id: Uint64!, $input: ClaimDetailInput!) {\n  updateClaimDetailForInstructor(id: $id, input: $input) {\n    id\n  }\n}\n    "])));const Ld=Object(gc.e)(vt||(vt=Object(s.a)(["\n    mutation deleteClaimDetailForInstructor($id: Uint64!) {\n  deleteClaimDetailForInstructor(id: $id)\n}\n    "])));const Nd=Object(gc.e)(wt||(wt=Object(s.a)(["\n    mutation applyClaimForInstructor($yearMonth: Time!, $input: ClaimInput!) {\n  applyClaimForInstructor(yearMonth: $yearMonth, input: $input) {\n    id\n  }\n}\n    "])));const Ud=Object(gc.e)(Ct||(Ct=Object(s.a)(["\n    query getCoursesForInstructor($input: InstructorCourseSearchInput!) {\n  coursesForInstructor(input: $input) {\n    ...Course\n  }\n}\n    ",""])),fo);function Pd(e){const n={...wc,...e};return Oc.b(Ud,n)}const Fd=Object(gc.e)(yt||(yt=Object(s.a)(["\n    query getCoursesForInstructorCreateLessonList($input: InstructorCourseSearchInput!) {\n  coursesForInstructor(input: $input) {\n    ...CourseNewLesson\n  }\n}\n    ",""])),yo);const qd=Object(gc.e)(Vt||(Vt=Object(s.a)(["\n    query getCoursesForInstructorCourseList($input: InstructorCourseSearchInput!) {\n  coursesForInstructor(input: $input) {\n    ...CourseList\n  }\n}\n    ",""])),vo);function Qd(e){const n={...wc,...e};return Oc.b(qd,n)}const Hd=Object(gc.e)(St||(St=Object(s.a)(["\n    query getActiveCoursesForInstructor($input: InstructorCourseSearchWithStudentNameInput!) {\n  activeCoursesForInstructor(input: $input) {\n    ...CourseList\n  }\n}\n    ",""])),vo);const Gd=Object(gc.e)(kt||(kt=Object(s.a)(["\n    query getCourseForInstructor($id: Uint64!) {\n  courseForInstructor(id: $id) {\n    ...Course\n  }\n}\n    ",""])),fo);const Yd=Object(gc.e)(It||(It=Object(s.a)(["\n    query getHistoricalCoursesForInstructor($userName: String) {\n  historicalCoursesForInstructor(userName: $userName) {\n    ...HistoricalCourse\n  }\n}\n    ",""])),Co);function Kd(e){const n={...wc,...e};return xc.a(Yd,n)}const Zd=Object(gc.e)(Tt||(Tt=Object(s.a)(["\n    query getCoursesForStudentHome {\n  coursesForStudent(input: {type: ALL}) {\n    ...StudentCourse\n  }\n}\n    ",""])),wo);const Jd=Object(gc.e)(Dt||(Dt=Object(s.a)(["\n    mutation updateCourse($id: Uint64!, $input: InstructorCourseInput!) {\n  updateCourseForInstructor(id: $id, input: $input) {\n    id\n  }\n}\n    "])));const Wd=Object(gc.e)(Et||(Et=Object(s.a)(["\n    query getCoursePrograms($input: CourseProgramSearchInput) {\n  coursePrograms(input: $input) {\n    ...CourseProgram\n  }\n}\n    ",""])),Eo);function Xd(e){const n={...wc,...e};return Oc.b(Wd,n)}const _d=Object(gc.e)(Rt||(Rt=Object(s.a)(["\n    query getCourseProgram($id: ULID!, $userID: Uint64) {\n  courseProgram(courseProgramID: $id) {\n    ...CourseProgramDetail\n  }\n}\n    ",""])),To);const $d=Object(gc.e)(zt||(zt=Object(s.a)(["\n    mutation startCourseProgram($id: ULID!) {\n  startCourseProgram(id: $id) {\n    createdAt\n  }\n}\n    "])));const eb=Object(gc.e)(Mt||(Mt=Object(s.a)(["\n    query searchDocuments($input: DocumentSearchInput!, $userID: Uint64) {\n  searchDocuments(input: $input) {\n    items {\n      ...DocumentList\n    }\n    total\n  }\n}\n    ",""])),nl);const nb=Object(gc.e)(Bt||(Bt=Object(s.a)(["\n    query getCountByDocumentType($input: CountSearchInput) {\n  countByDocumentType(input: $input) {\n    documentType\n    count\n  }\n}\n    "])));const tb=Object(gc.e)(Lt||(Lt=Object(s.a)(["\n    query getCountByTags($input: CountSearchInput, $tagIDs: [Uint64!]) {\n  countByTags(input: $input, tagIDs: $tagIDs) {\n    tagID\n    count\n    tag {\n      ...Tag\n    }\n  }\n}\n    ",""])),ed);const ib=Object(gc.e)(Nt||(Nt=Object(s.a)(["\n    query getProgramExam($chapterID: Uint64!) {\n  programExam(chapterID: $chapterID) {\n    ...ExamQuestion\n  }\n  chapter(chapterID: $chapterID) {\n    ...Chapter\n  }\n}\n    ","\n",""])),Lo,No);const rb=Object(gc.e)(Ut||(Ut=Object(s.a)(["\n    query getTotalMedalCounts {\n  totalMedalCounts {\n    programID\n    medalCounts\n  }\n}\n    "])));const ab=Object(gc.e)(Pt||(Pt=Object(s.a)(["\n    mutation answerExam($input: AnswerExamInput!) {\n  answerExam(input: $input) {\n    ExamScore {\n      ...ExamScore\n    }\n    answerResponses {\n      ...AnswerResponse\n    }\n  }\n}\n    ","\n",""])),Mo,tl);const cb=Object(gc.e)(Ft||(Ft=Object(s.a)(["\n    query getFeedbackCategories($first: Int!, $after: Uint64!) {\n  feedbackCategories(first: $first, after: $after) {\n    items {\n      id\n      name\n    }\n  }\n}\n    "])));function sb(e){const n={...wc,...e};return Oc.b(cb,n)}const ob=Object(gc.e)(qt||(qt=Object(s.a)(["\n    mutation uploadFiles($files: [Upload!]!) {\n  uploadFiles(input: {files: $files, isImage: false}) {\n    ...UploadFile\n  }\n}\n    ",""])),il);const lb=Object(gc.e)(Qt||(Qt=Object(s.a)(["\n    mutation uploadImages($files: [Upload!]!) {\n  uploadFiles(input: {files: $files, isImage: true}) {\n    ...UploadFile\n  }\n}\n    ",""])),il);function db(e){const n={...wc,...e};return fc.a(lb,n)}const bb=Object(gc.e)(Ht||(Ht=Object(s.a)(["\n    query getCalendarForInstructor {\n  calendarForInstructor {\n    id\n  }\n}\n    "])));Object(gc.e)(Gt||(Gt=Object(s.a)(["\n    query getInstructorSchedule($id: Uint64!) {\n  instructorSchedule(id: $id) {\n    ...InstructorSchedule\n  }\n}\n    ",""])),rl);const mb=Object(gc.e)(Yt||(Yt=Object(s.a)(["\n    query getInstructorSchedules($from: Time!, $to: Time!) {\n  instructorSchedules(from: $from, to: $to) {\n    ...InstructorSchedule\n  }\n}\n    ",""])),rl);const jb=Object(gc.e)(Kt||(Kt=Object(s.a)(["\n    mutation createInstructorSchedule($input: InstructorScheduleInput!) {\n  createInstructorSchedule(input: $input)\n}\n    "])));const ub=Object(gc.e)(Zt||(Zt=Object(s.a)(["\n    mutation deleteInstructorSchedule($id: Uint64!) {\n  deleteInstructorSchedule(id: $id)\n}\n    "])));const Ab=Object(gc.e)(Jt||(Jt=Object(s.a)(["\n    mutation updateInstructorSchedule($id: Uint64!, $input: InstructorScheduleInput!) {\n  updateInstructorSchedule(id: $id, input: $input)\n}\n    "])));const hb=Object(gc.e)(Wt||(Wt=Object(s.a)(["\n    query getNextLessonForStudent {\n  nextLessonForStudent {\n    ...StudentLesson\n  }\n}\n    ",""])),sl);function pb(e){const n={...wc,...e};return Oc.b(hb,n)}const gb=Object(gc.e)(Xt||(Xt=Object(s.a)(["\n    query getLessonsForStudent {\n  lessonsForStudent {\n    ...StudentLesson\n  }\n}\n    ",""])),sl);const Ob=Object(gc.e)(_t||(_t=Object(s.a)(["\n    query getNextLessonForInstructor {\n  nextLessonForInstructor {\n    ...InstructorLesson\n  }\n}\n    ",""])),cl);const xb=Object(gc.e)($t||($t=Object(s.a)(["\n    query getLessonsForInstructor($input: InstructorLessonSearchInput) {\n  lessonsForInstructor(input: $input) {\n    ...InstructorLesson\n  }\n}\n    ",""])),cl);const fb=Object(gc.e)(ei||(ei=Object(s.a)(["\n    query getLessonForInstructor($lessonID: Uint64!) {\n  lessonForInstructor(id: $lessonID) {\n    ...InstructorLesson\n  }\n}\n    ",""])),cl);const vb=Object(gc.e)(ni||(ni=Object(s.a)(["\n    query getLessonAssistances {\n  lessonAssistances {\n    ...LessonsAssistance\n  }\n}\n    ",""])),al);const wb=Object(gc.e)(ti||(ti=Object(s.a)(["\n    mutation createLessonForInstructor($courseID: Uint64!, $input: LessonInput!) {\n  createLessonForInstructor(courseID: $courseID, input: $input) {\n    id\n  }\n}\n    "])));const Cb=Object(gc.e)(ii||(ii=Object(s.a)(["\n    mutation updateLessonForInstructor($lessonID: Uint64!, $input: LessonInput!) {\n  updateLessonForInstructor(lessonID: $lessonID, input: $input) {\n    id\n  }\n}\n    "])));const yb=Object(gc.e)(ri||(ri=Object(s.a)(["\n    mutation upsertLessonReportForInstructor($lessonID: Uint64!, $input: LessonReportInput!) {\n  upsertLessonReportForInstructor(lessonID: $lessonID, input: $input) {\n    id\n  }\n}\n    "])));const Vb=Object(gc.e)(ai||(ai=Object(s.a)(["\n    mutation deleteLessonForInstructor($lessonID: Uint64!) {\n  deleteLessonForInstructor(lessonID: $lessonID)\n}\n    "])));const Sb=Object(gc.e)(ci||(ci=Object(s.a)(["\n    query getMailSetting {\n  getMailSetting {\n    ...MailSetting\n  }\n}\n    ",""])),ol);const kb=Object(gc.e)(si||(si=Object(s.a)(["\n    mutation updateMailSetting($input: MailSettingInput!) {\n  updateMailSetting(input: $input) {\n    id\n  }\n}\n    "])));const Ib=Object(gc.e)(oi||(oi=Object(s.a)(["\n    query getLatestModal($modalType: ModalType!) {\n  latest(modalType: $modalType) {\n    ...Modal\n  }\n}\n    ",""])),ll);const Tb=Object(gc.e)(li||(li=Object(s.a)(["\n    mutation readModal($id: Uint64!) {\n  readModal(id: $id)\n}\n    "])));const Db=Object(gc.e)(di||(di=Object(s.a)(["\n    query getNotices($first: Int!, $after: Uint64) {\n  notices(first: $first, after: $after) {\n    items {\n      ...Notice\n    }\n    pageInfo {\n      ...PageInfo\n    }\n  }\n}\n    ","\n",""])),dl,Oo);const Eb=Object(gc.e)(bi||(bi=Object(s.a)(["\n    query getNotice($id: Uint64!) {\n  notice(id: $id) {\n    ...Notice\n  }\n}\n    ",""])),dl);const Rb=Object(gc.e)(mi||(mi=Object(s.a)(["\n    mutation readNotice($id: Uint64!) {\n  readNotice(id: $id)\n}\n    "])));const zb=Object(gc.e)(ji||(ji=Object(s.a)(["\n    mutation readAllNotices {\n  readAllNotices\n}\n    "])));const Mb=Object(gc.e)(ui||(ui=Object(s.a)(["\n    query getNotifications($first: Int!, $after: String) {\n  getNotifications(first: $first, after: $after) {\n    items {\n      ...Notification\n    }\n    pageInfo {\n      ...PageInfo\n    }\n  }\n}\n    ","\n",""])),pl,Oo);const Bb=Object(gc.e)(Ai||(Ai=Object(s.a)(["\n    mutation readNotifications($first: Int!, $after: String) {\n  readNotifications(first: $first, after: $after) {\n    result\n  }\n}\n    "])));const Lb=Object(gc.e)(hi||(hi=Object(s.a)(["\n    mutation readAllNotifications {\n  readAllNotifications {\n    result\n  }\n}\n    "])));const Nb=Object(gc.e)(pi||(pi=Object(s.a)(["\n    query getNotificationUnreadCount {\n  getNotificationUnreadCount {\n    count\n  }\n  noticeUnreadCount\n}\n    "])));const Ub=Object(gc.e)(gi||(gi=Object(s.a)(["\n    query onboarding {\n  onboarding {\n    isShowOnboarding\n    isShowProfile\n    isCompletedProfile\n    isShowProgram\n    isCompletedProgram\n    isShowStudyReport\n    isCompletedStudyReport\n    isShowQuestion\n    isCompletedQuestion\n    isShowSpotLesson\n    isCompletedSpotLesson\n  }\n}\n    "])));const Pb=Object(gc.e)(Oi||(Oi=Object(s.a)(["\n    query getPaymentIntents($input: PaymentIntentSearchInput!) {\n  getPaymentIntents(input: $input) {\n    total\n    items {\n      ...PaymentIntent\n    }\n  }\n}\n    ",""])),gl);const Fb=Object(gc.e)(xi||(xi=Object(s.a)(["\n    query getPractice($practiceID: ULID!, $userID: Uint64) {\n  practice(practiceID: $practiceID) {\n    ...PracticeDetail\n  }\n}\n    ",""])),fl);function qb(e){const n={...wc,...e};return Oc.b(Fb,n)}const Qb=Object(gc.e)(fi||(fi=Object(s.a)(["\n    query getPractices($input: PracticeSearchInput!) {\n  practices(input: $input) {\n    items {\n      ...PracticeListItem\n    }\n    total\n  }\n}\n    ",""])),Ol);const Hb=Object(gc.e)(vi||(vi=Object(s.a)(["\n    query getPracticeSubmits($input: PracticeSubmitSearchInput!) {\n  getPracticeSubmits(input: $input) {\n    items {\n      ...PracticeSubmitList\n    }\n    total\n  }\n}\n    ",""])),vl);function Gb(e){const n={...wc,...e};return Oc.b(Hb,n)}const Yb=Object(gc.e)(wi||(wi=Object(s.a)(["\n    query getPracticeSubmitsForInstructor($input: InstructorPracticeSubmitSearchInput!) {\n  getPracticeSubmitsForInstructor(input: $input) {\n    items {\n      ...PracticeSubmitList\n    }\n    total\n  }\n}\n    ",""])),vl);function Kb(e){const n={...wc,...e};return Oc.b(Yb,n)}const Zb=Object(gc.e)(Ci||(Ci=Object(s.a)(["\n    query getPracticeSubmit($id: ULID!) {\n  getPracticeSubmit(id: $id) {\n    ...PracticeSubmit\n  }\n}\n    ",""])),yl);function Jb(e){const n={...wc,...e};return Oc.b(Zb,n)}const Wb=Object(gc.e)(yi||(yi=Object(s.a)(["\n    query getPracticeSubmitForInstructor($id: ULID!) {\n  getPracticeSubmitForInstructor(id: $id) {\n    ...InstructorPracticeSubmit\n  }\n}\n    ",""])),Vl);const Xb=Object(gc.e)(Vi||(Vi=Object(s.a)(["\n    mutation newPracticeSubmit($input: PracticeSubmitInput!) {\n  newPracticeSubmit(input: $input) {\n    id\n    practiceSubmitDetails {\n      id\n    }\n  }\n}\n    "])));function _b(e){const n={...wc,...e};return fc.a(Xb,n)}const $b=Object(gc.e)(Si||(Si=Object(s.a)(["\n    mutation rePracticeSubmit($input: RePracticeSubmitInput!) {\n  rePracticeSubmit(input: $input) {\n    id\n    practiceSubmitDetails {\n      id\n    }\n  }\n}\n    "])));function em(e){const n={...wc,...e};return fc.a($b,n)}const nm=Object(gc.e)(ki||(ki=Object(s.a)(["\n    mutation updatePracticeSubmit($input: UpdatePracticeSubmitInput!) {\n  updatePracticeSubmit(input: $input) {\n    id\n    practiceSubmitDetails {\n      id\n    }\n  }\n}\n    "])));const tm=Object(gc.e)(Ii||(Ii=Object(s.a)(["\n    mutation createPracticeSubmitDetailReviewComment($input: PracticeSubmitDetailReviewCommentInput!) {\n  createPracticeSubmitDetailReviewComment(input: $input) {\n    id\n  }\n}\n    "])));const im=Object(gc.e)(Ti||(Ti=Object(s.a)(["\n    mutation updatePracticeSubmitDetailReviewComment($input: UpdatePracticeSubmitDetailReviewCommentInput!) {\n  updatePracticeSubmitDetailReviewComment(input: $input) {\n    id\n  }\n}\n    "])));const rm=Object(gc.e)(Di||(Di=Object(s.a)(["\n    query getTeamPrices($paymentMethodType: PaymentMethodType!) {\n  teamPrices(paymentMethodType: $paymentMethodType) {\n    ...TeamPrice\n  }\n}\n    ",""])),Sl);function am(e){const n={...wc,...e};return Oc.b(rm,n)}const cm=Object(gc.e)(Ei||(Ei=Object(s.a)(["\n    query getPrice($id: Uint64!) {\n  getPrice(id: $id) {\n    id\n    product {\n      id\n      name\n      productExtension {\n        contractPeriod\n        contractPeriodTypeLabel\n        isMultiMonthContract\n      }\n    }\n    unitAmountIncludingTax\n  }\n}\n    "])));Object(gc.e)(Ri||(Ri=Object(s.a)(["\n    query getProduct($id: Uint64!) {\n  getProduct(id: $id) {\n    id\n    name\n    price {\n      unitAmountIncludingTax\n    }\n    productExtension {\n      contractPeriod\n      contractPeriodTypeLabel\n      isMultiMonthContract\n    }\n  }\n}\n    "])));const sm=Object(gc.e)(zi||(zi=Object(s.a)(["\n    query getPrograms($input: ProgramSearchInput!, $userID: Uint64) {\n  programs(input: $input) {\n    items {\n      ...Program\n    }\n  }\n}\n    ",""])),Ko);function om(e){const n={...wc,...e};return Oc.b(sm,n)}const lm=Object(gc.e)(Mi||(Mi=Object(s.a)(["\n    query searchPrograms($input: ProgramSearchInput!) {\n  programs(input: $input) {\n    items {\n      ...ProgramSearch\n    }\n  }\n}\n    ",""])),kl);function dm(e){const n={...wc,...e};return Oc.b(lm,n)}function bm(e){const n={...wc,...e};return xc.a(lm,n)}const mm=Object(gc.e)(Bi||(Bi=Object(s.a)(["\n    query getProgram($programID: Uint64!, $userID: Uint64) {\n  program(programID: $programID) {\n    ...ProgramDetail\n  }\n}\n    ",""])),xl);function jm(e){const n={...wc,...e};return Oc.b(mm,n)}const um=Object(gc.e)(Li||(Li=Object(s.a)(["\n    query getLastStudiedWhileStudyingProgram($userID: Uint64) {\n  lastStudiedWhileStudyingProgram {\n    ...ProgramDetail\n  }\n}\n    ",""])),xl);const Am=Object(gc.e)(Ni||(Ni=Object(s.a)(["\n    mutation createProgramFeedback($input: ProgramFeedbackInput!) {\n  createProgramFeedback(input: $input) {\n    id\n  }\n}\n    "])));function hm(e){const n={...wc,...e};return fc.a(Am,n)}const pm=Object(gc.e)(Ui||(Ui=Object(s.a)(["\n    query getProgramSamples($input: ProgramSampleSearchInput!) {\n  getProgramSamples(input: $input) {\n    items {\n      ...ProgramSample\n    }\n  }\n}\n    ",""])),Il);const gm=Object(gc.e)(Pi||(Pi=Object(s.a)(["\n    query getProgramSatisfaction($programID: Uint64!) {\n  programSatisfaction(programID: $programID) {\n    ...ProgramSatisfaction\n  }\n  program(programID: $programID) {\n    ...ProgramForProgramSatisfaction\n  }\n}\n    ","\n",""])),Tl,Dl);const Om=Object(gc.e)(Fi||(Fi=Object(s.a)(["\n    mutation createProgramSatisfaction($input: ProgramSatisfactionInput!) {\n  createProgramSatisfaction(input: $input) {\n    ...ProgramSatisfaction\n  }\n}\n    ",""])),Tl);const xm=Object(gc.e)(qi||(qi=Object(s.a)(["\n    query applyPromotionCode($promotionCode: String!, $priceID: Uint64!) {\n  applyPromotionCode(promotionCode: $promotionCode, priceID: $priceID) {\n    ...PromotionCodeApplyResult\n  }\n}\n    ",""])),El);const fm=Object(gc.e)(Qi||(Qi=Object(s.a)(["\n    query getQuestions($input: QuestionSearchInput!) {\n  getQuestions(input: $input) {\n    items {\n      ...QuestionList\n    }\n    total\n  }\n}\n    ",""])),Rl);function vm(e){const n={...wc,...e};return Oc.b(fm,n)}const wm=Object(gc.e)(Hi||(Hi=Object(s.a)(["\n    query getQuestion($questionID: Uint64!) {\n  getQuestion(id: $questionID) {\n    ...Question\n  }\n}\n    ",""])),qo);function Cm(e){const n={...wc,...e};return Oc.b(wm,n)}const ym=Object(gc.e)(Gi||(Gi=Object(s.a)(["\n    mutation resolveQuestion($questionID: Uint64!) {\n  resolveQuestion(id: $questionID) {\n    id\n  }\n}\n    "])));const Vm=Object(gc.e)(Yi||(Yi=Object(s.a)(["\n    mutation addQuestion($input: QuestionInput!) {\n  addQuestion(input: $input) {\n    id\n  }\n}\n    "])));const Sm=Object(gc.e)(Ki||(Ki=Object(s.a)(["\n    mutation updateQuestion($id: Uint64!, $input: QuestionInput!) {\n  updateQuestion(id: $id, input: $input) {\n    id\n  }\n}\n    "])));const km=Object(gc.e)(Zi||(Zi=Object(s.a)(["\n    mutation addQuestionAnswer($questionID: Uint64!, $input: QuestionAnswerInput!, $isEscalation: Boolean!) {\n  addQuestionAnswer(\n    questionID: $questionID\n    input: $input\n    isEscalation: $isEscalation\n  ) {\n    id\n  }\n}\n    "])));const Im=Object(gc.e)(Ji||(Ji=Object(s.a)(["\n    mutation updateQuestionAnswer($id: Uint64!, $input: QuestionAnswerInput!) {\n  updateQuestionAnswer(id: $id, input: $input) {\n    id\n  }\n}\n    "])));const Tm=Object(gc.e)(Wi||(Wi=Object(s.a)(["\n    mutation addQuestionComment($questionAnswerID: Uint64!, $input: QuestionCommentInput!) {\n  addQuestionComment(questionAnswerID: $questionAnswerID, input: $input) {\n    id\n  }\n}\n    "])));const Dm=Object(gc.e)(Xi||(Xi=Object(s.a)(["\n    mutation addQuestionAnswerEvaluation($input: QuestionAnswerEvaluationInput!) {\n  addQuestionAnswerEvaluation(input: $input) {\n    id\n  }\n}\n    "])));const Em=Object(gc.e)(_i||(_i=Object(s.a)(["\n    mutation updateQuestionComment($id: Uint64!, $input: QuestionCommentInput!) {\n  updateQuestionComment(id: $id, input: $input) {\n    id\n  }\n}\n    "])));const Rm=Object(gc.e)($i||($i=Object(s.a)(["\n    mutation changeQuestionFavoriteStatus($questionID: Uint64!) {\n  changeQuestionFavoriteStatus(questionID: $questionID) {\n    userID\n  }\n}\n    "])));const zm=Object(gc.e)(er||(er=Object(s.a)(["\n    mutation changeQuestionAnswerFavoriteStatus($questionAnswerID: Uint64!) {\n  changeQuestionAnswerFavoriteStatus(questionAnswerID: $questionAnswerID) {\n    userID\n  }\n}\n    "])));const Mm=Object(gc.e)(nr||(nr=Object(s.a)(["\n    mutation NewRegisteredQuestionnaire($questionnaireInput: NewRegisteredQuestionnaireInput!) {\n  NewRegisteredQuestionnaire(questionnaireInput: $questionnaireInput)\n}\n    "])));function Bm(e){const n={...wc,...e};return fc.a(Mm,n)}const Lm=Object(gc.e)(tr||(tr=Object(s.a)(["\n    mutation RechargeRegisteredQuestionnaire($questionnaireInput: RechargeRegisteredQuestionnaireInput!) {\n  RechargeRegisteredQuestionnaire(questionnaireInput: $questionnaireInput)\n}\n    "])));function Nm(e){const n={...wc,...e};return fc.a(Lm,n)}const Um=Object(gc.e)(ir||(ir=Object(s.a)(["\n    query getNextSessionForStudent {\n  nextSessionForStudent {\n    ...SessionListForStudent\n  }\n}\n    ",""])),Bl);const Pm=Object(gc.e)(rr||(rr=Object(s.a)(["\n    query getNextSessionForInstructor {\n  nextSessionForInstructor {\n    ...SessionInstrForInstructor\n  }\n}\n    ",""])),zl);const Fm=Object(gc.e)(ar||(ar=Object(s.a)(["\n    query getSessionsForInstructor($input: SessionSearchInput!) {\n  sessionsForInstructor(input: $input) {\n    ...SessionListForInstructor\n  }\n}\n    ",""])),Ml);const qm=Object(gc.e)(cr||(cr=Object(s.a)(["\n    query getSessionAndSessionReportForInstructor($sessionID: ULID!) {\n  session(id: $sessionID) {\n    ...SessionInstrForInstructor\n  }\n  sessionReportBySessionIDForInstructor(sessionID: $sessionID) {\n    ...SessionReportForInstructor\n  }\n}\n    ","\n",""])),zl,Ul);const Qm=Object(gc.e)(sr||(sr=Object(s.a)(["\n    query getSessionsForStudent {\n  sessionsForStudent {\n    ...SessionListForStudent\n  }\n}\n    ",""])),Bl);const Hm=Object(gc.e)(or||(or=Object(s.a)(["\n    mutation createSession($coachingID: ULID!, $input: SessionInput!) {\n  createSession(coachingID: $coachingID, input: $input) {\n    id\n  }\n}\n    "])));const Gm=Object(gc.e)(lr||(lr=Object(s.a)(["\n    mutation updateSession($id: ULID!, $input: SessionInput!) {\n  updateSession(id: $id, input: $input) {\n    id\n  }\n}\n    "])));const Ym=Object(gc.e)(dr||(dr=Object(s.a)(["\n    mutation createSessionReport($id: ULID!, $input: SessionReportInput!) {\n  createSessionReport(id: $id, input: $input) {\n    id\n  }\n}\n    "])));const Km=Object(gc.e)(br||(br=Object(s.a)(["\n    mutation updateSessionReport($id: ULID!, $input: SessionReportInput!) {\n  updateSessionReport(id: $id, input: $input) {\n    id\n  }\n}\n    "])));const Zm=Object(gc.e)(mr||(mr=Object(s.a)(["\n    mutation buyTicket {\n  buyTicket {\n    id\n  }\n}\n    "])));const Jm=Object(gc.e)(jr||(jr=Object(s.a)(["\n    mutation updateSpotLesson($id: Uint64!, $input: SpotLessonUpdateInput!) {\n  updateSpotLesson(id: $id, input: $input)\n}\n    "])));const Wm=Object(gc.e)(ur||(ur=Object(s.a)(["\n    mutation reserveSpotLesson($input: SpotLessonInput!) {\n  reserveSpotLesson(input: $input)\n}\n    "])));const Xm=Object(gc.e)(Ar||(Ar=Object(s.a)(["\n    mutation cancelSpotLesson($id: Uint64!) {\n  cancelSpotLesson(id: $id)\n}\n    "])));const _m=Object(gc.e)(hr||(hr=Object(s.a)(["\n    mutation completeSpotLessonForInstructor($id: Uint64!) {\n  completeSpotLessonForInstructor(id: $id)\n}\n    "])));const $m=Object(gc.e)(pr||(pr=Object(s.a)(["\n    mutation nonAttendanceSpotLessonForInstructor($id: Uint64!) {\n  nonAttendanceSpotLessonForInstructor(id: $id)\n}\n    "])));const ej=Object(gc.e)(gr||(gr=Object(s.a)(["\n    query getSpotLesson($id: Uint64!) {\n  spotLesson(id: $id) {\n    ...SpotLesson\n  }\n}\n    ",""])),Pl);const nj=Object(gc.e)(Or||(Or=Object(s.a)(["\n    query getSpotLessons($input: SpotLessonSearchInput!) {\n  spotLessons(input: $input) {\n    total\n    items {\n      ...SpotLesson\n    }\n  }\n}\n    ",""])),Pl);const tj=Object(gc.e)(xr||(xr=Object(s.a)(["\n    query getSpotLessonCalendars($from: Time!, $to: Time!, $tagIDs: [Uint64!]!) {\n  spotLessonCalendars(from: $from, to: $to, tagIDs: $tagIDs) {\n    ...SpotLessonCalendar\n  }\n}\n    ",""])),ql);const ij=Object(gc.e)(fr||(fr=Object(s.a)(["\n    query getSpotLessonCount {\n  spotLessonCount\n}\n    "])));const rj=Object(gc.e)(vr||(vr=Object(s.a)(["\n    query getNextSpotLesson {\n  nextSpotLesson {\n    ...SpotLesson\n  }\n}\n    ",""])),Pl);function aj(e){const n={...wc,...e};return Oc.b(rj,n)}const cj=Object(gc.e)(wr||(wr=Object(s.a)(["\n    query getSpotLessonsForInstructor($input: InstructorSpotLessonSearchInput!) {\n  spotLessonsForInstructor(input: $input) {\n    total\n    items {\n      ...SpotLesson\n    }\n  }\n}\n    ",""])),Pl);function sj(e){const n={...wc,...e};return Oc.b(cj,n)}const oj=Object(gc.e)(Cr||(Cr=Object(s.a)(["\n    query getSpotLessonForInstructor($id: Uint64!) {\n  spotLessonForInstructor(id: $id) {\n    ...SpotLesson\n  }\n}\n    ",""])),Pl);const lj=Object(gc.e)(yr||(yr=Object(s.a)(["\n    query subscription {\n  subscription {\n    ...StripeSubscription\n  }\n  scheduledSubscriptionContract {\n    ...ScheduledSubscriptionContract\n  }\n  subscriptionCancellationPeriod {\n    ...SubscriptionCancellationPeriod\n  }\n}\n    ","\n","\n",""])),Gl,Xl,$l);function dj(e){const n={...wc,...e};return Oc.b(lj,n)}const bj=Object(gc.e)(Vr||(Vr=Object(s.a)(["\n    query getTeamSubscription($teamID: ULID!) {\n  teamSubscription(teamID: $teamID) {\n    ...StripeSubscription\n  }\n  teamScheduledSubscriptionContract(teamID: $teamID) {\n    ...ScheduledSubscriptionContract\n  }\n}\n    ","\n",""])),Gl,Xl);const mj=Object(gc.e)(Sr||(Sr=Object(s.a)(["\n    query getTeamExistSubscription($teamID: ULID!) {\n  teamExistSubscription(teamID: $teamID)\n}\n    "])));function jj(e){const n={...wc,...e};return Oc.b(mj,n)}const uj=Object(gc.e)(kr||(kr=Object(s.a)(["\n    query getTeamExistMySubscription {\n  teamExistMySubscription\n}\n    "])));const Aj=Object(gc.e)(Ir||(Ir=Object(s.a)(["\n    query getTeamUpcomingInvoice($id: ULID!, $input: TeamUpdateSubscriptionFormInput!) {\n  teamUpcomingInvoice(teamID: $id, input: $input) {\n    nextInvoice {\n      ...StripeInvoice\n    }\n    defaultPrice\n    isIncrementalUpdate\n  }\n}\n    ",""])),Yl);const hj=Object(gc.e)(Tr||(Tr=Object(s.a)(["\n    query getUpcomingInvoice($input: UpdateSubscriptionFormInput!) {\n  upcomingInvoice(input: $input) {\n    oldPriceInvoice {\n      ...StripeInvoice\n    }\n  }\n}\n    ",""])),Yl);const pj=Object(gc.e)(Dr||(Dr=Object(s.a)(["\n    mutation teamSubscribe($input: TeamSubscribeFormInput!) {\n  teamSubscribe(input: $input)\n}\n    "])));function gj(e){const n={...wc,...e};return fc.a(pj,n)}const Oj=Object(gc.e)(Er||(Er=Object(s.a)(["\n    mutation teamSwitchCancelAtPeriodEndSubscription($id: ULID!) {\n  teamSwitchCancelAtPeriodEndSubscription(teamID: $id)\n}\n    "])));const xj=Object(gc.e)(Rr||(Rr=Object(s.a)(["\n    mutation teamUpdateSubscription($teamID: ULID!, $input: TeamUpdateSubscriptionFormInput!) {\n  teamUpdateSubscription(teamID: $teamID, input: $input)\n}\n    "])));const fj=Object(gc.e)(zr||(zr=Object(s.a)(["\n    mutation subscribe($input: SubscribeFormInput!) {\n  subscribe(input: $input)\n}\n    "])));const vj=Object(gc.e)(Mr||(Mr=Object(s.a)(["\n    mutation restoreSubscription {\n  switchCancelAtPeriodEndSubscription\n}\n    "])));const wj=Object(gc.e)(Br||(Br=Object(s.a)(["\n    mutation cancelSubscription($input: WithdrawalQuestionnaireInput!) {\n  switchCancelAtPeriodEndSubscription\n  sendWithdrawalQuestionnaireInput(input: $input)\n}\n    "])));const Cj=Object(gc.e)(Lr||(Lr=Object(s.a)(["\n    mutation releaseSubscriptionSchedule {\n  releaseSubscriptionSchedule\n}\n    "])));const yj=Object(gc.e)(Nr||(Nr=Object(s.a)(["\n    mutation updateSubscription($input: UpdateSubscriptionFormInput!) {\n  updateSubscription(input: $input)\n}\n    "])));const Vj=Object(gc.e)(Ur||(Ur=Object(s.a)(["\n    query getInvoices($input: InvoicesSearchInput!) {\n  invoices(input: $input) {\n    previousCursor\n    nextCursor\n    hasPrevious\n    hasNext\n    items {\n      ...StripeInvoice\n    }\n  }\n}\n    ",""])),Yl);const Sj=Object(gc.e)(Pr||(Pr=Object(s.a)(["\n    query getTeamInvoices($input: TeamInvoicesSearchInput!) {\n  teamInvoices(input: $input) {\n    previousCursor\n    nextCursor\n    hasPrevious\n    hasNext\n    items {\n      ...StripeInvoice\n    }\n  }\n}\n    ",""])),Yl);const kj=Object(gc.e)(Fr||(Fr=Object(s.a)(["\n    query getPaymentMethods($limit: Int64!) {\n  paymentMethods(input: {limit: $limit}) {\n    items {\n      ...StripePaymentMethod\n    }\n  }\n}\n    ",""])),Kl);function Ij(e){const n={...wc,...e};return Oc.b(kj,n)}const Tj=Object(gc.e)(qr||(qr=Object(s.a)(["\n    query getTeamPaymentMethods($teamID: ULID!, $limit: Int64!) {\n  teamPaymentMethods(input: {teamID: $teamID, limit: $limit}) {\n    items {\n      ...StripePaymentMethod\n    }\n  }\n}\n    ",""])),Kl);function Dj(e){const n={...wc,...e};return Oc.b(Tj,n)}const Ej=Object(gc.e)(Qr||(Qr=Object(s.a)(["\n    mutation teamSelectPaymentMethod($teamID: ULID!, $providerID: String!) {\n  teamSelectPaymentMethod(teamID: $teamID, providerID: $providerID)\n}\n    "])));function Rj(e){const n={...wc,...e};return fc.a(Ej,n)}const zj=Object(gc.e)(Hr||(Hr=Object(s.a)(["\n    mutation teamDeletePaymentMethod($teamID: ULID!, $providerID: String!) {\n  teamDeletePaymentMethod(teamID: $teamID, providerID: $providerID)\n}\n    "])));const Mj=Object(gc.e)(Gr||(Gr=Object(s.a)(["\n    mutation selectPaymentMethod($providerID: String!) {\n  selectPaymentMethod(providerID: $providerID)\n}\n    "])));function Bj(e){const n={...wc,...e};return fc.a(Mj,n)}const Lj=Object(gc.e)(Yr||(Yr=Object(s.a)(["\n    mutation deletePaymentMethod($providerID: String!) {\n  deletePaymentMethod(providerID: $providerID)\n}\n    "])));const Nj=Object(gc.e)(Kr||(Kr=Object(s.a)(["\n    query checkUpgradeTypes {\n  checkUpgradeTypes {\n    priceID\n    subscriptionUpgradeType\n    subscriptionType\n  }\n}\n    "])));const Uj=Object(gc.e)(Zr||(Zr=Object(s.a)(["\n    query checkUpgrade($priceID: Uint64!) {\n  checkUpgrade(priceID: $priceID) {\n    priceID\n    subscriptionUpgradeType\n    startDate\n    endDate\n    price {\n      unitAmount\n      product {\n        name\n      }\n      numberOfTickets\n      pricePermission {\n        ...PricePermission\n      }\n    }\n  }\n}\n    ",""])),Ql);const Pj=Object(gc.e)(Jr||(Jr=Object(s.a)(["\n    query isUpgradable {\n  isUpgradable\n}\n    "])));const Fj=Object(gc.e)(Wr||(Wr=Object(s.a)(["\n    query getCurrentStudent {\n  currentStudent {\n    courses {\n      id\n      plan {\n        name\n      }\n      startDate\n      endDate\n      absentStartDate\n      absentEndDate\n      curriculum\n    }\n  }\n}\n    "])));function qj(e){const n={...wc,...e};return Oc.b(Fj,n)}const Qj=Object(gc.e)(Xr||(Xr=Object(s.a)(["\n    query getStudyCalendar($input: StudyCalendarSearchInput!) {\n  getStudyCalendar(input: $input) {\n    ...StudyCalendar\n  }\n}\n    ",""])),cd);const Hj=Object(gc.e)(_r||(_r=Object(s.a)(["\n    query getStudyFavoriteSummaryList {\n  getStudyFavoriteSummaryList {\n    studyFavoriteCount {\n      ...StudyFavoriteSummary\n    }\n    studyFavoriteCountWeek {\n      ...StudyFavoriteSummary\n    }\n    studyFavoriteCountMonth {\n      ...StudyFavoriteSummary\n    }\n  }\n}\n    ",""])),Zl);const Gj=Object(gc.e)($r||($r=Object(s.a)(["\n    query getStudyLog($chapterID: Uint64!) {\n  getStudyLog(chapterID: $chapterID) {\n    ...StudyLog\n  }\n}\n    ",""])),Bo);const Yj=Object(gc.e)(ea||(ea=Object(s.a)(["\n    mutation saveStudyLog($chapterID: Uint64!, $understandingLevel: StudyLogUnderstandingLevel!) {\n  saveStudyLog(chapterID: $chapterID, understandingLevel: $understandingLevel) {\n    ...StudyLog\n  }\n}\n    ",""])),Bo);const Kj=Object(gc.e)(na||(na=Object(s.a)(["\n    query getStudyReport($id: Uint64!, $userID: Uint64) {\n  getStudyReport(id: $id) {\n    ...StudyReport\n  }\n}\n    ",""])),Xo);function Zj(e){const n={...wc,...e};return Oc.b(Kj,n)}const Jj=Object(gc.e)(ta||(ta=Object(s.a)(["\n    query getStudyReports($input: StudyReportSearchInput!, $userID: Uint64) {\n  getStudyReports(input: $input) {\n    total\n    items {\n      ...StudyReport\n    }\n  }\n}\n    ",""])),Xo);const Wj=Object(gc.e)(ia||(ia=Object(s.a)(["\n    query getRelatedStudyReports($input: RelatedStudyReportSearchInput!, $userID: Uint64) {\n  getRelatedStudyReports(input: $input) {\n    total\n    items {\n      ...StudyReport\n    }\n  }\n}\n    ",""])),Xo);const Xj=Object(gc.e)(ra||(ra=Object(s.a)(["\n    mutation createStudyReport($input: StudyReportInput!) {\n  createStudyReport(input: $input) {\n    id\n  }\n}\n    "])));const _j=Object(gc.e)(aa||(aa=Object(s.a)(["\n    mutation updateStudyReport($id: Uint64!, $input: StudyReportInput!) {\n  updateStudyReport(id: $id, input: $input) {\n    id\n  }\n}\n    "])));const $j=Object(gc.e)(ca||(ca=Object(s.a)(["\n    mutation deleteStudyReport($id: Uint64!) {\n  deleteStudyReport(id: $id) {\n    id\n  }\n}\n    "])));function eu(e){const n={...wc,...e};return fc.a($j,n)}const nu=Object(gc.e)(sa||(sa=Object(s.a)(["\n    mutation createStudyReportComment($studyReportID: Uint64!, $input: StudyReportCommentInput!) {\n  createStudyReportComment(studyReportID: $studyReportID, input: $input) {\n    id\n    content\n    createdAt\n    user {\n      ...User\n    }\n  }\n}\n    ",""])),ho);function tu(e){const n={...wc,...e};return fc.a(nu,n)}const iu=Object(gc.e)(oa||(oa=Object(s.a)(["\n    mutation updateStudyReportComment($id: Uint64!, $input: StudyReportCommentInput!) {\n  updateStudyReportComment(id: $id, input: $input) {\n    id\n  }\n}\n    "])));const ru=Object(gc.e)(la||(la=Object(s.a)(["\n    mutation deleteStudyReportComment($id: Uint64!) {\n  deleteStudyReportComment(id: $id) {\n    id\n  }\n}\n    "])));function au(e){const n={...wc,...e};return fc.a(ru,n)}const cu=Object(gc.e)(da||(da=Object(s.a)(["\n    mutation createStudyReportFavorite($studyReportID: Uint64!) {\n  createStudyReportFavorite(studyReportID: $studyReportID) {\n    ...StudyReportFavorite\n  }\n}\n    ",""])),Wo);function su(e){const n={...wc,...e};return fc.a(cu,n)}const ou=Object(gc.e)(ba||(ba=Object(s.a)(["\n    mutation deleteStudyReportFavorite($studyReportID: Uint64!) {\n  deleteStudyReportFavorite(studyReportID: $studyReportID) {\n    id\n  }\n}\n    "])));function lu(e){const n={...wc,...e};return fc.a(ou,n)}const du=Object(gc.e)(ma||(ma=Object(s.a)(["\n    query getStudySummary {\n  getStudySummary {\n    ...StudySummary\n  }\n}\n    ",""])),Ao);function bu(e){const n={...wc,...e};return Oc.b(du,n)}const mu=Object(gc.e)(ja||(ja=Object(s.a)(["\n    query getStudySummaryList {\n  getStudySummaryList {\n    studyReportTime {\n      ...StudySummaryList\n    }\n    studyReportTimeWeek {\n      ...StudySummaryList\n    }\n    studyReportTimeMonth {\n      ...StudySummaryList\n    }\n  }\n}\n    ",""])),Jl);const ju=Object(gc.e)(ua||(ua=Object(s.a)(["\n    query getStudyTagSummaries {\n  getStudyTagSummaries {\n    ...StudyTagSummary\n  }\n}\n    ",""])),sd);const uu=Object(gc.e)(Aa||(Aa=Object(s.a)(["\n    query getStudyTagSummaryList {\n  getStudyTagSummaryList {\n    studyReportTime {\n      ...StudyTagSummaryList\n    }\n    studyReportTimeWeek {\n      ...StudyTagSummaryList\n    }\n    studyReportTimeMonth {\n      ...StudyTagSummaryList\n    }\n  }\n}\n    ",""])),Wl);const Au=Object(gc.e)(ha||(ha=Object(s.a)(["\n    query mySubscriptionContracts($input: MySubscriptionContractInput!) {\n  mySubscriptionContracts(input: $input) {\n    items {\n      ...SubscriptionContractForList\n    }\n    total\n  }\n}\n    ",""])),_l);function hu(e){const n={...wc,...e};return Oc.b(Au,n)}const pu=Object(gc.e)(pa||(pa=Object(s.a)(["\n    query teamSubscriptionContracts($input: TeamSubscriptionContractInput!) {\n  teamSubscriptionContracts(input: $input) {\n    items {\n      ...SubscriptionContractForList\n    }\n    total\n  }\n}\n    ",""])),_l);const gu=Object(gc.e)(ga||(ga=Object(s.a)(["\n    query getTags($input: TagSearchInput!) {\n  getTags(input: $input) {\n    items {\n      ...Tag\n    }\n    total\n  }\n}\n    ",""])),ed);function Ou(e){const n={...wc,...e};return Oc.b(gu,n)}function xu(e){const n={...wc,...e};return xc.a(gu,n)}const fu=Object(gc.e)(Oa||(Oa=Object(s.a)(["\n    query getTag($id: Uint64!) {\n  getTag(id: $id) {\n    ...Tag\n  }\n}\n    ",""])),ed);function vu(e){const n={...wc,...e};return Oc.b(fu,n)}const wu=Object(gc.e)(xa||(xa=Object(s.a)(["\n    query getTeam($id: ULID!) {\n  team(id: $id) {\n    image\n    companyName\n    adminEmail\n    paymentMethodType\n  }\n}\n    "])));function Cu(e){const n={...wc,...e};return Oc.b(wu,n)}const yu=Object(gc.e)(fa||(fa=Object(s.a)(["\n    mutation updateTeam($id: ULID!, $input: UpdateTeamInput!) {\n  updateTeam(id: $id, input: $input) {\n    id\n  }\n}\n    "])));const Vu=Object(gc.e)(va||(va=Object(s.a)(["\n    query getTeamWithSubscription($id: ULID!) {\n  team(id: $id) {\n    id\n    paymentMethodType\n    teamMembers {\n      ...MyTeamMember\n    }\n  }\n  teamSubscription(teamID: $id) {\n    providerStatus\n  }\n}\n    ",""])),nd);const Su=Object(gc.e)(wa||(wa=Object(s.a)(["\n    mutation createTeam($input: TeamInput!) {\n  createTeam(input: $input) {\n    id\n  }\n}\n    "])));const ku=Object(gc.e)(Ca||(Ca=Object(s.a)(["\n    mutation deleteTeam($id: ULID!) {\n  deleteTeam(teamID: $id)\n}\n    "])));const Iu=Object(gc.e)(ya||(ya=Object(s.a)(["\n    mutation teamUpdatePaymentMethodType($teamID: ULID!, $paymentMethodType: PaymentMethodType!) {\n  teamUpdatePaymentMethodType(\n    teamID: $teamID\n    paymentMethodType: $paymentMethodType\n  )\n}\n    "])));const Tu=Object(gc.e)(Va||(Va=Object(s.a)(["\n    query getTeamInvitation($id: String!) {\n  teamInvitation(id: $id) {\n    team {\n      companyName\n    }\n  }\n}\n    "])));const Du=Object(gc.e)(Sa||(Sa=Object(s.a)(["\n    mutation createTeamInvitation($input: TeamInvitationInput!) {\n  createTeamInvitation(input: $input)\n}\n    "])));const Eu=Object(gc.e)(ka||(ka=Object(s.a)(["\n    query getMyTeamMembers {\n  myTeamMembers {\n    ...MyTeamMember\n  }\n}\n    ",""])),nd);const Ru=Object(gc.e)(Ia||(Ia=Object(s.a)(["\n    mutation joinTeamMember($teamInvitationID: ULID!) {\n  joinTeamMember(teamInvitationID: $teamInvitationID) {\n    id\n    teamID\n  }\n}\n    "])));const zu=Object(gc.e)(Ta||(Ta=Object(s.a)(["\n    query getTeamMembersByTeamID($input: TeamMemberSearchInput!) {\n  getTeamMembersByTeamID(input: $input) {\n    items {\n      ...TeamMemberList\n    }\n    total\n  }\n}\n    ",""])),td);function Mu(e){const n={...wc,...e};return Oc.b(zu,n)}const Bu=Object(gc.e)(Da||(Da=Object(s.a)(["\n    mutation changeTeamMemberRole($teamMemberID: ULID!, $role: TeamMemberRole!) {\n  changeTeamMemberRole(teamMemberID: $teamMemberID, role: $role)\n}\n    "])));const Lu=Object(gc.e)(Ea||(Ea=Object(s.a)(["\n    mutation removeTeamMember($id: ULID!) {\n  removeTeamMember(id: $id)\n}\n    "])));const Nu=Object(gc.e)(Ra||(Ra=Object(s.a)(["\n    query getTickets {\n  tickets {\n    ...Ticket\n  }\n}\n    ",""])),id);function Uu(e){const n={...wc,...e};return Oc.b(Nu,n)}const Pu=Object(gc.e)(za||(za=Object(s.a)(["\n    query getTimelines($first: Int!, $after: String, $adminAfter: String) {\n  getTimelinesV1(first: $first, after: $after, adminAfter: $adminAfter) {\n    items {\n      ...TimelineStudyReport\n      ...Tweet\n    }\n    pageInfo {\n      ...PageInfo\n    }\n    adminPageInfo {\n      ...PageInfo\n    }\n  }\n}\n    ","\n","\n",""])),rd,el,Oo);const Fu=Object(gc.e)(Ma||(Ma=Object(s.a)(["\n    query getTimelinesByUserID($first: Int!, $after: String, $userID: Int!) {\n  getTimelinesByUserID(first: $first, after: $after, userID: $userID) {\n    items {\n      ...TimelineStudyReport\n      ...Tweet\n    }\n    pageInfo {\n      ...PageInfo\n    }\n  }\n}\n    ","\n","\n",""])),rd,el,Oo);const qu=Object(gc.e)(Ba||(Ba=Object(s.a)(["\n    query getTweet($id: ULID!) {\n  getTweetV1(id: $id) {\n    ...Tweet\n  }\n}\n    ",""])),el);const Qu=Object(gc.e)(La||(La=Object(s.a)(["\n    mutation addTweet($input: TweetInput!) {\n  addTweet(input: $input) {\n    id\n  }\n}\n    "])));const Hu=Object(gc.e)(Na||(Na=Object(s.a)(["\n    mutation deleteTweet($tweetID: ULID!) {\n  deleteTweet(tweetID: $tweetID) {\n    id\n  }\n}\n    "])));const Gu=Object(gc.e)(Ua||(Ua=Object(s.a)(["\n    mutation addTweetFavorite($tweetID: ULID!) {\n  addTweetFavorite(tweetID: $tweetID) {\n    ...TweetFavorite\n  }\n}\n    ",""])),$o);const Yu=Object(gc.e)(Pa||(Pa=Object(s.a)(["\n    mutation deleteTweetFavorite($tweetID: ULID!) {\n  deleteTweetFavorite(tweetID: $tweetID) {\n    ...TweetFavorite\n  }\n}\n    ",""])),$o);const Ku=Object(gc.e)(Fa||(Fa=Object(s.a)(["\n    mutation addTweetComment($input: TweetCommentInput!) {\n  addTweetComment(input: $input) {\n    ...TweetComment\n  }\n}\n    ",""])),_o);const Zu=Object(gc.e)(qa||(qa=Object(s.a)(["\n    mutation deleteTweetComment($tweetCommentID: ULID!) {\n  deleteTweetComment(tweetCommentID: $tweetCommentID) {\n    ...TweetComment\n  }\n}\n    ",""])),_o);const Ju=Object(gc.e)(Qa||(Qa=Object(s.a)(["\n    query getUserForUserPageLayout($id: Uint64!) {\n  user(id: $id) {\n    ...UserPageLayout\n  }\n}\n    ",""])),ad);function Wu(e){const n={...wc,...e};return Oc.b(Ju,n)}const Xu=Object(gc.e)(Ha||(Ha=Object(s.a)(["\n    query getUserProfile($id: Uint64!) {\n  user(id: $id) {\n    ...UserProfile\n  }\n}\n    ",""])),od);const _u=Object(gc.e)(Ga||(Ga=Object(s.a)(["\n    query getUserWithPrograms($id: Uint64!) {\n  user(id: $id) {\n    ...UserPageLayout\n    completedPrograms {\n      ...UserProgram\n    }\n    whileStudyingPrograms {\n      ...UserProgram\n    }\n  }\n}\n    ","\n",""])),ad,ld);const $u=Object(gc.e)(Ya||(Ya=Object(s.a)(["\n    query getCurrentUserWithPermissions {\n  currentUserWithPermissions {\n    ...CurrentUserWithPermissionList\n  }\n}\n    ",""])),jd);const eA=Object(gc.e)(Ka||(Ka=Object(s.a)(["\n    query getAIUser {\n  aiUser {\n    ...QuestionUser\n  }\n}\n    ",""])),Uo);const nA=Object(gc.e)(Za||(Za=Object(s.a)(["\n    mutation withdraw($questionnaireInput: WithdrawalQuestionnaireInput!) {\n  withdraw(questionnaireInput: $questionnaireInput)\n}\n    "])));const tA=Object(gc.e)(Ja||(Ja=Object(s.a)(["\n    mutation updateLastAccess($smrc: String) {\n  updateLastAccess(smrc: $smrc)\n}\n    "])));const iA=Object(gc.e)(Wa||(Wa=Object(s.a)(["\n    mutation updateUser($input: UserInput!) {\n  updateUser(input: $input) {\n    id\n  }\n}\n    "])));const rA=Object(gc.e)(Xa||(Xa=Object(s.a)(["\n    mutation register($input: UserRegisterInput!) {\n  register(input: $input) {\n    id\n  }\n}\n    "])));function aA(e){const n={...wc,...e};return fc.a(rA,n)}const cA=Object(gc.e)(_a||(_a=Object(s.a)(["\n    mutation oAuthRegister($input: OAuthUserRegisterInput!) {\n  oAuthRegister(input: $input) {\n    ...CurrentUser\n  }\n}\n    ",""])),dd);const sA="\u30b7\u30b9\u30c6\u30e0\u30a8\u30e9\u30fc\u3067\u51e6\u7406\u306b\u5931\u6557\u3057\u307e\u3057\u305f\u3002\u304a\u56f0\u308a\u306e\u5834\u5408\u306f\u30e6\u30fc\u30b6\u30fc\u30b5\u30dd\u30fc\u30c8\u307e\u3067\u304a\u554f\u3044\u5408\u308f\u305b\u304a\u9858\u3044\u305f\u3057\u307e\u3059\u3002",oA=new Map([[Uc.UserAlreadyExists,"\u4f1a\u54e1\u306e\u767b\u9332\u306b\u5931\u6557\u3057\u307e\u3057\u305f\u3002\u3059\u3067\u306b\u767b\u9332\u6e08\u306e\u30e6\u30fc\u30b6\u30fc\u306f\u767b\u9332\u3044\u305f\u3060\u3051\u307e\u305b\u3093\u3002"],[Uc.UserAlreadyDeleted,"\u4f1a\u54e1\u306e\u767b\u9332\u306b\u5931\u6557\u3057\u307e\u3057\u305f\u3002\u4ee5\u524d\u524a\u9664\u3055\u308c\u305f\u30a2\u30ab\u30a6\u30f3\u30c8\u3068\u540c\u3058\u30e1\u30fc\u30eb\u30a2\u30c9\u30ec\u30b9\u3092\u4f7f\u7528\u3057\u3066\u3001\u65b0\u305f\u306a\u30e6\u30fc\u30b6\u30fc\u767b\u9332\u3092\u884c\u3046\u3053\u3068\u306f\u3067\u304d\u307e\u305b\u3093\u3002"],[Uc.CommonUserIsDenied,"\u30a2\u30ab\u30a6\u30f3\u30c8\u60c5\u5831\u304c\u66f4\u65b0\u3055\u308c\u305f\u305f\u3081\u3001\u30ed\u30b0\u30a4\u30f3\u3057\u76f4\u3057\u3066\u304f\u3060\u3055\u3044\u3002"],[Uc.CommonInvalidImage,"\u30d7\u30ed\u30d5\u30a3\u30fc\u30eb\u753b\u50cf\u306b\u306fGIF\u3001PNG\u3001JPEG\u3001WebP\u3001SVG\u5f62\u5f0f\u306e\u30d5\u30a1\u30a4\u30eb\u3092\u6307\u5b9a\u3057\u3066\u4e0b\u3055\u3044"],[Uc.StudyReportMaxTimeError,"1\u65e5\u306e\u5408\u8a08\u5b66\u7fd2\u6642\u9593\u304c24\u6642\u9593\u3092\u8d8a\u3048\u3066\u3044\u307e\u3059\u3002"],[Uc.UserEmailInvalid,"\u30e1\u30fc\u30eb\u30a2\u30c9\u30ec\u30b9\u306f\u6b63\u3057\u3044\u5f62\u5f0f\u3067\u5165\u529b\u3057\u3066\u304f\u3060\u3055\u3044\u3002"],[Uc.TeamInvitationNoValidEmail,"\u3059\u3067\u306b\u30c1\u30fc\u30e0\u306b\u6240\u5c5e\u6e08\u307f\u306e\u30e6\u30fc\u30b6\u30fc\u306b\u306f\u9001\u4fe1\u3067\u304d\u307e\u305b\u3093\u3002"],[Uc.TeamMemberIsLastAdmin,"\u30c1\u30fc\u30e0\u6700\u5f8c\u306e\u7ba1\u7406\u8005\u306a\u306e\u3067\u30a2\u30ab\u30a6\u30f3\u30c8\u3092\u524a\u9664\u3067\u304d\u307e\u305b\u3093\u3002"],[Uc.StripeDoNotHonorErr,"\u30af\u30ec\u30b8\u30c3\u30c8\u30ab\u30fc\u30c9\u306b\u3088\u308b\u652f\u6255\u3044\u304c\u62d2\u5426\u3055\u308c\u307e\u3057\u305f\u3002\u6642\u9593\u3092\u304a\u3044\u3066\u304a\u8a66\u3057\u3044\u305f\u3060\u304f\u304b\u3001\u30ab\u30fc\u30c9\u767a\u884c\u4f1a\u793e\u306b\u304a\u554f\u3044\u5408\u308f\u305b\u304f\u3060\u3055\u3044\u3002"],[Uc.SubscriptionPaymentMethodIsEmpty,"\u652f\u6255\u3044\u65b9\u6cd5\u304c\u8a2d\u5b9a\u3055\u308c\u3066\u3044\u307e\u305b\u3093"],[Uc.TeamInvitationReachedMaximumLimit,"\u30c1\u30fc\u30e0\u30e1\u30f3\u30d0\u30fc\u3088\u308a\u3082\u5951\u7d04\u7533\u3057\u8fbc\u307f\u4eba\u6570\u304c\u5c11\u306a\u3044\u3067\u3059"],[Uc.NotPermittedDownNumberOfTeamMembers,"\u9280\u884c\u632f\u8fbc\u306e\u5834\u5408\u3001\u5229\u7528\u4eba\u6570\u3092\u6e1b\u3089\u3059\u3053\u3068\u306f\u3067\u304d\u307e\u305b\u3093\u3002"],[Uc.ProgramSatisfactionNotAllCompletedYetErr,"\u5168\u7ae0\u4fee\u4e86\u3057\u3066\u3044\u306a\u3044\u305f\u3081\u3001\u8a55\u4fa1\u3092\u6295\u7a3f\u3067\u304d\u307e\u305b\u3093\u3067\u3057\u305f\u3002"],[Uc.PracticeSubmitDetailReviewStatusIsInvalid,"\u63d0\u51fa\u7269\u306e\u30b9\u30c6\u30fc\u30bf\u30b9\u304c\u66f4\u65b0\u3055\u308c\u3066\u3044\u308b\u305f\u3081\u3001\u4fdd\u5b58\u3067\u304d\u307e\u305b\u3093\u3002\u6700\u65b0\u306e\u63d0\u51fa\u7269\u3092\u78ba\u8a8d\u3057\u3066\u304f\u3060\u3055\u3044\u3002"],[Uc.StripePromotionCodeAlreadyUsedErr,"\u3054\u5229\u7528\u3044\u305f\u3060\u3044\u305f\u30af\u30fc\u30dd\u30f3\u306f\u521d\u56de\u5951\u7d04\u306e\u307f\u6709\u52b9\u306a\u30af\u30fc\u30dd\u30f3\u3067\u3059\u3002"],[Uc.PromotionCodeIsInvalid,"\u3053\u306e\u30af\u30fc\u30dd\u30f3\u30b3\u30fc\u30c9\u306f\u5229\u7528\u3067\u304d\u307e\u305b\u3093\u3002\u5927\u6587\u5b57\u3068\u5c0f\u6587\u5b57\u306f\u533a\u5225\u3055\u308c\u308b\u306e\u3067\u3054\u6ce8\u610f\u304f\u3060\u3055\u3044\u3002"],[Uc.PromotionCodeIsUsed,"\u3054\u5229\u7528\u3044\u305f\u3060\u3044\u305f\u30af\u30fc\u30dd\u30f3\u306f\u4f7f\u7528\u6e08\u307f\u3067\u3059\u3002"],[Uc.SubscriptionIsExisted,"\u3059\u3067\u306b\u30b5\u30d6\u30b9\u30af\u30ea\u30d7\u30b7\u30e7\u30f3\u7533\u3057\u8fbc\u307f\u6e08\u307f\u3067\u3059"],[Uc.SubscriptionIsMaintained,"\u6c7a\u6e08\u30b5\u30fc\u30d3\u30b9\u306e\u30e1\u30f3\u30c6\u30ca\u30f3\u30b9\u4e2d\u3067\u3059\u3002\u6642\u9593\u3092\u7a7a\u3051\u3066\u518d\u5ea6\u304a\u8a66\u3057\u304f\u3060\u3055\u3044"],[Uc.StripeCardDeclined,"\u9078\u629e\u3057\u305f\u30af\u30ec\u30b8\u30c3\u30c8\u30ab\u30fc\u30c9\u306f\u4f7f\u7528\u3067\u304d\u307e\u305b\u3093\u3002"],[Uc.StripeCardExpired,"\u30ab\u30fc\u30c9\u306e\u6709\u52b9\u671f\u9650\u304c\u5207\u308c\u3066\u3044\u307e\u3059\u3002"],[Uc.StripeProcessingError,"\u51e6\u7406\u306b\u5931\u6557\u3057\u307e\u3057\u305f\u3002\u6642\u9593\u3092\u304a\u3044\u3066\u3082\u3046\u4e00\u5ea6\u30af\u30ec\u30b8\u30c3\u30c8\u30ab\u30fc\u30c9\u306e\u767b\u9332\u3092\u884c\u3063\u3066\u304f\u3060\u3055\u3044\u3002"],[Uc.ChatMessageAlreadyDeletedError,"\u30e1\u30c3\u30bb\u30fc\u30b8\u306f\u3059\u3067\u306b\u524a\u9664\u6e08\u307f\u306e\u53ef\u80fd\u6027\u304c\u3042\u308a\u307e\u3059\u3002\u30ea\u30ed\u30fc\u30c9\u5f8c\u306b\u518d\u5ea6\u304a\u8a66\u3057\u304f\u3060\u3055\u3044\u3002"],[Uc.SessionAlreadyReserved,"\u6307\u5b9a\u3055\u308c\u305f\u65e5\u6642\u306f\u65e2\u306b\u30bb\u30c3\u30b7\u30e7\u30f3\u306e\u4e88\u5b9a\u304c\u3042\u308b\u305f\u3081\u767b\u9332\u3067\u304d\u307e\u305b\u3093\u3002"],[Uc.SessionIsDuringNewYearHolidayPeriod,"\u5e74\u672b\u5e74\u59cb\u306e\u4f11\u696d\u671f\u9593\u4e2d(12/30\u301c1/3)\u306f\u30bb\u30c3\u30b7\u30e7\u30f3\u306e\u767b\u9332\u306f\u3067\u304d\u307e\u305b\u3093\u3002"],[Uc.SessionIsOverCount,"\u30bb\u30c3\u30b7\u30e7\u30f3\u6570\u306e\u4e0a\u9650\u3092\u8d85\u3048\u3066\u3044\u307e\u3059\u3002"],[Uc.LessonAlreadyReserved,"\u6307\u5b9a\u3055\u308c\u305f\u65e5\u6642\u306f\u65e2\u306b\u30ec\u30c3\u30b9\u30f3\u306e\u4e88\u5b9a\u304c\u3042\u308b\u305f\u3081\u767b\u9332\u3067\u304d\u307e\u305b\u3093\u3002"],[Uc.LessonIsDuringNewYearHolidayPeriod,"\u5e74\u672b\u5e74\u59cb\u306e\u4f11\u696d\u671f\u9593\u4e2d(12/30\u301c1/3)\u306f\u30ec\u30c3\u30b9\u30f3\u306e\u767b\u9332\u306f\u3067\u304d\u307e\u305b\u3093\u3002"],[Uc.LessonIsOverDate,"\u6307\u5b9a\u3055\u308c\u305f\u65e5\u6642\u306f\u30b3\u30fc\u30b9\u7d42\u4e86\u65e5\u6642\u4ee5\u964d\u3067\u3042\u308b\u305f\u3081\u767b\u9332\u3067\u304d\u307e\u305b\u3093\u3002"],[Uc.LessonIsOverCount,"\u898f\u5b9a\u306e\u30ec\u30c3\u30b9\u30f3\u56de\u6570\u3092\u8d85\u3048\u308b\u305f\u3081\u767b\u9332\u3067\u304d\u307e\u305b\u3093\u3002"],[Uc.CourseInstructorIsNotAssigned,"\u6307\u5b9a\u3055\u308c\u305f\u30a4\u30f3\u30b9\u30c8\u30e9\u30af\u30bf\u30fc\u306f\u8a72\u5f53\u306e\u30b3\u30fc\u30b9\u306b\u30a2\u30b5\u30a4\u30f3\u3055\u308c\u3066\u3044\u306a\u3044\u305f\u3081\u3001\u30ec\u30c3\u30b9\u30f3\u3092\u767b\u9332/\u66f4\u65b0\u3067\u304d\u307e\u305b\u3093\u3002"],[Uc.InstructorScheduleAcrossDays,"\u65e5\u3092\u307e\u305f\u3050\u65e5\u7a0b\u306f\u767b\u9332\u3067\u304d\u307e\u305b\u3093\u3002"],[Uc.InstructorScheduleOutsideBusinessHours,"\u65e5\u3092\u307e\u305f\u3050\u65e5\u7a0b\u306f\u767b\u9332\u3067\u304d\u307e\u305b\u3093\u3002"],[Uc.InstructorScheduleIsDuringNewYearHolidayPeriod,"\u5e74\u672b\u5e74\u59cb\u306e\u4f11\u696d\u671f\u9593\u4e2d(12/30\u301c1/3)\u306f\u767b\u9332\u306f\u3067\u304d\u307e\u305b\u3093\u3002"],[Uc.InstructorScheduleDuplicated,"\u305d\u306e\u6642\u9593\u5e2f\u306f\u65e2\u306b\u767b\u9332\u6e08\u307f\u3067\u3059\u3002"],[Uc.UserNotSetGoogleMeetUrl,"\u30a2\u30ab\u30a6\u30f3\u30c8\u306eMeet URL\u9023\u643a\u304c\u3055\u308c\u3066\u3044\u307e\u305b\u3093\u3002\u904b\u55b6\u307e\u3067\u304a\u554f\u5408\u305b\u304f\u3060\u3055\u3044\u3002"],[Uc.NoAvailableTickets,"\u5229\u7528\u53ef\u80fd\u306a\u30c1\u30b1\u30c3\u30c8\u304c\u3042\u308a\u307e\u305b\u3093\u3067\u3057\u305f\u3002"],[Uc.SpotLessonAlreadyReserved,"\u4e88\u7d04\u304c\u5165\u3063\u3066\u3044\u308b\u70ba\u3001\u524a\u9664\u3067\u304d\u307e\u305b\u3093\u3002"],[Uc.SpotLessonIsFullOfReservations,"\u9078\u629e\u3057\u305f\u5e0c\u671b\u65e5\u6642\u306e\u4e88\u7d04\u304c\u3044\u3063\u3071\u3044\u306e\u70ba\u3001\u4e88\u7d04\u3092\u5b8c\u4e86\u3067\u304d\u307e\u305b\u3093\u3067\u3057\u305f\u3002"],[Uc.SpotLessonIsDuplicated,"\u91cd\u8907\u3059\u308b\u4e88\u7d04\u304c\u3042\u308b\u305f\u3081\u3001\u4e88\u7d04\u3092\u5b8c\u4e86\u3067\u304d\u307e\u305b\u3093\u3067\u3057\u305f\u3002"],[Uc.SpotLessonTooCloseToStartTime,"\u30ec\u30c3\u30b9\u30f3\u958b\u59cb\u6642\u523b\u307e\u30673\u6642\u9593\u3092\u5207\u3063\u3066\u3044\u308b\u305f\u3081\u3001\u5225\u306e\u6642\u9593\u3092\u6307\u5b9a\u3057\u3066\u304f\u3060\u3055\u3044\u3002"],[Uc.SpotLessonIsNotCovered,"\u66f4\u65b0\u524d\u306e\u30b9\u30b1\u30b8\u30e5\u30fc\u30eb\u306b\u4e88\u7d04\u304c\u5165\u3063\u3066\u3044\u308b\u6642\u9593\u5e2f\u304c\u3042\u308a\u307e\u3059\u3002\u4e88\u7d04\u304c\u5165\u3063\u3066\u3044\u308b\u6642\u9593\u5e2f\u306f\u5909\u66f4\u3067\u304d\u307e\u305b\u3093\u3002"],[Uc.SpotLessonAlreadyDoneOrCanceled,"\u65e2\u306b\u5b9f\u65bd\u6e08\u307f\u3082\u3057\u304f\u306f\u30ad\u30e3\u30f3\u30bb\u30eb\u6e08\u307f\u3067\u3059\u3002"],[Uc.SpotLessonIsStarted,"\u958b\u59cb\u6642\u523b\u3092\u904e\u304e\u3066\u3044\u308b\u305f\u3081\u3001\u30ad\u30e3\u30f3\u30bb\u30eb\u3067\u304d\u307e\u305b\u3093\u3002"],[Uc.StripeCardIncorrectCvc,"\u30ab\u30fc\u30c9\u306e\u30bb\u30ad\u30e5\u30ea\u30c6\u30a3\u30fc\u30b3\u30fc\u30c9\u304c\u9593\u9055\u3063\u3066\u3044\u307e\u3059\u3002"],[Uc.ProgramSatisfactionAlreadyExistsErr,"\u3053\u306e\u6559\u6750\u306e\u8a55\u4fa1\u3092\u6295\u7a3f\u6e08\u307f\u3067\u3059\u3002"],[Uc.ClaimDetailAlreadyExistsSpotLesson,"\u6307\u5b9a\u3055\u308c\u305f\u5358\u767a\u30ec\u30c3\u30b9\u30f3\u306e\u8acb\u6c42\u7533\u8acb\u306f\u767b\u9332\u6e08\u307f\u3067\u3059\u3002"],[Uc.ClaimDetailAlreadyExistsLesson,"\u6307\u5b9a\u3055\u308c\u305f\u5c02\u5c5e\u30ec\u30c3\u30b9\u30f3\u306e\u8acb\u6c42\u7533\u8acb\u306f\u767b\u9332\u6e08\u307f\u3067\u3059\u3002"],[Uc.ClaimDetailAlreadyExistsCurriculum,"\u6307\u5b9a\u3055\u308c\u305f\u30ab\u30ea\u30ad\u30e5\u30e9\u30e0\u4f5c\u6210\u306e\u8acb\u6c42\u7533\u8acb\u306f\u767b\u9332\u6e08\u307f\u3067\u3059\u3002"],[Uc.ClaimDetailNotAllowedFlexibleCurriculum,"\u3053\u306e\u30b3\u30fc\u30b9\u3067\u306f\u30ab\u30ea\u30ad\u30e5\u30e9\u30e0\u4f5c\u6210\u306e\u8acb\u6c42\u7533\u8acb\u306f\u3067\u304d\u307e\u305b\u3093\u3002"],[Uc.ClaimDetailNotAllowedLessonPreparation,"\u3053\u306e\u30b3\u30fc\u30b9\u3067\u306f\u5c02\u5c5e\u30ec\u30c3\u30b9\u30f3\u306e\u524d\u5f8c\u5bfe\u5fdc\u306f\u8acb\u6c42\u7533\u8acb\u3067\u304d\u307e\u305b\u3093\u3002"],[Uc.ClaimDetailNotAllowedQuestion,"\u3053\u306e\u30b3\u30fc\u30b9\u3067\u306f\u8cea\u554f\u5bfe\u5fdc\u306f\u8acb\u6c42\u7533\u8acb\u3067\u304d\u307e\u305b\u3093\u3002"],[Uc.QuestionCommentIsNotPermitted,"\u8b1b\u5e2b\u306b\u56de\u7b54\u3092\u4f9d\u983c\u6e08\u307f\u306e\u305f\u3081\u3001AI\u5148\u751f\u306b\u306f\u8fd4\u4fe1\u3067\u304d\u307e\u305b\u3093\u3002"],[Uc.QuestionCommentIsPendingAnswer,"AI\u5148\u751f\u304c\u56de\u7b54\u4f5c\u6210\u4e2d\u306e\u305f\u3081\u3001AI\u5148\u751f\u306b\u306f\u8fd4\u4fe1\u3067\u304d\u307e\u305b\u3093\u3002"]]),lA=(e,n)=>{if(!(e instanceof pc.a))return null!==n&&void 0!==n?n:sA;const t=dA(e);for(const i of t){const e=oA.get(i);if(e)return e}return null!==n&&void 0!==n?n:sA},dA=e=>e.graphQLErrors.map((e=>e.extensions.code)).filter((e=>void 0!==e)),bA="USER_LOGIN",mA="USER_LOGIN_BY_TEMPORARY_PASSWORD",jA="USER_LOGOUT",uA="USER_CHANGE_ROLE",AA="USER_SET_TEAMS",hA="USER_SET_TEAM_ID",pA="USER_LOGIN_ERROR",gA="USER_SET_LMS_USER",OA="USER_SET_IS_CHANGE_PASSWORD",xA="USER_SET_SOCIAL_LOGIN_CALLBACK_URL";var fA=t(169),vA=t(11),wA=t.n(vA);const CA=()=>({keyArgs:[],merge(e,n){var t,i;return(null===n||void 0===n||null===(t=n.pageInfo)||void 0===t?void 0:t.hasPreviousPage)||(null===n||void 0===n||null===(i=n.adminPageInfo)||void 0===i?void 0:i.hasPreviousPage)?{...n,items:[...e.items,...n.items]}:n}}),yA=({children:e})=>{const n=Object(fA.b)(),t=new mc.a({attempts:{max:1}}).split((({getContext:e})=>{var n;return!!(null===(n=e().headers)||void 0===n?void 0:n.authorization)}),oc()({uri:"https://api.lms.sejuku.net/query"}),new ec.a({uri:"https://api.lms.sejuku.net/public/query"})),i=Object(lc.a)((async(e,{headers:n})=>{try{const e=await bc.a.currentSession();return{headers:{...n,authorization:"Bearer ".concat(e.getIdToken().getJwtToken())}}}catch(e){return{headers:n}}})),r=Object(dc.a)((({graphQLErrors:e,operation:t,forward:i})=>VA(e)?(n({type:jA}),wA.a.defaults.headers.common.Authorization="",bc.a.signOut(),i(t).map((e=>(e.errors&&(e.errors=void 0),e)))):i(t))),a=Object(dc.a)((({graphQLErrors:e,networkError:n,operation:t,forward:i})=>{if(n){if(401===n.statusCode)return Object(nc.a)(bc.a.currentSession().then((e=>e.getIdToken().getJwtToken())).catch((()=>null))).filter((e=>!!e)).flatMap((e=>{const n=t.getContext().headers;return t.setContext({headers:{...n,authorization:"Bearer ".concat(e)}}),i(t)}))}if(e&&(!e[0].extensions||!Object.prototype.hasOwnProperty.call(e[0].extensions,"code"))){const n=new Error("".concat(t.operationName,":").concat(JSON.stringify(e)));$a.a(n)}}));let c=0;const s=new Ac.a(Object(hc.createClient)({url:String("wss://api-websocket.lms.sejuku.net/subscriptions"),connectionParams:async()=>{const e=await bc.a.currentSession();return{reconnect:!0,authorization:"Bearer ".concat(e.getIdToken().getJwtToken())}},disablePong:!1,keepAlive:12e4,retryAttempts:Number("10"),retryWait:async()=>{await new Promise((e=>{const n=Object(hc.createClient)({url:String("wss://api-websocket.lms.sejuku.net/subscriptions"),retryAttempts:0,lazy:!1,on:{closed:()=>e(!1),connected:()=>{e(!0),n.dispose()}}})})),await new Promise((e=>setTimeout(e,Number("20000"))))},on:{connected:()=>{c=0},closed:()=>{c++,c>Number("10")&&alert("\u56de\u7dda\u72b6\u6cc1\u304c\u4e0d\u5b89\u5b9a\u306a\u70ba\u3001\u6642\u9593\u3092\u304a\u3044\u3066\u304b\u3089\u30ea\u30ed\u30fc\u30c9\u3057\u3066\u304f\u3060\u3055\u3044")}}})),o=Object(tc.a)((({query:e})=>{const n=Object(jc.e)(e);return"OperationDefinition"===n.kind&&"subscription"===n.operation}),s,i.concat(t)),l=new ic.a({link:Object(rc.a)([a,r,o]),defaultOptions:{watchQuery:{fetchPolicy:"network-only",nextFetchPolicy:"cache-first"}},cache:new ac.a({typePolicies:{Query:{fields:{getTimelinesV1:CA(),getTimelinesByUserID:CA(),getNotifications:CA(),notices:CA(),chatRooms:{keyArgs:[],merge(e,n){var t,i;if(!(null===n||void 0===n||null===(t=n.pageInfo)||void 0===t?void 0:t.hasPreviousPage)&&!(null===n||void 0===n||null===(i=n.adminPageInfo)||void 0===i?void 0:i.hasPreviousPage))return n;const r=[...e.items,...n.items],a=Array.from(new Map(r.map((e=>[e.__ref,e]))).values());return{...n,items:a}}},chatMessages:Object(uc.c)()}}}})});return Object(g.jsx)(cc.a,{client:l,children:e})},VA=e=>{var n;return null!==(n=null===e||void 0===e?void 0:e.some((e=>{return n=e.extensions.code,Object.values(Uc).some((e=>e===n))&&SA.some((n=>n===e.extensions.code));var n})))&&void 0!==n&&n},SA=[Uc.CommonInvalidUser,Uc.CommonPublicUserIsDenied];var kA=t(3),IA=t(731);const TA=1100,DA=1200,EA=1300;var RA,zA,MA,BA,LA=e=>{const n=Object(i.useRef)(),t=Object(i.useRef)(!0),r=Object(m.k)();Object(i.useEffect)((()=>{n.current=e}),[e]),Object(i.useEffect)((()=>{t.current?t.current=!1:n.current&&n.current()}),[r.pathname])};const[NA,UA]=Object(IA.a)((()=>{const[e,n]=r.a.useState([]),t=r.a.useCallback(((t,i)=>{const r={id:e.length,type:t,message:i,lifeTime:0===t?4e3:9999999999},a=e.filter((e=>e.type!==t||e.message!==i));n([r,...a])}),[e]);return{toasts:e,setToasts:n,showToast:t}})),PA=({children:e})=>Object(g.jsxs)(NA,{children:[e,Object(g.jsx)(GA,{})]}),FA=({id:e,type:n,lifeTime:t,message:i,onHide:a})=>{LA((()=>{1===n&&a(e)}));const c=r.a.useRef(null);return r.a.useEffect((()=>{var n;null===(n=c.current)||void 0===n||n.classList.add("show");const i=setTimeout((()=>{a&&a(e)}),t);return()=>{clearTimeout(i)}}),[e,t,a,n]),Object(g.jsxs)(qA,{ref:c,type:n,children:[Object(g.jsx)(HA,{children:i}),(1===n||2===n)&&Object(g.jsx)(QA,{onClick:()=>a(e),children:"\xd7"})]})},qA=kA.c.div(RA||(RA=Object(s.a)(["\n  display: flex;\n  justify-content: space-between;\n  align-items: center;\n  position: relative;\n  width: 100%;\n  box-sizing: border-box;\n  padding: 0.75rem;\n  background-color: ",";\n  transition: opacity 0.2s;\n  color: #ffffff;\n  border-radius: 4px;\n  opacity: 0;\n\n  &.show {\n    opacity: 1;\n  }\n"])),(e=>0===e.type?"#009621":"#e2001b")),QA=kA.c.span(zA||(zA=Object(s.a)(["\n  display: flex;\n  justify-content: flex-end;\n  box-sizing: border-box;\n  font-size: 24px;\n  text-align: center;\n  width: 40px;\n  cursor: pointer;\n"]))),HA=kA.c.span(MA||(MA=Object(s.a)([""]))),GA=()=>{const{toasts:e,setToasts:n}=UA(),t=r.a.useCallback((t=>{n(e.filter((e=>e.id!==t)))}),[e,n]);return Object(g.jsx)(YA,{children:e.map(((e,n)=>Object(g.jsx)(FA,{...e,onHide:t},n)))})},YA=kA.c.div(BA||(BA=Object(s.a)(["\n  position: fixed;\n  left: 50%;\n  bottom: 0.5rem;\n  transform: translateX(-50%);\n  width: 500px;\n  max-width: calc(100vw - 1rem);\n  z-index: ",";\n\n  & > * + * {\n    margin-top: 0.25rem;\n  }\n"])),1400);var KA=t(206);const ZA=({children:e})=>Object(g.jsx)(KA.b,{children:Object(g.jsx)(yA,{children:Object(g.jsx)(C,{children:Object(g.jsx)(S,{children:Object(g.jsx)(z,{children:Object(g.jsx)(PA,{children:e})})})})})});var JA=t(419);const WA={lmsUser:null,cognitoUser:null,permissionList:null,contractsOfStripeSubscriptionForAnalytics:null,role:Ws.NotLogin,teamID:null,teams:[],isLogged:!1,loginError:"",isChangePassword:!1,socialLoginCallbackURL:null},XA="COMMON_PAYMENT_METHODS_INDEX_FETCH_SUCCESS",_A="COMMON_PAYMENT_METHODS_RESET",$A={paymentMethods:[],pagination:{total:0,limit:10,page:1}},eh="COMMON_MODAL_OPEN_REGISTER_FREE_USER_MODAL",nh="COMMON_MODAL_CLOSE_REGISTER_FREE_USER_MODAL",th="COMMON_MODAL_OPEN_REGISTER_LIGHT_USER_MODAL",ih="COMMON_MODAL_CLOSE_REGISTER_LIGHT_USER_MODAL",rh="COMMON_MODAL_OPEN_REGISTER_BASIC_USER_MODAL",ah="COMMON_MODAL_CLOSE_REGISTER_BASIC_USER_MODAL",ch="COMMON_MODAL_OPEN_REGISTER_PREMIUM_USER_MODAL",sh="COMMON_MODAL_CLOSE_REGISTER_PREMIUM_USER_MODAL",oh="COMMON_MODAL_OPEN_REGISTER_TEAM_SUBSCRIPTION_USER_MODAL",lh="COMMON_MODAL_CLOSE_REGISTER_TEAM_SUBSCRIPTION_USER_MODAL",dh="COMMON_MODAL_OPEN_REGISTER_TEAM_SUBSCRIPTION_TO_TEAM_ADMIN_MODAL",bh="COMMON_MODAL_CLOSE_REGISTER_TEAM_SUBSCRIPTION_TO_TEAM_ADMIN_MODAL",mh="COMMON_MODAL_CLOSE_ALL_MODALS",jh={isFreeUserModalOpen:!1,isLightUserModalOpen:!1,isBasicUserModalOpen:!1,isPremiumUserModalOpen:!1,isTeamSubscriptionUserModalOpen:!1,isTeamSubscriptionToTeamAdminModalOpen:!1};var uh=Object(JA.a)({user:(e=WA,n)=>{switch(n.type){case bA:return{...e,...n.payload,isLogged:!0};case mA:return{...e,lmsUser:null,cognitoUser:n.payload.cognitoUser,permissionList:null,role:Ws.NotLogin,isLogged:!1};case jA:return WA;case uA:return{...e,role:n.payload.role};case AA:return{...e,teamID:n.payload.teamID,teams:n.payload.teams};case hA:return{...e,teamID:n.payload.teamID};case OA:return{...e,isChangePassword:n.payload.isChangePassword};case gA:return{...e,lmsUser:n.payload.lmsUser,permissionList:n.payload.permissionList,role:n.payload.role};case xA:return{...e,socialLoginCallbackURL:n.payload.callbackURL};case pA:return{...e,loginError:n.payload.error};default:return e}},commonPaymentMethod:(e=$A,n)=>{switch(n.type){case XA:return{...e,paymentMethods:n.payload.paymentMethods,pagination:{...e.pagination,total:n.payload.pagination.total}};case _A:return $A;default:return e}},commonModal:(e=jh,n)=>{switch(n.type){case eh:return{...e,isFreeUserModalOpen:!0};case nh:return{...e,isFreeUserModalOpen:!1};case th:return{...e,isLightUserModalOpen:!0};case ih:return{...e,isLightUserModalOpen:!1};case rh:return{...e,isBasicUserModalOpen:!0};case ah:return{...e,isBasicUserModalOpen:!1};case ch:return{...e,isPremiumUserModalOpen:!0};case sh:return{...e,isPremiumUserModalOpen:!1};case oh:return{...e,isTeamSubscriptionUserModalOpen:!0};case lh:return{...e,isTeamSubscriptionUserModalOpen:!1};case dh:return{...e,isTeamSubscriptionToTeamAdminModalOpen:!0};case bh:return{...e,isTeamSubscriptionToTeamAdminModalOpen:!1};case mh:return jh;default:return e}}}),Ah=t(1794);const hh="user.role",ph="user.team.id",gh="close_onboarding",Oh=(e,n)=>"".concat(e,"#").concat(n),xh=(e,n)=>{try{return localStorage.getItem(Oh(e,n))}catch{return null}},fh=(e,n,t)=>{try{localStorage.setItem(Oh(e,n),t)}catch{}},vh=e=>((e,n)=>{try{localStorage.removeItem(Oh(e,n))}catch{}})(ph,e),wh=[Ws.Student,Ws.StudentGraduated,Ws.StudentSubscription,Ws.StudentFree],Ch=[Ws.TeamMember,Ws.TeamMemberFree,Ws.TeamAdmin,Ws.TeamAdminFree],yh="HomeForInstructorAndCoach",Vh="HomeForStudent",Sh="HomeForNotLogin",kh="HomeForGeneral",Ih="ShowNextTypeSpotLesson",Th="CourseProgramUserLog",Dh="Exam",Eh="ExamForInstructorAndCoach",Rh="ChapterAuthTypeRegistered",zh="ChapterAuthTypeLight",Mh="ChapterAuthTypeBasic",Bh="ChapterAuthTypePremium",Lh="ProgramForInstructorAndCoach",Nh="StudyLog",Uh="CourseSearchTypeAll",Ph="ProgramFeedback",Fh="PracticeForInstructorAndCoach",qh="PracticeSubmit",Qh="PracticeFeedback",Hh="PracticeAuthTypeRegistered",Gh="PracticeAuthTypeLight",Yh="PracticeAuthTypeBasic",Kh="PracticeAuthTypePremium",Zh="QuestionForInstructorAndCoach",Jh="Question",Wh="QuestionResolve",Xh="QuestionAnswerAndComment",_h="QuestionFavoriteAndAnswerFavorite",$h="StudyReportSummary",ep="StudyReportForInstructorAndCoach",np="StudyReportForNotLogin",tp="StudyReport",ip="StudyReportComment",rp="StudyReportFavorite",ap="TimeLineForPro",cp="TimeLineForPlus",sp="TimeLineOfInstructorAndAdmin",op="Timeline",lp="TimelineForInstructorAndCoach",dp="TimelineComment",bp="TimelineFavorite",mp="Curriculum",jp="CourseForInstructorAndCoach",up="LessonForInstructor",Ap="LessonForStudent",hp="SessionForCoach",pp="SessionForStudent",gp="SpotLessonForInstructor",Op="SpotLesson",xp="SpotLessonReserve",fp="SpotLessonBuyTicket",vp="SpotLessonCancel",wp="SpotLessonSchedule",Cp="Chat",yp="UserTypeLabel",Vp="AccountProfile",Sp="AccountProfileLabelForStudent",kp="AccountProfileLabelForInstructor",Ip="AccountProfileLabelForCoach",Tp="AccountWithDraw",Dp="AccountCourse",Ep="AccountSubscription",Rp="AccountSubscriptionSelect",zp="AccountSubscriptionRegister",Mp="AccountSubscriptionLp",Bp="AccountSubscriptionPathForNotLogin",Lp="AccountInvoice",Np="AccountPaymentIntent",Up="AccountPayment",Pp="AccountMail",Fp="MailSettingsForStudent",qp="MailSettingsForInstructor",Qp="MailSettingsForCoach",Hp="MailSettingsForSubscription",Gp="MailSettingsForFree",Yp="AccountPassword",Kp="AccountAlignment",Zp="Claim",Jp="Notification",Wp="NotificationTypeBackSchoolNotificationsInstructor",Xp="TeamRegisterCreation",_p="TeamInvitationErrorForStudent",$p="TeamTop",eg="TeamAuth",ng="TeamInvitation",tg="TeamRemove",ig="TeamProfile",rg="TeamSubscription",ag="TeamInvoice",cg="TeamPayment",sg="BannerForInstructor",og="BannerForStudent",lg="BannerForGraduate",dg="BannerForSubscription",bg="BannerForTeam",mg="BannerForFree",jg="AdsForFree",ug="AdsForSubscription",Ag="DocumentForInstructor",hg="DocumentForCoach",pg="DocumentForStudent",gg="DocumentForSubscription",Og="DocumentForNotLogin",xg="DocumentForTeam",fg="RecommendFree",vg="RecommendLight",wg="RecommendBasic",Cg="RecommendPremium",yg="RecommendTeamSubscriptionToAdmin",Vg="RecommendTeamSubscription",Sg="All",kg="RegisterRedirectHome",Ig="TeamRegisterRedirectHome",Tg="LP",Dg="Read",Eg="Create",Rg="Update",zg="Delete",Mg={NOT_LOGIN:{HomeForNotLogin:["Read"],ProgramSearchForNotLogin:["Read"],StudyReportForNotLogin:["Read"],TimeLineForPlus:["Read"],SpotLesson:["Read"],AccountSubscriptionLp:["Read"],AccountSubscriptionPathForNotLogin:["Read"],TeamRegisterCreation:["Create"],BannerForNotLogin:["Read"],DocumentForNotLogin:["Read"],RecommendFree:["Read"],RecommendLight:["Read"],RecommendBasic:["Read"],RecommendPremium:["Read"],All:["Read"],LP:["Read"]},SUBSCRIPTION:{HomeForGeneral:["Read"],CourseProgramUserLog:["Read"],Exam:["Read","Create"],ChapterAuthTypeRegistered:["Read"],ChapterAuthTypeLight:["Read"],ChapterAuthTypeBasic:["Read"],ChapterAuthTypePremium:["Read"],StudyLog:["Read"],ProgramFeedback:["Create"],ProgramSearchForGeneral:["Read"],PracticeSubmit:["Create","Update"],PracticeFeedback:["Create"],PracticeAuthTypeRegistered:["Read"],PracticeAuthTypeLight:["Read"],PracticeAuthTypeBasic:["Read"],PracticeAuthTypePremium:["Read"],Question:["Read","Create","Update"],QuestionResolve:["Update"],QuestionAnswerAndComment:["Create","Update"],QuestionFavoriteAndAnswerFavorite:["Update"],StudyReportSummary:["Read"],StudyReport:["Create","Update","Delete"],StudyReportComment:["Create","Update","Delete"],StudyReportFavorite:["Update"],TimeLineForPlus:["Read"],TimeLineOfInstructorAndAdmin:["Read"],Timeline:["Create","Delete"],TimelineComment:["Create","Delete"],TimelineFavorite:["Update"],SpotLesson:["Read"],SpotLessonReserve:["Create"],SpotLessonBuyTicket:["Create"],SpotLessonCancel:["Delete"],AccountProfile:["Read"],AccountWithDraw:["Delete"],AccountSubscription:["Read","Delete"],AccountSubscriptionSelect:["Read"],AccountInvoice:["Read"],AccountPaymentIntent:["Read"],AccountPayment:["Read","Create","Update","Delete"],AccountMail:["Update"],MailSettingsForSubscription:["Read"],AccountPassword:["Update"],Notification:["Read"],BannerForSubscription:["Read"],AdsForSubscription:["Read"],DocumentForSubscription:["Read"],All:["Read"],TeamRegisterRedirectHome:["Read"]},SUBSCRIPTION_LIGHT:{HomeForGeneral:["Read"],CourseProgramUserLog:["Read"],Exam:["Read","Create"],ChapterAuthTypeRegistered:["Read"],ChapterAuthTypeLight:["Read"],StudyLog:["Read"],ProgramFeedback:["Create"],ProgramSearchForGeneral:["Read"],PracticeSubmit:["Create","Update"],PracticeFeedback:["Create"],PracticeAuthTypeRegistered:["Read"],PracticeAuthTypeLight:["Read"],Question:["Read","Create","Update"],QuestionResolve:["Update"],QuestionAnswerAndComment:["Create","Update"],QuestionFavoriteAndAnswerFavorite:["Update"],StudyReportSummary:["Read"],StudyReport:["Create","Update","Delete"],StudyReportComment:["Create","Update","Delete"],StudyReportFavorite:["Update"],TimeLineForPlus:["Read"],TimeLineOfInstructorAndAdmin:["Read"],Timeline:["Create","Delete"],TimelineComment:["Create","Delete"],TimelineFavorite:["Update"],SpotLesson:["Read"],SpotLessonReserve:["Create"],SpotLessonBuyTicket:["Create"],SpotLessonCancel:["Delete"],AccountProfile:["Read"],AccountWithDraw:["Delete"],AccountSubscription:["Read","Delete"],AccountSubscriptionSelect:["Read"],AccountSubscriptionLp:["Read"],AccountInvoice:["Read"],AccountPaymentIntent:["Read"],AccountPayment:["Read","Create","Update","Delete"],AccountMail:["Update"],MailSettingsForSubscription:["Read"],AccountPassword:["Update"],Notification:["Read"],BannerForSubscription:["Read"],AdsForSubscription:["Read"],DocumentForSubscription:["Read"],RecommendBasic:["Read"],RecommendPremium:["Read"],All:["Read"],TeamRegisterRedirectHome:["Read"]},SUBSCRIPTION_BASIC:{HomeForGeneral:["Read"],CourseProgramUserLog:["Read"],Exam:["Read","Create"],ChapterAuthTypeRegistered:["Read"],ChapterAuthTypeLight:["Read"],ChapterAuthTypeBasic:["Read"],StudyLog:["Read"],ProgramFeedback:["Create"],ProgramSearchForGeneral:["Read"],PracticeSubmit:["Create","Update"],PracticeFeedback:["Create"],PracticeAuthTypeRegistered:["Read"],PracticeAuthTypeLight:["Read"],PracticeAuthTypeBasic:["Read"],Question:["Read","Create","Update"],QuestionResolve:["Update"],QuestionAnswerAndComment:["Create","Update"],QuestionFavoriteAndAnswerFavorite:["Update"],StudyReportSummary:["Read"],StudyReport:["Create","Update","Delete"],StudyReportComment:["Create","Update","Delete"],StudyReportFavorite:["Update"],TimeLineForPlus:["Read"],TimeLineOfInstructorAndAdmin:["Read"],Timeline:["Create","Delete"],TimelineComment:["Create","Delete"],TimelineFavorite:["Update"],SpotLesson:["Read"],SpotLessonReserve:["Create"],SpotLessonBuyTicket:["Create"],SpotLessonCancel:["Delete"],AccountProfile:["Read"],AccountWithDraw:["Delete"],AccountSubscription:["Read","Delete"],AccountSubscriptionSelect:["Read"],AccountSubscriptionLp:["Read"],AccountInvoice:["Read"],AccountPaymentIntent:["Read"],AccountPayment:["Read","Create","Update","Delete"],AccountMail:["Update"],MailSettingsForSubscription:["Read"],AccountPassword:["Update"],Notification:["Read"],BannerForSubscription:["Read"],AdsForSubscription:["Read"],DocumentForSubscription:["Read"],RecommendPremium:["Read"],All:["Read"],TeamRegisterRedirectHome:["Read"]},SUBSCRIPTION_PREMIUM:{HomeForGeneral:["Read"],CourseProgramUserLog:["Read"],Exam:["Read","Create"],ChapterAuthTypeRegistered:["Read"],ChapterAuthTypeLight:["Read"],ChapterAuthTypeBasic:["Read"],ChapterAuthTypePremium:["Read"],StudyLog:["Read"],ProgramFeedback:["Create"],ProgramSearchForGeneral:["Read"],PracticeSubmit:["Create","Update"],PracticeFeedback:["Create"],PracticeAuthTypeRegistered:["Read"],PracticeAuthTypeLight:["Read"],PracticeAuthTypeBasic:["Read"],PracticeAuthTypePremium:["Read"],Question:["Read","Create","Update"],QuestionResolve:["Update"],QuestionAnswerAndComment:["Create","Update"],QuestionFavoriteAndAnswerFavorite:["Update"],StudyReportSummary:["Read"],StudyReport:["Create","Update","Delete"],StudyReportComment:["Create","Update","Delete"],StudyReportFavorite:["Update"],TimeLineForPlus:["Read"],TimeLineOfInstructorAndAdmin:["Read"],Timeline:["Create","Delete"],TimelineComment:["Create","Delete"],TimelineFavorite:["Update"],SpotLesson:["Read"],SpotLessonReserve:["Create"],SpotLessonBuyTicket:["Create"],SpotLessonCancel:["Delete"],AccountProfile:["Read"],AccountWithDraw:["Delete"],AccountSubscription:["Read","Delete"],AccountSubscriptionSelect:["Read"],AccountInvoice:["Read"],AccountPaymentIntent:["Read"],AccountPayment:["Read","Create","Update","Delete"],AccountMail:["Update"],MailSettingsForSubscription:["Read"],AccountPassword:["Update"],Notification:["Read"],BannerForSubscription:["Read"],AdsForSubscription:["Read"],DocumentForSubscription:["Read"],All:["Read"],TeamRegisterRedirectHome:["Read"]},SUBSCRIPTION_FREE:{HomeForGeneral:["Read"],CourseProgramUserLog:["Read"],Exam:["Read","Create"],ChapterAuthTypeRegistered:["Read"],StudyLog:["Read"],ProgramFeedback:["Create"],ProgramSearchForGeneral:["Read"],PracticeSubmit:["Create","Update"],PracticeFeedback:["Create"],PracticeAuthTypeRegistered:["Read"],StudyReportSummary:["Read"],StudyReport:["Create","Update","Delete"],StudyReportComment:["Create","Update","Delete"],StudyReportFavorite:["Update"],SpotLesson:["Read"],AccountProfile:["Read"],AccountWithDraw:["Delete"],AccountSubscription:["Read","Create"],AccountSubscriptionRegister:["Read"],AccountSubscriptionLp:["Read"],AccountInvoice:["Read"],AccountPaymentIntent:["Read"],AccountPayment:["Read","Create","Update","Delete"],AccountMail:["Update"],MailSettingsForFree:["Read"],AccountPassword:["Update"],Notification:["Read"],BannerForFree:["Read"],AdsForFree:["Read"],DocumentForSubscription:["Read"],RecommendLight:["Read"],RecommendBasic:["Read"],RecommendPremium:["Read"],All:["Read"]},TEAM_MEMBER:{HomeForGeneral:["Read"],CourseProgramUserLog:["Read"],Exam:["Read","Create"],ChapterAuthTypeRegistered:["Read"],ChapterAuthTypeLight:["Read"],ChapterAuthTypeBasic:["Read"],ChapterAuthTypePremium:["Read"],StudyLog:["Read"],ProgramFeedback:["Create"],ProgramSearchForGeneral:["Read"],PracticeSubmit:["Create","Update"],PracticeFeedback:["Create"],PracticeAuthTypeRegistered:["Read"],PracticeAuthTypeLight:["Read"],PracticeAuthTypeBasic:["Read"],PracticeAuthTypePremium:["Read"],Question:["Read","Create","Update"],QuestionResolve:["Update"],QuestionAnswerAndComment:["Create","Update"],QuestionFavoriteAndAnswerFavorite:["Update"],StudyReportSummary:["Read"],StudyReport:["Create","Update","Delete"],StudyReportComment:["Create","Update","Delete"],StudyReportFavorite:["Update"],TimeLineForPlus:["Read"],TimeLineOfInstructorAndAdmin:["Read"],Timeline:["Create","Delete"],TimelineComment:["Create","Delete"],TimelineFavorite:["Update"],SpotLesson:["Read"],SpotLessonReserve:["Create"],SpotLessonCancel:["Delete"],AccountProfile:["Read"],AccountWithDraw:["Delete"],AccountSubscription:["Read"],AccountInvoice:["Read"],AccountPaymentIntent:["Read"],AccountPayment:["Read","Create","Update","Delete"],AccountMail:["Update"],MailSettingsForSubscription:["Read"],AccountPassword:["Update"],Notification:["Read"],TeamTop:["Read"],BannerForTeam:["Read"],DocumentForSubscription:["Read"],DocumentForTeam:["Read"],All:["Read"]},TEAM_MEMBER_FREE:{HomeForGeneral:["Read"],Exam:["Read","Create"],ChapterAuthTypeRegistered:["Read"],StudyLog:["Read"],ProgramFeedback:["Create"],ProgramSearchForGeneral:["Read"],PracticeFeedback:["Create"],PracticeAuthTypeRegistered:["Read"],StudyReportSummary:["Read"],TimeLineForPlus:["Read"],SpotLesson:["Read"],AccountProfile:["Read"],AccountWithDraw:["Delete"],AccountSubscription:["Read","Create"],AccountSubscriptionRegister:["Read"],AccountSubscriptionLp:["Read"],AccountInvoice:["Read"],AccountPaymentIntent:["Read"],AccountPayment:["Read","Create","Update","Delete"],AccountMail:["Update"],MailSettingsForFree:["Read"],AccountPassword:["Update"],Notification:["Read"],TeamTop:["Read"],BannerForTeam:["Read"],DocumentForSubscription:["Read"],DocumentForTeam:["Read"],RecommendTeamSubscriptionToAdmin:["Read"],All:["Read"]},TEAM_ADMIN:{HomeForGeneral:["Read"],CourseProgramUserLog:["Read"],Exam:["Read","Create"],ChapterAuthTypeRegistered:["Read"],ChapterAuthTypeLight:["Read"],ChapterAuthTypeBasic:["Read"],ChapterAuthTypePremium:["Read"],StudyLog:["Read"],ProgramFeedback:["Create"],ProgramSearchForGeneral:["Read"],PracticeSubmit:["Create","Update"],PracticeFeedback:["Create"],PracticeAuthTypeRegistered:["Read"],PracticeAuthTypeLight:["Read"],PracticeAuthTypeBasic:["Read"],PracticeAuthTypePremium:["Read"],Question:["Read","Create","Update"],QuestionResolve:["Update"],QuestionAnswerAndComment:["Create","Update"],QuestionFavoriteAndAnswerFavorite:["Update"],StudyReportSummary:["Read"],StudyReport:["Create","Update","Delete"],StudyReportComment:["Create","Update","Delete"],StudyReportFavorite:["Update"],TimeLineForPlus:["Read"],TimeLineOfInstructorAndAdmin:["Read"],Timeline:["Create","Delete"],TimelineComment:["Create","Delete"],TimelineFavorite:["Update"],SpotLesson:["Read"],SpotLessonReserve:["Create"],SpotLessonCancel:["Delete"],AccountProfile:["Read"],AccountWithDraw:["Delete"],AccountSubscription:["Read"],AccountInvoice:["Read"],AccountPaymentIntent:["Read"],AccountPayment:["Read","Create","Update","Delete"],AccountMail:["Update"],MailSettingsForSubscription:["Read"],AccountPassword:["Update"],Notification:["Read"],TeamTop:["Read"],TeamAuth:["Read"],TeamInvitation:["Create"],TeamRole:["Update"],TeamRemove:["Delete"],TeamProfile:["Read","Update"],TeamSubscription:["Read","Update","Delete"],TeamInvoice:["Read"],TeamPayment:["Read","Create","Update","Delete"],BannerForTeam:["Read"],DocumentForSubscription:["Read"],DocumentForTeam:["Read"],All:["Read"]},TEAM_ADMIN_FREE:{HomeForGeneral:["Read"],Exam:["Read","Create"],ChapterAuthTypeRegistered:["Read"],StudyLog:["Read"],ProgramFeedback:["Create"],ProgramSearchForGeneral:["Read"],PracticeFeedback:["Create"],PracticeAuthTypeRegistered:["Read"],StudyReportSummary:["Read"],TimeLineForPlus:["Read"],SpotLesson:["Read"],AccountProfile:["Read"],AccountWithDraw:["Delete"],AccountSubscription:["Read","Create"],AccountSubscriptionRegister:["Read"],AccountSubscriptionLp:["Read"],AccountInvoice:["Read"],AccountPaymentIntent:["Read"],AccountPayment:["Read","Create","Update","Delete"],AccountMail:["Update"],MailSettingsForFree:["Read"],AccountPassword:["Update"],Notification:["Read"],TeamTop:["Read"],TeamAuth:["Read"],TeamInvitation:["Create"],TeamRole:["Update"],TeamRemove:["Delete"],TeamProfile:["Read","Update"],TeamSubscription:["Read","Create","Update","Delete"],TeamInvoice:["Read"],TeamPayment:["Read","Create","Update","Delete"],BannerForTeam:["Read"],DocumentForSubscription:["Read"],DocumentForTeam:["Read"],RecommendTeamSubscription:["Read"],All:["Read"]},INSTRUCTOR:{HomeForInstructorAndCoach:["Read"],ExamForInstructorAndCoach:["Read"],ChapterAuthTypeRegistered:["Read"],ChapterAuthTypeLight:["Read"],ChapterAuthTypeBasic:["Read"],ChapterAuthTypePremium:["Read"],ProgramForInstructorAndCoach:["Read"],CourseSearchTypeAll:["Read"],ProgramFeedback:["Create"],ProgramSearchForInstructorAndCoach:["Read"],PracticeForInstructorAndCoach:["Read","Create","Update"],PracticeFeedback:["Create"],PracticeAuthTypeRegistered:["Read"],PracticeAuthTypeLight:["Read"],PracticeAuthTypeBasic:["Read"],PracticeAuthTypePremium:["Read"],QuestionForInstructorAndCoach:["Read"],QuestionAnswerAndComment:["Create","Update"],QuestionFavoriteAndAnswerFavorite:["Update"],StudyReportForInstructorAndCoach:["Read"],StudyReportComment:["Create","Update","Delete"],StudyReportFavorite:["Update"],TimeLineForPro:["Read"],TimeLineForPlus:["Read"],TimeLineOfInstructorAndAdmin:["Read"],TimelineForInstructorAndCoach:["Create","Delete"],TimelineComment:["Create","Delete"],TimelineFavorite:["Update"],CourseForInstructorAndCoach:["Read"],LessonForInstructor:["Read","Create","Update"],SpotLessonForInstructor:["Read"],SpotLessonSchedule:["Read"],Chat:["Read","Create","Update","Delete"],UserTypeLabel:["Read"],AccountProfile:["Read"],AccountProfileLabelForInstructor:["Read"],AccountMail:["Update"],MailSettingsForInstructor:["Read"],AccountPassword:["Update"],AccountAlignment:["Read"],Claim:["Read"],Notification:["Read"],NotificationTypeBackSchoolNotificationsInstructor:["Read"],TeamInvitationErrorForInstructor:["Read"],BannerForInstructor:["Read"],DocumentForInstructor:["Read"],All:["Read"],RegisterRedirectHome:["Read"],TeamRegisterRedirectHome:["Read"]},COACH:{HomeForInstructorAndCoach:["Read"],ExamForInstructorAndCoach:["Read"],ChapterAuthTypeRegistered:["Read"],ChapterAuthTypeLight:["Read"],ChapterAuthTypeBasic:["Read"],ChapterAuthTypePremium:["Read"],ProgramForInstructorAndCoach:["Read"],ProgramFeedback:["Create"],ProgramSearchForInstructorAndCoach:["Read"],PracticeForInstructorAndCoach:["Read","Create","Update"],PracticeFeedback:["Create"],PracticeAuthTypeRegistered:["Read"],PracticeAuthTypeLight:["Read"],PracticeAuthTypeBasic:["Read"],PracticeAuthTypePremium:["Read"],QuestionForInstructorAndCoach:["Read"],QuestionAnswerAndComment:["Create","Update"],QuestionFavoriteAndAnswerFavorite:["Update"],StudyReportForInstructorAndCoach:["Read"],StudyReportComment:["Create","Update","Delete"],StudyReportFavorite:["Update"],TimeLineForPro:["Read"],TimeLineForPlus:["Read"],TimeLineOfInstructorAndAdmin:["Read"],TimelineForInstructorAndCoach:["Create","Delete"],TimelineComment:["Create","Delete"],TimelineFavorite:["Update"],CourseForInstructorAndCoach:["Read"],SessionForCoach:["Read","Create","Update"],Chat:["Read","Create","Update","Delete"],UserTypeLabel:["Read"],AccountProfile:["Read"],AccountProfileLabelForCoach:["Read"],AccountMail:["Update"],MailSettingsForCoach:["Read"],AccountPassword:["Update"],Notification:["Read"],BannerForInstructor:["Read"],DocumentForCoach:["Read"],All:["Read"],RegisterRedirectHome:["Read"],TeamRegisterRedirectHome:["Read"]},STUDENT:{HomeForStudent:["Read"],CourseProgramUserLog:["Read"],Exam:["Read","Create"],ChapterAuthTypeRegistered:["Read"],ChapterAuthTypeLight:["Read"],ChapterAuthTypeBasic:["Read"],ChapterAuthTypePremium:["Read"],StudyLog:["Read"],ProgramFeedback:["Create"],ProgramSearchForStudent:["Read"],PracticeSubmit:["Create","Update"],PracticeFeedback:["Create"],PracticeAuthTypeRegistered:["Read"],PracticeAuthTypeLight:["Read"],PracticeAuthTypeBasic:["Read"],PracticeAuthTypePremium:["Read"],Question:["Read","Create","Update"],QuestionResolve:["Update"],QuestionAnswerAndComment:["Create","Update"],QuestionFavoriteAndAnswerFavorite:["Update"],StudyReportSummary:["Read"],StudyReport:["Create","Update","Delete"],StudyReportComment:["Create","Update","Delete"],StudyReportFavorite:["Update"],TimeLineForPro:["Read"],TimeLineOfInstructorAndAdmin:["Read"],Timeline:["Create","Delete"],TimelineComment:["Create","Delete"],TimelineFavorite:["Update"],Curriculum:["Read"],LessonForStudent:["Read"],SessionForStudent:["Read"],Chat:["Read","Create","Update","Delete"],AccountProfile:["Read"],AccountProfileLabelForStudent:["Read"],AccountCourse:["Read"],AccountSubscription:["Read"],AccountInvoice:["Read"],AccountPaymentIntent:["Read"],AccountPayment:["Read","Create","Update","Delete"],AccountMail:["Update"],MailSettingsForStudent:["Read"],AccountPassword:["Update"],Notification:["Read"],TeamInvitationErrorForStudent:["Read"],BannerForStudent:["Read"],DocumentForStudent:["Read"],All:["Read"],RegisterRedirectHome:["Read"],TeamRegisterRedirectHome:["Read"]},STUDENT_GRADUATED:{HomeForStudent:["Read"],CourseProgramUserLog:["Read"],Exam:["Read","Create"],ChapterAuthTypeRegistered:["Read"],ChapterAuthTypeLight:["Read"],ChapterAuthTypeBasic:["Read"],ChapterAuthTypePremium:["Read"],StudyLog:["Read"],ProgramFeedback:["Create"],ProgramSearchForStudent:["Read"],PracticeFeedback:["Create"],PracticeAuthTypeRegistered:["Read"],Question:["Read"],QuestionResolve:["Update"],QuestionAnswerAndComment:["Create","Update"],QuestionFavoriteAndAnswerFavorite:["Update"],StudyReportSummary:["Read"],StudyReport:["Create","Update","Delete"],StudyReportComment:["Create","Update","Delete"],StudyReportFavorite:["Update"],TimeLineForPro:["Read"],TimeLineOfInstructorAndAdmin:["Read"],Timeline:["Create","Delete"],TimelineComment:["Create","Delete"],TimelineFavorite:["Update"],Curriculum:["Read"],LessonForStudent:["Read"],SessionForStudent:["Read"],SpotLesson:["Read"],Chat:["Read"],AccountProfile:["Read"],AccountProfileLabelForStudent:["Read"],AccountCourse:["Read"],AccountSubscription:["Read","Create"],AccountSubscriptionRegister:["Read"],AccountSubscriptionLp:["Read"],AccountInvoice:["Read"],AccountPaymentIntent:["Read"],AccountPayment:["Read","Create","Update","Delete"],AccountMail:["Update"],MailSettingsForStudent:["Read"],AccountPassword:["Update"],Notification:["Read"],TeamInvitationErrorForStudent:["Read"],BannerForGraduate:["Read"],DocumentForStudent:["Read"],RecommendLight:["Read"],RecommendBasic:["Read"],RecommendPremium:["Read"],All:["Read"]},STUDENT_SUBSCRIPTION:{HomeForStudent:["Read"],ShowNextTypeSpotLesson:["Read"],CourseProgramUserLog:["Read"],Exam:["Read","Create"],ChapterAuthTypeRegistered:["Read"],ChapterAuthTypeLight:["Read"],ChapterAuthTypeBasic:["Read"],ChapterAuthTypePremium:["Read"],StudyLog:["Read"],ProgramFeedback:["Create"],ProgramSearchForStudent:["Read"],PracticeSubmit:["Create","Update"],PracticeFeedback:["Create"],PracticeAuthTypeRegistered:["Read"],PracticeAuthTypeLight:["Read"],PracticeAuthTypeBasic:["Read"],PracticeAuthTypePremium:["Read"],Question:["Read","Create","Update"],QuestionResolve:["Update"],QuestionAnswerAndComment:["Create","Update"],QuestionFavoriteAndAnswerFavorite:["Update"],StudyReportSummary:["Read"],StudyReport:["Create","Update","Delete"],StudyReportComment:["Create","Update","Delete"],StudyReportFavorite:["Update"],TimeLineForPro:["Read"],TimeLineForPlus:["Read"],TimeLineOfInstructorAndAdmin:["Read"],Timeline:["Create","Delete"],TimelineComment:["Create","Delete"],TimelineFavorite:["Update"],Curriculum:["Read"],LessonForStudent:["Read"],SessionForStudent:["Read"],SpotLesson:["Read"],SpotLessonReserve:["Create"],SpotLessonBuyTicket:["Create"],SpotLessonCancel:["Delete"],Chat:["Read"],AccountProfile:["Read"],AccountProfileLabelForStudent:["Read"],AccountCourse:["Read"],AccountSubscription:["Read","Create","Delete"],AccountSubscriptionSelect:["Read"],AccountSubscriptionRegister:["Read"],AccountSubscriptionLp:["Read"],AccountInvoice:["Read"],AccountPaymentIntent:["Read"],AccountPayment:["Read","Create","Update","Delete"],AccountMail:["Update"],MailSettingsForStudent:["Read"],AccountPassword:["Update"],Notification:["Read"],TeamInvitationErrorForStudent:["Read"],BannerForSubscription:["Read"],DocumentForStudent:["Read"],All:["Read"]},STUDENT_SUBSCRIPTION_LIGHT:{HomeForStudent:["Read"],ShowNextTypeSpotLesson:["Read"],CourseProgramUserLog:["Read"],Exam:["Read","Create"],ChapterAuthTypeRegistered:["Read"],ChapterAuthTypeLight:["Read"],ChapterAuthTypeBasic:["Read"],ChapterAuthTypePremium:["Read"],StudyLog:["Read"],ProgramFeedback:["Create"],ProgramSearchForStudent:["Read"],PracticeSubmit:["Create","Update"],PracticeFeedback:["Create"],PracticeAuthTypeRegistered:["Read"],PracticeAuthTypeLight:["Read"],Question:["Read","Create","Update"],QuestionResolve:["Update"],QuestionAnswerAndComment:["Create","Update"],QuestionFavoriteAndAnswerFavorite:["Update"],StudyReportSummary:["Read"],StudyReport:["Create","Update","Delete"],StudyReportComment:["Create","Update","Delete"],StudyReportFavorite:["Update"],TimeLineForPro:["Read"],TimeLineForPlus:["Read"],TimeLineOfInstructorAndAdmin:["Read"],Timeline:["Create","Delete"],TimelineComment:["Create","Delete"],TimelineFavorite:["Update"],Curriculum:["Read"],LessonForStudent:["Read"],SessionForStudent:["Read"],SpotLesson:["Read"],SpotLessonReserve:["Create"],SpotLessonBuyTicket:["Create"],SpotLessonCancel:["Delete"],Chat:["Read"],AccountProfile:["Read"],AccountProfileLabelForStudent:["Read"],AccountCourse:["Read"],AccountSubscription:["Read","Create","Delete"],AccountSubscriptionSelect:["Read"],AccountSubscriptionRegister:["Read"],AccountSubscriptionLp:["Read"],AccountInvoice:["Read"],AccountPaymentIntent:["Read"],AccountPayment:["Read","Create","Update","Delete"],AccountMail:["Update"],MailSettingsForStudent:["Read"],AccountPassword:["Update"],Notification:["Read"],TeamInvitationErrorForStudent:["Read"],BannerForSubscription:["Read"],DocumentForStudent:["Read"],RecommendBasic:["Read"],RecommendPremium:["Read"],All:["Read"]},STUDENT_SUBSCRIPTION_BASIC:{HomeForStudent:["Read"],ShowNextTypeSpotLesson:["Read"],CourseProgramUserLog:["Read"],Exam:["Read","Create"],ChapterAuthTypeRegistered:["Read"],ChapterAuthTypeLight:["Read"],ChapterAuthTypeBasic:["Read"],ChapterAuthTypePremium:["Read"],StudyLog:["Read"],ProgramFeedback:["Create"],ProgramSearchForStudent:["Read"],PracticeSubmit:["Create","Update"],PracticeFeedback:["Create"],PracticeAuthTypeRegistered:["Read"],PracticeAuthTypeLight:["Read"],PracticeAuthTypeBasic:["Read"],Question:["Read","Create","Update"],QuestionResolve:["Update"],QuestionAnswerAndComment:["Create","Update"],QuestionFavoriteAndAnswerFavorite:["Update"],StudyReportSummary:["Read"],StudyReport:["Create","Update","Delete"],StudyReportComment:["Create","Update","Delete"],StudyReportFavorite:["Update"],TimeLineForPro:["Read"],TimeLineForPlus:["Read"],TimeLineOfInstructorAndAdmin:["Read"],Timeline:["Create","Delete"],TimelineComment:["Create","Delete"],TimelineFavorite:["Update"],Curriculum:["Read"],LessonForStudent:["Read"],SessionForStudent:["Read"],SpotLesson:["Read"],SpotLessonReserve:["Create"],SpotLessonBuyTicket:["Create"],SpotLessonCancel:["Delete"],Chat:["Read"],AccountProfile:["Read"],AccountProfileLabelForStudent:["Read"],AccountCourse:["Read"],AccountSubscription:["Read","Create","Delete"],AccountSubscriptionSelect:["Read"],AccountSubscriptionRegister:["Read"],AccountSubscriptionLp:["Read"],AccountInvoice:["Read"],AccountPaymentIntent:["Read"],AccountPayment:["Read","Create","Update","Delete"],AccountMail:["Update"],MailSettingsForStudent:["Read"],AccountPassword:["Update"],Notification:["Read"],TeamInvitationErrorForStudent:["Read"],BannerForSubscription:["Read"],DocumentForStudent:["Read"],RecommendPremium:["Read"],All:["Read"]},STUDENT_SUBSCRIPTION_PREMIUM:{HomeForStudent:["Read"],ShowNextTypeSpotLesson:["Read"],CourseProgramUserLog:["Read"],Exam:["Read","Create"],ChapterAuthTypeRegistered:["Read"],ChapterAuthTypeLight:["Read"],ChapterAuthTypeBasic:["Read"],ChapterAuthTypePremium:["Read"],StudyLog:["Read"],ProgramFeedback:["Create"],ProgramSearchForStudent:["Read"],PracticeSubmit:["Create","Update"],PracticeFeedback:["Create"],PracticeAuthTypeRegistered:["Read"],PracticeAuthTypeLight:["Read"],PracticeAuthTypeBasic:["Read"],PracticeAuthTypePremium:["Read"],Question:["Read","Create","Update"],QuestionResolve:["Update"],QuestionAnswerAndComment:["Create","Update"],QuestionFavoriteAndAnswerFavorite:["Update"],StudyReportSummary:["Read"],StudyReport:["Create","Update","Delete"],StudyReportComment:["Create","Update","Delete"],StudyReportFavorite:["Update"],TimeLineForPro:["Read"],TimeLineForPlus:["Read"],TimeLineOfInstructorAndAdmin:["Read"],Timeline:["Create","Delete"],TimelineComment:["Create","Delete"],TimelineFavorite:["Update"],Curriculum:["Read"],LessonForStudent:["Read"],SessionForStudent:["Read"],SpotLesson:["Read"],SpotLessonReserve:["Create"],SpotLessonBuyTicket:["Create"],SpotLessonCancel:["Delete"],Chat:["Read"],AccountProfile:["Read"],AccountProfileLabelForStudent:["Read"],AccountCourse:["Read"],AccountSubscription:["Read","Create","Delete"],AccountSubscriptionSelect:["Read"],AccountSubscriptionRegister:["Read"],AccountSubscriptionLp:["Read"],AccountInvoice:["Read"],AccountPaymentIntent:["Read"],AccountPayment:["Read","Create","Update","Delete"],AccountMail:["Update"],MailSettingsForStudent:["Read"],AccountPassword:["Update"],Notification:["Read"],TeamInvitationErrorForStudent:["Read"],BannerForSubscription:["Read"],DocumentForStudent:["Read"],All:["Read"]},STUDENT_FREE:{HomeForStudent:["Read"],ShowNextTypeSpotLesson:["Read"],Exam:["Read","Create"],ChapterAuthTypeRegistered:["Read"],StudyLog:["Read"],ProgramFeedback:["Create"],P…
Object(g.jsxs)(g.Fragment,{children:[Object(g.jsx)($Un,{studyReportCount:null!==(r=null===(a=e.studySummary)||void 0===a?void 0:a.studyReportCount)&&void 0!==r?r:0,whileStudyingProgramCount:null!==(c=null===(s=e.whileStudyingPrograms)||void 0===s?void 0:s.length)&&void 0!==c?c:0,completedProgramCount:null!==(o=null===(l=e.completedPrograms)||void 0===l?void 0:l.length)&&void 0!==o?o:0,totalLessonCount:null!==(d=null===(b=e.totalLessonCount)||void 0===b?void 0:b.length)&&void 0!==d?d:0,questionCount:null!==(j=null===(u=e.questions)||void 0===u?void 0:u.length)&&void 0!==j?j:0}),Object(g.jsxs)(KUn,{children:[Object(g.jsx)(ZUn,{children:Object(g.jsx)(F9,{label:"\u30b5\u30de\u30ea\u30fc",summary:null!==(A=e.studySummary)&&void 0!==A?A:void 0,type:"graph",data:null!==(h=e.monthlyStudyCalendars)&&void 0!==h?h:[]})}),Object(g.jsx)(ZUn,{children:Object(g.jsx)(ree,{data:null!==(p=e.studyTagSummaries)&&void 0!==p?p:[]})})]})]}),Object(g.jsxs)(JUn,{children:[Object(g.jsx)(WUn,{children:"\u81ea\u5df1\u7d39\u4ecb"}),Object(g.jsx)(XUn,{$empty:!e.profile,children:e.profile||"\u672a\u767b\u9332"}),Object(g.jsx)(WUn,{children:"\u30d7\u30ed\u30b0\u30e9\u30df\u30f3\u30b0\u7d4c\u9a13"}),Object(g.jsx)(XUn,{$empty:y,children:y?"\u672a\u767b\u9332":null===(O=e.userTags)||void 0===O?void 0:O.map((e=>{var n;return"".concat(null===(n=e.tag)||void 0===n?void 0:n.name," (").concat(e.term,"\u5e74)")})).join(" / ")}),!e.isInstructor&&Object(g.jsxs)(g.Fragment,{children:[Object(g.jsx)(WUn,{children:"\u5b66\u7fd2\u76ee\u6a19"}),Object(g.jsx)(XUn,{$empty:!e.objective,children:e.objective||"\u672a\u767b\u9332"}),Object(g.jsxs)(WUn,{children:["\u5b66\u7fd2\u4e88\u5b9a\u306e\u8a00\u8a9e /",Object(g.jsx)("br",{})," \u30d5\u30ec\u30fc\u30e0\u30ef\u30fc\u30af"]}),Object(g.jsx)(XUn,{$empty:V,children:V?"\u672a\u767b\u9332":Object(g.jsx)(_Un,{children:null!==(x=null===(f=e.tags)||void 0===f?void 0:f.map((e=>Object(g.jsx)(Zte,{name:e.name},e.id))))&&void 0!==x?x:"\u672a\u767b\u9332"})})]})]})]})},qUn=kA.c.div(gUn||(gUn=Object(s.a)(["\n  width: 100%;\n  padding: 2rem 2rem 3rem;\n  background: #fff;\n  border: 1px solid rgba(0, 0, 0, 0.1);\n  border-radius: 0.125rem;\n  box-sizing: border-box;\n\n  ","\n"])),Yg.a.lessThan("medium")(OUn||(OUn=Object(s.a)(["\n    padding: 2rem 1rem 1.75rem;\n  "])))),QUn=kA.c.div(xUn||(xUn=Object(s.a)(["\n  display: flex;\n  justify-content: space-between;\n  padding-left: 0.3125rem;\n  width: 100%;\n  box-sizing: border-box;\n\n  ","\n"])),Yg.a.lessThan("medium")(fUn||(fUn=Object(s.a)(["\n    flex-direction: column;\n    justify-content: center;\n    align-items: center;\n    padding-left: 0;\n  "])))),HUn=kA.c.div(vUn||(vUn=Object(s.a)(["\n  display: flex;\n  align-items: center;\n  gap: 1.5rem;\n\n  ","\n"])),Yg.a.lessThan("medium")(wUn||(wUn=Object(s.a)(["\n    flex-direction: column;\n    justify-content: center;\n    align-items: center;\n    gap: .375rem;\n    padding-left: 0;\n  "])))),GUn=kA.c.p(CUn||(CUn=Object(s.a)(["\n  font-weight: normal;\n  font-size: 1.5rem;\n  line-height: 1em;\n  color: rgba(0, 0, 0, 0.87);\n\n  ","\n"])),Yg.a.lessThan("medium")(yUn||(yUn=Object(s.a)(["\n    font-size: .875rem;\n    line-height: 1.25rem;\n    text-align: center;\n  "])))),YUn=kA.c.div(VUn||(VUn=Object(s.a)(["\n  ","\n"])),Yg.a.lessThan("medium")(SUn||(SUn=Object(s.a)(["\n    margin-top: 1rem;\n  "])))),KUn=kA.c.section(kUn||(kUn=Object(s.a)(["\n  display: flex;\n  flex-wrap: wrap;\n  margin-top: 2rem;\n  background: #fff;\n\n  h3 {\n    margin-bottom: 1.5rem;\n    font-size: 1rem;\n    font-weight: 500;\n    line-height: 1.5;\n  }\n\n  ","\n"])),Yg.a.lessThan("medium")(IUn||(IUn=Object(s.a)(["\n    margin-top: 1rem;\n  "])))),ZUn=kA.c.div(TUn||(TUn=Object(s.a)(["\n  flex: 1;\n\n  &:last-of-type {\n    margin-left: 1.5rem;\n    padding-left: 1.5rem;\n    border-left: 1px solid rgba(0, 0, 0, 0.1);\n  }\n\n  ","\n"])),Yg.a.lessThan("medium")(DUn||(DUn=Object(s.a)(["\n    flex: auto;\n    width: 100%;\n    padding-top: 1.5rem;\n    border-top: 1px solid rgba(0,0,0,0.1);\n\n    &:last-of-type {\n      margin: 1.875rem 0 0;\n      padding-left: 0;\n      border-left: none;\n    }\n  "])))),JUn=kA.c.dl(EUn||(EUn=Object(s.a)(["\n  display: flex;\n  flex-wrap: wrap;\n  margin-top: 2rem;\n  padding-top: 0.1875rem;\n  border-top: 1px solid rgba(0, 0, 0, 0.1);\n\n  ","\n"])),Yg.a.lessThan("medium")(RUn||(RUn=Object(s.a)(["\n    margin-top: 1.875rem;\n    padding-top: 1.25rem;\n  "])))),WUn=kA.c.dt(zUn||(zUn=Object(s.a)(["\n  margin-top: 1.5rem;\n  width: 12rem;\n  font-weight: 700;\n  font-size: 1rem;\n  line-height: 1.4;\n  color: rgba(0, 0, 0, 0.87);\n\n  ",";\n"])),Yg.a.lessThan("medium")(MUn||(MUn=Object(s.a)(["\n    margin-top: 0.875rem;\n    width: 100%;\n    font-size: 0.75rem;\n  "])))),XUn=kA.c.dd(BUn||(BUn=Object(s.a)(["\n  margin-top: 1.5rem;\n  width: calc(100% - 12rem);\n  font-weight: 400;\n  font-size: 1rem;\n  line-height: 1.4;\n  color: ",";\n  white-space: pre-wrap;\n  word-break: break-all;\n\n  ",";\n"])),(({$empty:e})=>e?"rgba(0, 0, 0, 0.36)":"rgba(0, 0, 0, 0.87)"),Yg.a.lessThan("medium")(LUn||(LUn=Object(s.a)(["\n    margin-top: 0.625rem;\n    width: 100%;\n    font-size: 0.75rem;\n  "])))),_Un=kA.c.div(NUn||(NUn=Object(s.a)(["\n  display: flex;\n  flex-wrap: wrap;\n  margin: -0.5rem 0 0 -0.625rem;\n\n  & > * {\n    margin: 0.5rem 0 0 0.625rem;\n  }\n"]))),$Un=Object(kA.c)((({studyReportCount:e,whileStudyingProgramCount:n,completedProgramCount:t,totalLessonCount:i,questionCount:r,className:a})=>Object(g.jsxs)(pUn,{className:a,children:[Object(g.jsx)(Xze,{icon:pMe,name:"\u7dcf\u5b66\u7fd2\u56de\u6570",value:e}),Object(g.jsx)(Xze,{icon:DMe,name:"\u9032\u884c\u4e2d\u6559\u6750\u6570",value:n}),Object(g.jsx)(Xze,{icon:DMe,name:"\u5b8c\u4e86\u6559\u6750\u6570",value:t}),Object(g.jsx)(Xze,{icon:EMe,name:"\u7dcf\u30ec\u30c3\u30b9\u30f3\u6570",value:i}),Object(g.jsx)(Xze,{icon:hUn,name:"Q&A\u6570",value:r})]})))(UUn||(UUn=Object(s.a)(["\n  margin-top: 2rem;\n\n  ","\n"])),Yg.a.lessThan("medium")(PUn||(PUn=Object(s.a)(["\n    padding-top: 0.75rem;\n    border-top: 1px solid rgba(0, 0, 0, 0.1);\n  "]))));var ePn;const nPn=()=>{const e=Object(m.o)().id,n=Number(e);return Number.isNaN(n)?SZ:Object(g.jsx)(tPn,{userID:n})},tPn=e=>{const n="\u30d7\u30ed\u30d5\u30a3\u30fc\u30eb | ".concat(A),{data:t,loading:i}=function(e){const n={...wc,...e};return Oc.b(Xu,n)}({variables:{id:e.userID}});return i?Object(g.jsx)(dU,{display:!0}):t&&t.user?Object(g.jsx)(jUn,{activeTab:"profile",user:t.user,metaTitle:n,children:Object(g.jsx)(P4,{children:Object(g.jsx)(iPn,{children:Object(g.jsx)(FUn,{user:t.user})})})}):SZ},iPn=kA.c.div(ePn||(ePn=Object(s.a)(["\n  display: flex;\n  justify-content: center;\n  align-items: center;\n  flex-direction: column;\n  width: 100%;\n"])));var rPn,aPn,cPn,sPn,oPn,lPn,dPn,bPn;const mPn=()=>{const e=Object(m.o)().id,n=Number(e);return Number.isNaN(n)?SZ:Object(g.jsx)(jPn,{userID:n})},jPn=e=>{var n;const t="\u6559\u6750 | ".concat(A),{data:r,loading:a}=function(e){const n={...wc,...e};return Oc.b(_u,n)}({variables:{id:e.userID}}),[c,s]=Object(i.useState)("whileStudying");if(a)return Object(g.jsx)(dU,{display:!0});if(!r||!r.user||r.user.isInstructor)return SZ;const o="completed"===c?r.user.completedPrograms:r.user.whileStudyingPrograms;return Object(g.jsx)(jUn,{activeTab:"programs",user:r.user,metaTitle:t,children:Object(g.jsxs)(P4,{children:[Object(g.jsxs)(uPn,{children:[Object(g.jsx)(APn,{onClick:()=>s("whileStudying"),$active:"whileStudying"===c,children:"\u5b66\u7fd2\u4e2d\u306e\u6559\u6750"}),Object(g.jsx)(APn,{onClick:()=>s("completed"),$active:"completed"===c,children:"\u5b8c\u4e86\u3057\u305f\u6559\u6750"})]}),Object(g.jsxs)(hPn,{children:[Object(g.jsx)("span",{children:"\u6559\u6750\u6570\uff1a"}),null!==(n=null===o||void 0===o?void 0:o.length)&&void 0!==n?n:0]}),Object(g.jsx)(pPn,{children:Object(g.jsx)(qme,{children:null===o||void 0===o?void 0:o.map((e=>{var n,t,i;return Object(g.jsx)(bje,{id:e.id,image:e.icon,thumb:e.thumbnail,title:e.title,description:e.description,questionCount:e.questionCount,answerCount:e.answerCount,chapterCount:null!==(n=e.chapterCount)&&void 0!==n?n:0,requireTime:null!==(t=e.requireTime)&&void 0!==t?t:0,completedTime:e.completedTime?e.completedTime:0,tags:null!==(i=e.tags)&&void 0!==i?i:[],studyLogCount:e.studyLogCount,isUserPage:!0},e.id)}))})})]})})},uPn=kA.c.div(rPn||(rPn=Object(s.a)(["\n  display: flex;\n\n  & > :not(:first-child) {\n    margin-left: 0.625rem;\n  }\n\n  ","\n"])),Yg.a.lessThan("small")(aPn||(aPn=Object(s.a)(["\n    justify-content: space-between;\n    padding: 0 0.5rem 0 0.5625rem;\n    \n    & > :not(:first-child) {\n      margin-left: 0;\n    }\n  "])))),APn=Object(kA.c)(DO)(cPn||(cPn=Object(s.a)(["\n  padding: 0.4375rem 0.75rem;\n  background: ",";\n  font-size: 0.875rem;\n  font-weight: ",";\n  color: ",";\n  line-height: 1.2;\n  border-radius: 1.875rem;\n\n  ","\n"])),(({$active:e})=>e?"#EB0000":"#FFFFFF"),(({$active:e})=>e?700:400),(({$active:e})=>e?"#FFFFFF":"rgba(0, 0, 0, 0.6)"),Yg.a.lessThan("small")(sPn||(sPn=Object(s.a)(["\n    padding: 0.4375rem 1em;\n    font-size: 0.9375rem;\n    \n  "])))),hPn=kA.c.p(oPn||(oPn=Object(s.a)(["\n  margin: 1rem 0 0 0.25rem;\n  font-size: 1.125rem;\n  font-weight: 700;\n  line-height: 1.4;\n\n  span {\n    margin-left: 0.625rem;\n    font-size: 0.9375rem;\n    font-weight: 400;\n  }\n\n  ","\n"])),Yg.a.lessThan("small")(lPn||(lPn=Object(s.a)(["\n    display: none;\n  "])))),pPn=kA.c.div(dPn||(dPn=Object(s.a)(["\n  display: flex;\n  flex-wrap: wrap;\n  margin-top: 1rem;\n  width: 100%;\n\n  ","\n"])),Yg.a.lessThan("small")(bPn||(bPn=Object(s.a)(["\n    margin-top: 3rem;\n  "]))));var gPn,OPn;const xPn=()=>{const e=Object(m.o)().id,n=Number(e);return Number.isNaN(n)?SZ:Object(g.jsx)(fPn,{userID:n})},fPn=e=>{var n;const t="\u6295\u7a3f | ".concat(A),r=Object(m.k)(),{data:a,loading:c}=Wu({variables:{id:e.userID}}),{data:s,loading:o,refetch:l,fetchMore:d,error:b}=function(e){const n={...wc,...e};return Oc.b(Fu,n)}({variables:{first:20,userID:e.userID}}),j=null===s||void 0===s?void 0:s.getTimelinesByUserID.pageInfo,[u,h]=Object(i.useState)(!1),p=Object(i.useCallback)((async()=>{h(!0);try{await l()}catch(e){}finally{h(!1)}}),[l]),O=Object(i.useCallback)((async()=>{if(null===j||void 0===j?void 0:j.hasNextPage)try{await d({variables:{after:null===j||void 0===j?void 0:j.endCursor}})}catch(e){}}),[j,d]);return c?Object(g.jsx)(dU,{display:!0}):a&&a.user?Object(g.jsxs)(jUn,{activeTab:"timelines",user:a.user,metaTitle:t,children:[Object(g.jsx)(dU,{display:o||u}),Object(g.jsx)(P4,{children:b?Object(g.jsxs)(vPn,{children:[Object(g.jsx)("h4",{children:"\u6295\u7a3f\u306e\u8aad\u307f\u8fbc\u307f\u304c\u884c\u308f\u308c\u307e\u305b\u3093\u3067\u3057\u305f"}),Object(g.jsx)("p",{children:"\u56de\u7dda\u72b6\u6cc1\u3092\u78ba\u8a8d\u3057\u3066\u518d\u8aad\u307f\u8fbc\u307f\u3092\u884c\u3063\u3066\u304f\u3060\u3055\u3044"}),Object(g.jsx)("p",{className:"reload",onClick:p,children:"\u518d\u8aad\u307f\u8fbc\u307f"})]}):Object(g.jsxs)(g.Fragment,{children:[0===(null===s||void 0===s?void 0:s.getTimelinesByUserID.items.length)&&Object(g.jsx)(vPn,{children:Object(g.jsx)("h4",{children:"\u6295\u7a3f\u304c\u307e\u3060\u3042\u308a\u307e\u305b\u3093"})}),Object(g.jsx)(Kkn,{items:null!==(n=null===s||void 0===s?void 0:s.getTimelinesByUserID.items)&&void 0!==n?n:[],refetch:p,fetchMore:O,hasNext:!!(null===j||void 0===j?void 0:j.hasNextPage),referer:r.pathname})]})})]}):SZ},vPn=kA.c.div(gPn||(gPn=Object(s.a)(["\n  padding: 3rem 0;\n  background-color: #fff;\n  border: 1px solid rgba(0, 0, 0, 0.1);\n  margin-bottom: 2rem;\n\n  h4 {\n    color: rgba(0, 0, 0, 0.87);\n    font-weight: bold;\n    font-size: 1rem;\n    text-align: center;\n  }\n\n  p {\n    margin-top: 6px;\n    color: rgba(0, 0, 0, 0.87);\n    font-weight: 400;\n    font-size: 1rem;\n    text-align: center;\n  }\n\n  .reload {\n    background-color: #eb0000;\n    display: flex;\n    width: 160px;\n    height: 43px;\n    align-items: center;\n    justify-content: center;\n    border-radius: 3px;\n    cursor: pointer;\n    color: #ffffff;\n    font-size: 0.9rem;\n    font-weight: bold;\n    margin: 0 auto;\n    margin-top: 21px;\n  }\n\n  ","\n"])),Yg.a.lessThan("medium")(OPn||(OPn=Object(s.a)(["\n    width: calc(100% - 2rem);\n    margin: 0 auto 2rem;\n  "]))));var wPn,CPn,yPn,VPn;const SPn=()=>{const e=Object(m.o)().id,n=Number(e);return Number.isNaN(n)?SZ:Object(g.jsx)(kPn,{userID:n})},kPn=e=>{var n,t;const r="Q&A | ".concat(A),{setParams:a,queries:c}=Mre(),s=Object(i.useMemo)((()=>(null===c||void 0===c?void 0:c.page)?Number(c.page):1),[null===c||void 0===c?void 0:c.page]),o=Object(i.useMemo)((()=>{var e;return null!==(e=null===c||void 0===c?void 0:c.sort_key)&&void 0!==e?e:ps.CreatedAt}),[null===c||void 0===c?void 0:c.sort_key]),l=Object(i.useCallback)((e=>{a([{name:"page",value:e.toString()}])}),[a]),d=Object(i.useCallback)((e=>{a([{name:"sort_key",value:e},{name:"page"}])}),[a]),{data:b,loading:m}=Wu({variables:{id:e.userID}}),{data:j,loading:u,error:h,refetch:p}=vm({variables:{input:{type:hs.All,targetUserID:e.userID,sortKey:null!==(n=Object.values(ps).find((e=>e===o)))&&void 0!==n?n:ps.CreatedAt,limit:pU,page:s}}}),[O,x]=Object(i.useState)(!1),f=Object(i.useCallback)((async()=>{x(!0);try{await p()}catch(e){}finally{x(!1)}}),[p]);return m?Object(g.jsx)(dU,{display:!0}):b&&b.user&&!b.user.isInstructor?Object(g.jsxs)(jUn,{activeTab:"questions",user:b.user,metaTitle:r,children:[Object(g.jsx)(dU,{display:u||O}),Object(g.jsxs)(P4,{children:[Object(g.jsxs)(IPn,{children:[Object(g.jsx)("span",{className:"label",children:"\u4e26\u3073\u66ff\u3048\uff1a"}),Object(g.jsx)(EW,{name:"sortKey",value:o,options:[...fne],onChange:({target:{value:e}})=>d(e)})]}),h?Object(g.jsxs)(TPn,{children:[Object(g.jsx)("h4",{children:"Q&A\u306e\u8aad\u307f\u8fbc\u307f\u304c\u884c\u308f\u308c\u307e\u305b\u3093\u3067\u3057\u305f"}),Object(g.jsx)("p",{children:"\u56de\u7dda\u72b6\u6cc1\u3092\u78ba\u8a8d\u3057\u3066\u518d\u8aad\u307f\u8fbc\u307f\u3092\u884c\u3063\u3066\u304f\u3060\u3055\u3044"}),Object(g.jsx)("p",{className:"reload",onClick:f,children:"\u518d\u8aad\u307f\u8fbc\u307f"})]}):Object(g.jsxs)(g.Fragment,{children:[0===(null===j||void 0===j?void 0:j.getQuestions.items.length)&&Object(g.jsx)(TPn,{children:Object(g.jsx)("h4",{children:"\u8cea\u554f\u304c\u307e\u3060\u3042\u308a\u307e\u305b\u3093"})}),null===j||void 0===j?void 0:j.getQuestions.items.map((e=>Object(g.jsx)(yae,{question:e},e.id))),Object(g.jsx)(uee,{total:null!==(t=null===j||void 0===j?void 0:j.getQuestions.total)&&void 0!==t?t:0,perPage:pU,page:s,setPage:l})]})]})]}):SZ},IPn=kA.c.div(wPn||(wPn=Object(s.a)(["\n  display: flex;\n  justify-content: flex-end;\n  align-items: center;\n  margin-bottom: 0.75rem;\n\n  .label {\n    margin-right: 0.625rem;\n    font-size: 0.75rem;\n    line-height: 1.33;\n  }\n\n  select {\n    font-size: 0.8125rem;\n  }\n\n  ","\n"])),Yg.a.lessThan("medium")(CPn||(CPn=Object(s.a)(["\n    margin-bottom: 0.625rem;\n    padding: 0 1rem;\n  "])))),TPn=kA.c.div(yPn||(yPn=Object(s.a)(["\n  padding: 3rem 0;\n  background-color: #fff;\n  border: 1px solid rgba(0, 0, 0, 0.1);\n  margin-bottom: 2rem;\n\n  h4 {\n    color: rgba(0, 0, 0, 0.87);\n    font-weight: bold;\n    font-size: 1rem;\n    text-align: center;\n  }\n\n  p {\n    margin-top: 6px;\n    color: rgba(0, 0, 0, 0.87);\n    font-weight: 400;\n    font-size: 1rem;\n    text-align: center;\n  }\n\n  .reload {\n    background-color: #eb0000;\n    display: flex;\n    width: 160px;\n    height: 43px;\n    align-items: center;\n    justify-content: center;\n    border-radius: 3px;\n    cursor: pointer;\n    color: #ffffff;\n    font-size: 0.9rem;\n    font-weight: bold;\n    margin: 0 auto;\n    margin-top: 21px;\n  }\n\n  ","\n"])),Yg.a.lessThan("medium")(VPn||(VPn=Object(s.a)(["\n    width: calc(100% - 2rem);\n    margin: 0 auto 2rem;\n  "])))),DPn=()=>{var e;const n=Object(m.o)().id,t=Number(n),{user:i,permissionCheck:r}=qg();return Number.isNaN(t)?SZ:t===(null===(e=i.lmsUser)||void 0===e?void 0:e.id)&&r(Fh,Dg)?v0:Object(g.jsx)(EPn,{userID:t})},EPn=e=>{var n,t,i,r,a;const c="\u63d0\u51fa\u7269 | ".concat(A),{queries:s}=Mre(),o=(null===s||void 0===s?void 0:s.page)?Number(s.page):1,{data:l,loading:d}=Wu({variables:{id:e.userID}}),{user:b,permissionCheck:m}=qg(),j=m(Fh,Dg),u={sortKey:rs.CreatedAt,page:o,limit:hU},h={userID:e.userID,...u},{data:p,loading:O}=Gb({variables:{input:e.userID===(null===(n=b.lmsUser)||void 0===n?void 0:n.id)?{type:is.Mine,...u}:{type:is.All,...h}},skip:j}),{data:x,loading:f}=Kb({variables:{input:{type:Hc.All,...h}},skip:!j}),v=null!==(t=null!==(i=null===p||void 0===p?void 0:p.getPracticeSubmits.items)&&void 0!==i?i:null===x||void 0===x?void 0:x.getPracticeSubmitsForInstructor.items)&&void 0!==t?t:[],w=null!==(r=null!==(a=null===p||void 0===p?void 0:p.getPracticeSubmits.total)&&void 0!==a?a:null===x||void 0===x?void 0:x.getPracticeSubmitsForInstructor.total)&&void 0!==r?r:0;return d?Object(g.jsx)(dU,{display:!0}):l&&l.user?Object(g.jsxs)(jUn,{activeTab:"practice_submits",user:l.user,metaTitle:c,children:[Object(g.jsx)(dU,{display:O||f}),Object(g.jsx)(P4,{children:0!==v.length?Object(g.jsx)(vOe,{practiceSubmits:v,total:w}):Object(g.jsx)(K4,{title:"\u63d0\u51fa\u3055\u308c\u305f\u8ab2\u984c\u306f\u3042\u308a\u307e\u305b\u3093"})})]}):SZ},RPn=()=>{var e,n,t,r,a,c;const s="\u8acb\u6c42\u60c5\u5831 | ".concat(A),{user:o}=qg(),{data:l,loading:d,refetch:b}=function(e){const n={...wc,...e};return Oc.b(Sj,n)}({variables:{input:{teamID:null!==(e=o.teamID)&&void 0!==e?e:"",limit:hU}},skip:!o.teamID,notifyOnNetworkStatusChange:!0}),m=null!==(n=null===l||void 0===l?void 0:l.teamInvoices.items)&&void 0!==n?n:[],j=null!==(t=null===l||void 0===l?void 0:l.teamInvoices.nextCursor)&&void 0!==t?t:"",u=null!==(r=null===l||void 0===l?void 0:l.teamInvoices.previousCursor)&&void 0!==r?r:"",h=null!==(a=null===l||void 0===l?void 0:l.teamInvoices.hasPrevious)&&void 0!==a&&a,p=null!==(c=null===l||void 0===l?void 0:l.teamInvoices.hasNext)&&void 0!==c&&c,O=Object(i.useCallback)((async()=>{var e;b({input:{teamID:null!==(e=o.teamID)&&void 0!==e?e:"",nextCursor:j,limit:hU}})}),[b,o.teamID,j]),x=Object(i.useCallback)((async()=>{var e;b({input:{teamID:null!==(e=o.teamID)&&void 0!==e?e:"",previousCursor:u,limit:hU}})}),[b,o.teamID,u]);return Object(g.jsxs)(g.Fragment,{children:[Object(g.jsx)(dU,{display:d}),Object(g.jsx)(fpn,{activeTab:"invoice",metaTitle:s,children:!d&&Object(g.jsx)(n1e,{invoices:m,hasPrevious:h,hasNext:p,fetchNextInvoices:O,fetchPreviousInvoices:x})})]})},zPn=e=>e.permission?e.element:v0,MPn=e=>{switch(!0){case e.permissionCheck(yh,Dg):return Object(g.jsx)(Cnn,{});case e.permissionCheck(Vh,Dg):return Object(g.jsx)(_Ne,{});case e.permissionCheck(Sh,Dg):return Object(g.jsx)(hjn,{});case e.permissionCheck(kh,Dg):return Object(g.jsx)(aAn,{});default:return v0}},BPn=e=>{switch(!0){case e.permissionCheck(up,Dg):return Object(g.jsx)(icn,{});case e.permissionCheck(Ap,Dg):return Object(g.jsx)(eQe,{});default:return v0}},LPn=e=>{switch(!0){case e.permissionCheck(hp,Dg):return Object(g.jsx)(zon,{});case e.permissionCheck(pp,Dg)&&e.hasCoaching:return Object(g.jsx)(EQe,{});default:return v0}},NPn=e=>{switch(!0){case e.permissionCheck(gp,Dg):return Object(g.jsx)(tbn,{});case e.permissionCheck(Op,Dg):return Object(g.jsx)(Oen,{});default:return v0}},UPn=()=>{const{refresh:e,isRoleConfirmed:n,isSocialLoginUser:t,hasCoaching:i,permissionCheck:a}=qg();return LA((()=>{window.scrollTo(0,0),e()})),r.a.useEffect((()=>{e()}),[n]),n?Object(g.jsxs)(m.d,{children:[Object(g.jsx)(m.b,{path:"/",element:Object(g.jsx)(WM,{})}),Object(g.jsx)(m.b,{path:"/lp",element:Object(g.jsx)(m.a,{replace:!0,to:"/"})}),Object(g.jsx)(m.b,{path:"/adlp",element:Object(g.jsx)(m.a,{replace:!0,to:"/"})}),Object(g.jsx)(m.b,{path:"/adlp2",element:Object(g.jsx)(m.a,{replace:!0,to:"/"})}),Object(g.jsx)(m.b,{path:"/techlp",element:Object(g.jsx)(m.a,{replace:!0,to:"/"})}),Object(g.jsx)(m.b,{path:"/login",element:Object(g.jsx)(m.a,{to:"/",replace:!0})}),Object(g.jsx)(m.b,{path:"/changePassword",element:Object(g.jsx)(AB,{})}),Object(g.jsx)(m.b,{path:"/changeTemporaryPassword",element:Object(g.jsx)(yB,{})}),Object(g.jsx)(m.b,{path:"/changePasswordVerification",element:Object(g.jsx)(MB,{})}),Object(g.jsx)(m.b,{path:"/register",element:Object(g.jsx)(_J,{})}),Object(g.jsx)(m.b,{path:"/registered",element:Object(g.jsx)(A4,{})}),Object(g.jsx)(m.b,{path:"/account/subscription/registered",element:Object(g.jsx)(a2,{})}),Object(g.jsx)(m.b,{path:"/team/registered",element:Object(g.jsx)(a2,{})}),Object(g.jsx)(m.b,{path:"/team_member/registered",element:Object(g.jsx)(a2,{})}),Object(g.jsx)(m.b,{path:"/team/register/creation",element:Object(g.jsx)(A$,{})}),Object(g.jsx)(m.b,{path:"/team/register/company",element:Object(g.jsx)(A$,{})}),Object(g.jsx)(m.b,{path:"/team/register/subscription",element:Object(g.jsx)(A$,{})}),Object(g.jsx)(m.b,{path:"/team_member/register/creation",element:Object(g.jsx)(U$,{})}),Object(g.jsx)(m.b,{path:"/team_member/register/join",element:Object(g.jsx)(w0,{})}),Object(g.jsx)(m.b,{path:"/login/oauth/callback",element:Object(g.jsx)(XM,{})}),Object(g.jsx)(m.b,{path:"/home",element:Object(g.jsx)(MPn,{permissionCheck:a})}),Object(g.jsx)(m.b,{path:"/search",element:Object(g.jsx)(iae,{})}),Object(g.jsx)(m.b,{path:"/programs",element:Object(g.jsx)(eue,{})}),Object(g.jsx)(m.b,{path:"/programs/:id/chapters",element:Object(g.jsx)(nxe,{})}),Object(g.jsx)(m.b,{path:"/programs/:id/questions",element:Object(g.jsx)(nxe,{})}),Object(g.jsx)(m.b,{path:"/programs/:id/overview",element:Object(g.jsx)(nxe,{})}),Object(g.jsx)(m.b,{path:"/programs/:id/practice_submits",element:Object(g.jsx)(nxe,{})}),Object(g.jsx)(m.b,{path:"/programs/:program_id/chapters/:chapter_id/exam",element:Object(g.jsx)(_Nn,{})}),Object(g.jsx)(m.b,{path:"/programs/:program_id/chapters/:chapter_id",element:Object(g.jsx)(CCe,{})}),Object(g.jsx)(m.b,{path:"/programs/:program_id/chapters/:chapter_id/questions",element:Object(g.jsx)(CCe,{})}),Object(g.jsx)(m.b,{path:"/programs/:program_id/chapters/:chapter_id/list",element:Object(g.jsx)(CCe,{})}),Object(g.jsx)(m.b,{path:"/programs/category/:category_id",element:Object(g.jsx)(eue,{})}),Object(g.jsx)(m.b,{path:"/programs_while_studying",element:Object(g.jsx)(Iue,{})}),Object(g.jsx)(m.b,{path:"/programs_completed_study",element:Object(g.jsx)(Pue,{})}),Object(g.jsx)(m.b,{path:"/course_programs/:course_program_id",element:Object(g.jsx)(RSe,{})}),Object(g.jsx)(m.b,{path:"/programs/sample",element:Object(g.jsx)(ske,{})}),Object(g.jsx)(m.b,{path:"/programs/:program_id/chapters/:chapter_id/feedback",element:Object(g.jsx)(zPn,{permission:a(Ph,Eg),element:Object(g.jsx)(yxe,{})})}),Object(g.jsx)(m.b,{path:"/practices",element:Object(g.jsx)(OIe,{})}),Object(g.jsx)(m.b,{path:"/practices/category/:category_id",element:Object(g.jsx)(OIe,{})}),Object(g.jsx)(m.b,{path:"/practices/submits/all",element:Object(g.jsx)(zPn,{permission:a(Fh,Dg),element:Object(g.jsx)(TIe,{})})}),Object(g.jsx)(m.b,{path:"/practices/submits/my_students",element:Object(g.jsx)(zPn,{permission:a(Fh,Dg),element:Object(g.jsx)(TIe,{})})}),Object(g.jsx)(m.b,{path:"/practices/submits/reviewed",element:Object(g.jsx)(zPn,{permission:a(Fh,Dg),element:Object(g.jsx)(TIe,{})})}),Object(g.jsx)(m.b,{path:"/practices/submits/mine",element:Object(g.jsx)(zPn,{permission:!a(Fh,Dg),element:Object(g.jsx)(TIe,{})})}),Object(g.jsx)(m.b,{path:"/practices/submits/everyone",element:Object(g.jsx)(zPn,{permission:!a(Fh,Dg),element:Object(g.jsx)(TIe,{})})}),Object(g.jsx)(m.b,{path:"/practices/submits/my_draft",element:Object(g.jsx)(zPn,{permission:!a(Fh,Dg),element:Object(g.jsx)(TIe,{})})}),Object(g.jsx)(m.b,{path:"/practices/submits/:practice_submit_id",element:Object(g.jsx)($Te,{})}),Object(g.jsx)(m.b,{path:"/practices/submits/:practice_submit_id/details/new",element:Object(g.jsx)(zPn,{permission:a(qh,Eg),element:Object(g.jsx)(lRe,{})})}),Object(g.jsx)(m.b,{path:"/practices/submits/:practice_submit_id/details/:practice_submit_detail_id/edit",element:Object(g.jsx)(zPn,{permission:a(qh,Rg),element:Object(g.jsx)(pRe,{})})}),Object(g.jsx)(m.b,{path:"/practices/:practice_id/body",element:Object(g.jsx)(hTe,{})}),Object(g.jsx)(m.b,{path:"/practices/:practice_id/list",element:Object(g.jsx)(hTe,{})}),Object(g.jsx)(m.b,{path:"/practices/:practice_id/questions",element:Object(g.jsx)(hTe,{})}),Object(g.jsx)(m.b,{path:"/practices/:practice_id/submits",element:Object(g.jsx)(hTe,{})}),Object(g.jsx)(m.b,{path:"/practices/:practice_id/submits/new",element:Object(g.jsx)(zPn,{permission:a(qh,Eg),element:Object(g.jsx)(sRe,{})})}),Object(g.jsx)(m.b,{path:"/practices/:practice_id/explanation",element:Object(g.jsx)(NTe,{})}),Object(g.jsx)(m.b,{path:"/practices/:practice_id/feedback",element:Object(g.jsx)(zPn,{permission:a(Qh,Eg),element:Object(g.jsx)(fDe,{})})}),Object(g.jsx)(m.b,{path:"/questions/all",element:Object(g.jsx)(Dce,{})}),Object(g.jsx)(m.b,{path:"/questions/my",element:Object(g.jsx)(zPn,{permission:a(Zh,Dg)||a(Jh,Dg),element:Object(g.jsx)(Dce,{})})}),Object(g.jsx)(m.b,{path:"/questions/answered",element:Object(g.jsx)(zPn,{permission:a(Zh,Dg)||a(Jh,Dg),element:Object(g.jsx)(Dce,{})})}),Object(g.jsx)(m.b,{path:"/questions/draft",element:Object(g.jsx)(zPn,{permission:a(Jh,Rg),element:Object(g.jsx)(Dce,{})})}),Object(g.jsx)(m.b,{path:"/question/detail/:id",element:Object(g.jsx)(wme,{})}),Object(g.jsx)(m.b,{path:"/question/new",element:Object(g.jsx)(zPn,{permission:a(Jh,Eg),element:Object(g.jsx)(y7e,{})})}),Object(g.jsx)(m.b,{path:"/question/edit/:id",element:Object(g.jsx)(zPn,{permission:a(Jh,Rg),element:Object(g.jsx)(V7e,{})})}),Object(g.jsx)(m.b,{path:"/study_report/my",element:Object(g.jsx)(zPn,{permission:!a(np,Dg),element:Object(g.jsx)(Yee,{})})}),Object(g.jsx)(m.b,{path:"/study_report/all",element:Object(g.jsx)(Yee,{})}),Object(g.jsx)(m.b,{path:"/study_report/detail/:id",element:Object(g.jsx)(U7e,{})}),Object(g.jsx)(m.b,{path:"/study_report/new",element:Object(g.jsx)(zPn,{permission:a(tp,Eg),element:Object(g.jsx)(k3e,{})})}),Object(g.jsx)(m.b,{path:"/study_report/edit/:id",element:Object(g.jsx)(zPn,{permission:a(tp,Rg),element:Object(g.jsx)(i8e,{})})}),Object(g.jsx)(m.b,{path:"/timeline",element:Object(g.jsx)(XIn,{})}),Object(g.jsx)(m.b,{path:"/curriculum",element:Object(g.jsx)(zPn,{permission:a(mp,Dg),element:Object(g.jsx)(zqe,{})})}),Object(g.jsx)(m.b,{path:"/courses",element:Object(g.jsx)(zPn,{permission:a(jp,Dg),element:Object(g.jsx)(rln,{})})}),Object(g.jsx)(m.b,{path:"/courses/:id",element:Object(g.jsx)(zPn,{permission:a(jp,Dg),element:Object(g.jsx)(Pln,{})})}),Object(g.jsx)(m.b,{path:"/lessons",element:Object(g.jsx)(BPn,{permissionCheck:a})}),Object(g.jsx)(m.b,{path:"/lessons/:course_id",element:Object(g.jsx)(zPn,{permission:a(up,Dg),element:Object(g.jsx)(icn,{})})}),Object(g.jsx)(m.b,{path:"/sessions",element:Object(g.jsx)(LPn,{permissionCheck:a,hasCoaching:i()})}),Object(g.jsx)(m.b,{path:"/sessions/:course_id",element:Object(g.jsx)(zPn,{permission:a(hp,Dg),element:Object(g.jsx)(zon,{})})}),Object(g.jsx)(m.b,{path:"/spot_lessons",element:Object(g.jsx)(NPn,{permissionCheck:a})}),Object(g.jsx)(m.b,{path:"/spot_lessons/reserve",element:Object(g.jsx)(zPn,{permission:a(xp,Eg),element:Object(g.jsx)(zVn,{})})}),Object(g.jsx)(m.b,{path:"/spot_lessons/schedule",element:Object(g.jsx)(zPn,{permission:a(wp,Dg),element:Object(g.jsx)(Jmn,{})})}),Object(g.jsx)(m.b,{path:"/chat",element:Object(g.jsx)(zPn,{permission:a(Cp,Dg),element:Object(g.jsx)(Tqe,{})})}),Object(g.jsx)(m.b,{path:"/users/:id/profile",element:Object(g.jsx)(nPn,{})}),Object(g.jsx)(m.b,{path:"/users/:id/programs",element:Object(g.jsx)(mPn,{})}),Object(g.jsx)(m.b,{path:"/users/:id/timelines",element:Object(g.jsx)(xPn,{})}),Object(g.jsx)(m.b,{path:"/users/:id/questions",element:Object(g.jsx)(SPn,{})}),Object(g.jsx)(m.b,{path:"/users/:id/practice_submits",element:Object(g.jsx)(DPn,{})}),Object(g.jsx)(m.b,{path:"/account/profile",element:Object(g.jsx)(zPn,{permission:a(Vp,Dg),element:Object(g.jsx)(CGe,{})})}),Object(g.jsx)(m.b,{path:"/account/mail",element:Object(g.jsx)(zPn,{permission:a(Pp,Rg),element:Object(g.jsx)(uHe,{})})}),Object(g.jsx)(m.b,{path:"/account/password",element:Object(g.jsx)(zPn,{permission:a(Yp,Rg)&&!t(),element:Object(g.jsx)(cYe,{})})}),Object(g.jsx)(m.b,{path:"/account/subscription",element:Object(g.jsx)(zPn,{permission:a(Ep,Dg),element:Object(g.jsx)(SJe,{})})}),Object(g.jsx)(m.b,{path:"/account/invoice",element:Object(g.jsx)(zPn,{permission:a(Lp,Dg),element:Object(g.jsx)(g1e,{})})}),Object(g.jsx)(m.b,{path:"/account/payment_intent",element:Object(g.jsx)(zPn,{permission:a(Np,Dg),element:Object(g.jsx)(_1e,{})})}),Object(g.jsx)(m.b,{path:"/account/payment",element:Object(g.jsx)(zPn,{permission:a(Up,Dg),element:Object(g.jsx)(y2e,{})})}),Object(g.jsx)(m.b,{path:"/account/alignment",element:Object(g.jsx)(zPn,{permission:a(Kp,Dg),element:Object(g.jsx)(JGe,{})})}),Object(g.jsx)(m.b,{path:"/account/course",element:Object(g.jsx)(zPn,{permission:a(Dp,Dg),element:Object(g.jsx)(gYe,{})})}),Object(g.jsx)(m.b,{path:"/account/subscription/lp",element:Object(g.jsx)(zPn,{permission:a(Mp,Dg),element:Object(g.jsx)(ABn,{})})}),Object(g.jsx)(m.b,{path:"/account/subscription/payment",element:Object(g.jsx)(zPn,{permission:a(Ep,Eg),element:Object(g.jsx)(ILn,{})})}),Object(g.jsx)(m.b,{path:"/account/cancel",element:Object(g.jsx)(zPn,{permission:a(Tp,zg),element:Object(g.jsx)(xAn,{})})}),Object(g.jsx)(m.b,{path:"/account/subscription/select",element:Object(g.jsx)(zPn,{permission:a(Rp,Dg),element:Object(g.jsx)(NXe,{})})}),Object(g.jsx)(m.b,{path:"/account/subscription/select/submit/:price_id",element:Object(g.jsx)(zPn,{permission:a(Rp,Dg),element:Object(g.jsx)(J_e,{})})}),Object(g.jsx)(m.b,{path:"/account/subscription/confirm",element:Object(g.jsx)(zPn,{permission:a(Rp,Dg),element:Object(g.jsx)(H$e,{})})}),Object(g.jsx)(m.b,{path:"/claim",element:Object(g.jsx)(zPn,{permission:a(Zp,Dg),element:Object(g.jsx)(Min,{})})}),Object(g.jsx)(m.b,{path:"/notification/notification",element:Object(g.jsx)(zPn,{permission:a(Jp,Dg),element:Object(g.jsx)(EY,{})})}),Object(g.jsx)(m.b,{path:"/notification/admin",element:Object(g.jsx)(zPn,{permission:a(Jp,Dg),element:Object(g.jsx)(WY,{})})}),Object(g.jsx)(m.b,{path:"/notification/admin/:id",element:Object(g.jsx)(zPn,{permission:a(Jp,Dg),element:Object(g.jsx)(MZ,{})})}),Object(g.jsx)(m.b,{path:"/event",element:Object(g.jsx)(phn,{})}),Object(g.jsx)(m.b,{path:"/tweets/:id",element:Object(g.jsx)(nNn,{})}),Object(g.jsx)(m.b,{path:"/team",element:Object(g.jsx)(zPn,{permission:a($p,Dg),element:Object(g.jsx)(bpn,{})})}),Object(g.jsx)(m.b,{path:"/team/auth",element:Object(g.jsx)(zPn,{permission:a(eg,Dg),element:Object(g.jsx)(Wfn,{})})}),Object(g.jsx)(m.b,{path:"/team/invoice",element:Object(g.jsx)(zPn,{permission:a(ag,Dg),element:Object(g.jsx)(RPn,{})})}),Object(g.jsx)(m.b,{path:"/team/profile",element:Object(g.jsx)(zPn,{permission:a(ig,Dg),element:Object(g.jsx)(Uvn,{})})}),Object(g.jsx)(m.b,{path:"/team/payment",element:Object(g.jsx)(zPn,{permission:a(cg,Dg),element:Object(g.jsx)(Twn,{})})}),Object(g.jsx)(m.b,{path:"/team/subscription",element:Object(g.jsx)(zPn,{permission:a(rg,Dg),element:Object(g.jsx)(Qgn,{})})}),Object(g.jsx)(m.b,{path:"/team/subscription/payment",element:Object(g.jsx)(zPn,{permission:a(rg,Eg),element:Object(g.jsx)(GOn,{})})}),Object(g.jsx)(m.b,{path:"*",element:SZ})]}):Object(g.jsx)(dU,{display:!0})};var PPn,FPn=t(432);var qPn,QPn,HPn,GPn,YPn,KPn,ZPn,JPn,WPn,XPn=Object(kA.a)(PPn||(PPn=Object(s.a)(["\n  html,\n  body,\n  div,\n  span,\n  applet,\n  object,\n  iframe,\n  h1,\n  h2,\n  h3,\n  h4,\n  h5,\n  h6,\n  p,\n  blockquote,\n  pre,\n  a,\n  abbr,\n  acronym,\n  address,\n  big,\n  cite,\n  code,\n  del,\n  dfn,\n  rem,\n  img,\n  ins,\n  kbd,\n  q,\n  s,\n  samp,\n  small,\n  strike,\n  strong,\n  sub,\n  sup,\n  tt,\n  var,\n  b,\n  u,\n  i,\n  center,\n  dl,\n  dt,\n  dd,\n  ol,\n  ul,\n  li,\n  fieldset,\n  form,\n  label,\n  legend,\n  table,\n  caption,\n  tbody,\n  tfoot,\n  thead,\n  tr,\n  th,\n  td,\n  article,\n  aside,\n  canvas,\n  details,\n  embed,\n  figure,\n  figcaption,\n  footer,\n  header,\n  hgroup,\n  menu,\n  nav,\n  output,\n  ruby,\n  section,\n  summary,\n  time,\n  mark,\n  audio,\n  video {\n    margin: 0;\n    padding: 0;\n    border: 0;\n    font: inherit;\n    font-size: 16px;\n    vertical-align: baseline;\n  }\n\n  html {\n    line-height: 1;\n  }\n\n  ol,\n  ul {\n    list-style: none;\n  }\n\n  table {\n    border-collapse: collapse;\n    border-spacing: 0;\n  }\n\n  caption,\n  th,\n  td {\n    text-align: left;\n    font-weight: normal;\n    vertical-align: middle;\n  }\n\n  q,\n  blockquote {\n    quotes: none;\n  }\n\n  q:before,\n  q:after,\n  blockquote:before,\n  blockquote:after {\n    content: '';\n    content: none;\n  }\n\n  a img {\n    border: none;\n  }\n\n  article,\n  aside,\n  details,\n  figcaption,\n  figure,\n  footer,\n  header,\n  hgroup,\n  main,\n  menu,\n  nav,\n  section,\n  summary {\n    display: block;\n  }\n\n  html {\n    font-family: -apple-system, BlinkMacSystemFont, 'Helvetica Neue', 'Yu Gothic', YuGothic,\n      Verdana, Meiryo, 'M+ 1p', sans-serif;\n    color: rgba(0, 0, 0, 0.87);\n  }\n\n  body {\n    width: 100%;\n    height: 100%;\n  }\n\n  a {\n    color: inherit;\n    text-decoration: none;\n  }\n\n  .react-datepicker-wrapper .input {\n    height: 40px;\n    font-size: 15px;\n  }\n\n  .datepicker-date {\n    width: 185px;\n  }\n\n  .datepicker-start-time,\n  .datepocker-end-time {\n    width: 100px;\n  }\n"]))),_Pn=t(809);const $Pn=kA.c.header(qPn||(qPn=Object(s.a)(["\n  display: flex;\n  width: 100%;\n  height: 67px;\n  align-items: center;\n  background-color: #ffffff;\n  border-bottom: 1px solid rgba(0, 0, 0, 0.1);\n  padding: 0 2rem;\n  box-sizing: border-box;\n\n  img {\n    height: 1.5rem;\n  }\n\n  ","\n"])),Yg.a.lessThan("medium")(QPn||(QPn=Object(s.a)(["\n    padding: 0 1rem;\n  "])))),eFn=kA.c.main(HPn||(HPn=Object(s.a)(["\n  box-sizing: border-box;\n  padding: 32px 180px;\n\n  ","\n\n  h2 {\n    font-size: 20px;\n    color: rgba(0, 0, 0, 0.87);\n    font-weight: 600;\n  }\n"])),Yg.a.lessThan("medium")(GPn||(GPn=Object(s.a)(["\n    padding: 32px;\n  "])))),nFn=kA.c.section(YPn||(YPn=Object(s.a)(["\n  margin: 0 auto;\n  padding: 2rem;\n  background-color: #ffffff;\n  border: 1px solid rgba(0, 0, 0, 0.1);\n  text-align: center;\n\n  p {\n    margin-top: 1rem;\n    line-height: 1.3;\n  }\n"]))),tFn=kA.c.h3(KPn||(KPn=Object(s.a)(["\n  display: block;\n  font-size: 8rem;\n  font-weight: bold;\n  color: #e2001b;\n  text-align: center;\n"]))),iFn=kA.c.h4(ZPn||(ZPn=Object(s.a)(["\n  display: block;\n  font-size: 2rem;\n  font-weight: bold;\n  color: rgba(0, 0, 0, 0.36);\n  text-align: center;\n"]))),rFn=kA.c.div(JPn||(JPn=Object(s.a)(["\n  display: flex;\n  justify-content: center;\n  margin-top: 1.5rem;\n"]))),aFn=kA.c.div(WPn||(WPn=Object(s.a)(["\n  width: 600px;\n  align-text: center;\n"]))),cFn=Object(g.jsxs)(r.a.Fragment,{children:[Object(g.jsx)(XPn,{}),Object(g.jsx)($Pn,{children:Object(g.jsx)("img",{src:Xg,alt:"Samurai"})}),Object(g.jsx)(eFn,{children:Object(g.jsxs)(nFn,{children:[Object(g.jsx)(tFn,{children:"503"}),Object(g.jsx)(iFn,{children:"Maintenance"}),Object(g.jsxs)("p",{children:["\u7533\u3057\u8a33\u3054\u3056\u3044\u307e\u305b\u3093\u304c\u3001\u73fe\u5728\u5bfe\u8c61\u30da\u30fc\u30b8\u306f\u30e1\u30f3\u30c6\u30ca\u30f3\u30b9\u4e2d\u306e\u305f\u3081\u30a2\u30af\u30bb\u30b9\u3067\u304d\u307e\u305b\u3093\u3002",Object(g.jsx)("br",{}),"\u6642\u9593\u3092\u7f6e\u3044\u305f\u306e\u3061\u3001\u518d\u5ea6\u30a2\u30af\u30bb\u30b9\u304a\u9858\u3044\u3057\u307e\u3059\u3002",Object(g.jsx)("br",{})]}),Object(g.jsx)(rFn,{children:Object(g.jsx)(aFn,{children:Object(g.jsx)(_Pn.a,{dataSource:{sourceType:"profile",screenName:"samuraijuku"},options:{height:"400"}})})})]})})]}),sFn=()=>cFn;const oFn=()=>Object(fJ.j)($g.c("1"),$g.b((()=>!1),(e=>"1"===e))),lFn=()=>{const e=r.a.useContext(x),n=[{"@context":"https://schema.org","@type":"Organization",name:"\u682a\u5f0f\u4f1a\u793eSAMURAI",founder:"\u9ad8\u6bd4\u826f \u76f4\u4eba",foundingDate:"March,2015",description:"\u682a\u5f0f\u4f1a\u793eSAMURAI\u306f\u3001IT\u6559\u80b2\u3067\u4e16\u754c\u5e73\u548c\u3092\u5b9f\u73fe\u3059\u308b\u4f1a\u793e\u3067\u3059\u3002 \u79c1\u305f\u3061\u306e\u4f7f\u547d\u306f\u3001SDGs\u306e5\u3064\u306e\u554f\u984c\u3092\u89e3\u6c7a\u3059\u308b\u305f\u3081\u306b\u4e8b\u696d\u3092\u904b\u55b6\u3057\u3001\u8ca7\u56f0\u3084\u4e0d\u5e73\u7b49\u3092\u7121\u304f\u3057\u3066\u793e\u4f1a\u3092\u3059\u3053\u3057\u305a\u3064\u512a\u3057\u304f\u3057\u3066\u3044\u304f\u3053\u3068\u3067\u3059\u3002  \u751f\u7523\u7684\u3067\u50cd\u304d\u304c\u3044\u306e\u3042\u308b\u96c7\u7528\u3092\u751f\u307f\u51fa\u3059\u305f\u3081\u306b\u306f\u3001\u79c1\u305f\u3061\u306e\u7d44\u7e54\u3082\u751f\u7523\u7684\u3067\u50cd\u304d\u304c\u3044\u306e\u3042\u308b\u4f01\u696d\u3068\u306a\u308b\u5fc5\u8981\u304c\u3042\u308b\u3068\u8003\u3048\u3066\u3044\u307e\u3059\u3002",url:"https://www.sejuku.net/corp/",logo:"https://www.sejuku.net/corp/wp-content/themes/corp/assets/images/logo.svg",telephone:"03-5790-9039",address:{"@type":"PostalAddress",addressLocality:"\u5343\u4ee3\u7530\u533a\u795e\u7530\u7df4\u5840\u753a",addressRegion:"\u6771\u4eac\u90fd",postalCode:"101-0022",streetAddress:"300\u756a\u5730\u3000\u4f4f\u53cb\u4e0d\u52d5\u7523\u79cb\u8449\u539f\u99c5\u524d\u30d3\u30eb5F",addressCountry:"JP"},contactPoint:[{"@type":"ContactPoint",telephone:"03-5790-9039",contactType:"CustomerSupport"}],sameAs:"https://www.sejuku.net/"},{"@context":"http://schema.org","@type":"website",name:"".concat(h),inLanguage:"jp",publisher:{"@type":"Organization",name:"\u682a\u5f0f\u4f1a\u793eSAMURAI",logo:{"@type":"ImageObject",url:"https://terakoya.sejuku.net/static/media/logo.efe3ff53.svg"}},headline:u,description:p,url:"https://terakoya.sejuku.net/"},{"@context":"https://schema.org","@type":"SiteNavigationElement",hasPart:[{"@type":"WebPage",name:"\u30c8\u30c3\u30d7",url:"https://terakoya.sejuku.net/"},{"@type":"CollectionPage",name:"\u30b5\u30fc\u30d3\u30b9\u306e\u7279\u5fb4",url:"https://terakoya.sejuku.net/#feature"},{"@type":"CollectionPage",name:"\u3054\u5229\u7528\u306e\u6d41\u308c",url:"https://terakoya.sejuku.net/#flow"},{"@type":"CollectionPage",name:"\u6599\u91d1\u30d7\u30e9\u30f3",url:"https://terakoya.sejuku.net/#plan"},{"@type":"ContactPage",name:"\u304a\u5ba2\u69d8\u306e\u58f0",url:"https://terakoya.sejuku.net/#voice"}]},{"@context":"http://schema.org","@type":"FAQPage",description:"\u30b5\u30fc\u30d3\u30b9\u306b\u95a2\u3059\u308b\u8cea\u554f\u3092\u307e\u3068\u3081\u3066\u3044\u307e\u3059\u3002",mainEntity:[{"@type":"Question",name:"\u30de\u30f3\u30c4\u30fc\u30de\u30f3\u306e\u30ec\u30c3\u30b9\u30f3\u306f\u3042\u308a\u307e\u3059\u304b\uff1f",acceptedAnswer:{"@type":"Answer",text:"\u30ec\u30c3\u30b9\u30f3\u30c1\u30b1\u30c3\u30c8\u3092\u5229\u7528\u3057\u30011\u56de60\u5206\u306e\u30de\u30f3\u30c4\u30fc\u30de\u30f3\u306e\u30ec\u30c3\u30b9\u30f3\u3092\u53d7\u8b1b\u3059\u308b\u3053\u3068\u304c\u3067\u304d\u307e\u3059\u3002",url:"https://terakoya.sejuku.net/#faq"}},{"@type":"Question",name:"\u8cea\u554f\u306e\u53d7\u4ed8\u6642\u9593\u306f\u4f55\u6642\u304b\u3089\u4f55\u6642\u3067\u3059\u304b\uff1f",acceptedAnswer:{"@type":"Answer",text:"24\u6642\u9593\u3044\u3064\u3067\u3082\u304a\u53d7\u3051\u3057\u3066\u304a\u308a\u307e\u3059\u3002 \u55b6\u696d\u6642\u9593\uff0810\u6642\u301c22\u6642\uff09\u5916\u306e\u8cea\u554f\u306f\u3001\u7fcc\u55b6\u696d\u65e5\u306b\u56de\u7b54\u3055\u305b\u3066\u3044\u305f\u3060\u304d\u307e\u3059\u3002",url:"https://terakoya.sejuku.net/#faq"}},{"@type":"Question",name:"Q&A\u63b2\u793a\u677f\u3067\u306f\u6280\u8853\u7684\u306a\u8cea\u554f\u4ee5\u5916\u3082\u8cea\u554f\u3067\u304d\u307e\u3059\u304b\uff1f",acceptedAnswer:{"@type":"Answer",text:"\u306f\u3044\u3002\u8cea\u554f\u53ef\u80fd\u3067\u3059\u3002 \u4f8b\u3048\u3070\u3001\u300c\u5b66\u7fd2\u3092\u52b9\u7387\u7684\u306b\u9032\u3081\u308b\u306b\u306f\u3069\u3046\u3057\u305f\u3089\u3044\u3044\u3067\u3059\u304b\uff1f\u300d\u3068\u3044\u3063\u305f\u3001\u62bd\u8c61\u7684\u306a\u8cea\u554f\u306b\u3082\u3001\u73fe\u5f79\u30a8\u30f3\u30b8\u30cb\u30a2\u304c\u56de\u7b54\u81f4\u3057\u307e\u3059\u3002",url:"https://terakoya.sejuku.net/#faq"}}]}];return Object(g.jsx)(Qg.a,{title:e.title,meta:e.meta,children:Object(g.jsx)("script",{type:"application/ld+json",children:JSON.stringify(n)})})};function dFn(){const e=Object(m.k)(),n=Object(m.m)(),[t,{data:r}]=function(e){const n={...wc,...e};return xc.a(ud,n)}({fetchPolicy:"cache-first"}),a=Object(i.useMemo)((()=>{var e;return null!==(e=null===r||void 0===r?void 0:r.abTestDeliveries)&&void 0!==e?e:[]}),[null===r||void 0===r?void 0:r.abTestDeliveries]);return Object(i.useEffect)((()=>{t();const e=new Date,i=a.find((n=>{return t=new URL(window.location.href),new URL(n.originURL).toString()===t.origin+t.pathname&&function(e,n){const t=new Date(n.startDate),i=new Date(n.endDate);if(i.getTime()<t.getTime())throw new Error("endDate(".concat(i,")\u304cstartDate(").concat(t,")\u3088\u308a\u524d\u306b\u306a\u3063\u3066\u3044\u307e\u3059\u3002"));return t.getTime()<=e.getTime()&&e.getTime()<i.getTime()}(e,n)&&function(e){const n=function(e){switch((new MU.UAParser).setUA(e).getDevice().type){case"mobile":return BU.SP;case"tablet":return BU.TB;default:return BU.PC}}(navigator.userAgent);return e.deviceType===Bc.All||e.deviceType===Bc.Pc&&n===BU.PC||e.deviceType===Bc.Sp&&n===BU.SP}(n);var t}));if(i){const e=function(e){if(0===e.totalRate)return null;const n=function(e,n){if(n<=e)throw new Error("\u6700\u5c0f\u5024\u304c\u6700\u5927\u5024\u4ee5\u4e0a\u306b\u306a\u3063\u3066\u3044\u307e\u3059\u3002");return Math.floor(Math.random()*(n-e))+e}(0,e.totalRate);return function(e,n){if(0===e.totalRate)return null;if(n<0||e.totalRate<=n)throw new Error("targetNum(".concat(n,")\u304c0\u4ee5\u4e0atotalRate(").concat(e.totalRate,")\u672a\u6e80\u306e\u7bc4\u56f2\u5916\u306b\u306a\u3063\u3066\u3044\u307e\u3059\u3002"));let t=0;const i=e.abTestDeliveryDetails.find((e=>(t+=e.deliveryRate,n<t))),r=null===i||void 0===i?void 0:i.deliveryURL;try{return r?new URL(r):null}catch{return null}}(e,n)}(i);if(e){const t=function(e,n){const t=new URL(n),i=e.searchParams,r=t.searchParams;return i.forEach(((e,n)=>{r.delete(n)})),i.forEach(((e,n)=>{r.append(n,e)})),t}(new URL(window.location.href),e);window.location.host===t.host?n(t.pathname+t.search):window.location.href=t.toString()}}}),[e,n,t,a]),Object(g.jsx)(g.Fragment,{})}var bFn=t(795);const mFn=({children:e})=>{const n=new bFn.RestLink({uri:"".concat("https://terakoya.sejuku.net")}),t=new ic.a({link:Object(rc.a)([n]),cache:new ac.a});return Object(g.jsx)(cc.a,{client:t,children:e})};var jFn,uFn,AFn,hFn,pFn,gFn,OFn;l.a.initialize({gtmId:"GTM-TF29MQ3",dataLayerName:"LMSDataLayer"}),bc.a.configure({Auth:{region:"ap-northeast-1",userPoolId:"ap-northeast-1_F0mnLQTVn",userPoolWebClientId:"4ffbv404e26o5mehn9qr3kobkp"},oauth:{domain:"lms-sejuku.auth.ap-northeast-1.amazoncognito.com",redirectSignIn:"https://terakoya.sejuku.net/login/oauth/callback",redirectSignOut:"https://terakoya.sejuku.net/login",responseType:"code"}});const xFn=e=>Object(g.jsx)(g.Fragment,{children:e.hasMaintenance?Object(g.jsx)(sFn,{}):e.children}),fFn=e=>{const[n,t]=Object(i.useState)(!1),[a,c]=Object(i.useState)(!0);return Object(i.useEffect)((()=>{oFn()?(async()=>{c(!0);const e=Object(FPn.b)();e.settings.minimumFetchIntervalMillis=0;try{await Object(FPn.a)(e);const n=Object(FPn.c)(e,"maintenance").asBoolean();t(n)}catch(n){}finally{c(!1)}})():c(!1)}),[]),Object(g.jsxs)(r.a.Fragment,{children:[Object(g.jsx)(dU,{display:a}),!a&&Object(g.jsx)(xFn,{hasMaintenance:n,children:e.children})]})};class vFn extends r.a.Component{constructor(e){super(e),this.state={hasError:!1}}render(){return this.state.hasError?Object(g.jsxs)(r.a.Fragment,{children:[Object(g.jsx)(yFn,{children:Object(g.jsx)("img",{src:Xg,alt:"Samurai"})}),Object(g.jsx)(VFn,{children:Object(g.jsxs)(SFn,{children:[Object(g.jsx)(kFn,{children:"Something went wrong."}),Object(g.jsxs)("p",{children:["\u4f55\u3089\u304b\u306e\u30a8\u30e9\u30fc\u304c\u767a\u751f\u3044\u305f\u3057\u307e\u3057\u305f\u3002",Object(g.jsx)("br",{}),"\u6642\u9593\u3092\u7a7a\u3051\u3066\u518d\u5ea6\u304a\u8a66\u3057\u304f\u3060\u3055\u3044\u3002"]}),Object(g.jsx)("p",{children:Object(g.jsx)(IFn,{href:"/",children:"TOP\u3078\u79fb\u52d5\u3059\u308b"})})]})})]}):this.props.children}}const wFn=()=>{const e=Object(gc.a)(jFn||(jFn=Object(s.a)(['\n    query findRevision {\n      revision @rest(type: "Revision", path: "/revision.json") {\n        value\n      }\n    }\n  ']))),{data:n,previousData:t}=Object(Oc.b)(e,{pollInterval:6e4,fetchPolicy:"no-cache"});return Object(i.useEffect)((()=>{n&&t&&n.revision.value!==t.revision.value&&window.location.reload()}),[n,t]),Object(g.jsx)(g.Fragment,{})};var CFn=()=>{const e=Object(JA.b)(uh),n=r.a.useCallback((()=>{wA.a.interceptors.response.use((e=>e),(async e=>{const n=Object($g.c)(e.response);if(Object($g.f)(n)&&401!=n.value.status||e.config.isRetry)throw e;const t=(await bc.a.currentSession()).getIdToken().getJwtToken();e.config.headers.Authorization="Bearer ".concat(t),wA.a.defaults.headers.common.Authorization="Bearer ".concat(t),e.config.isRetry=!0;return await wA.a.request(e.config).catch((e=>{throw new Error(e.message)}))}))}),[]);return Object(i.useEffect)((()=>{n()}),[n]),Object(g.jsx)(fFn,{children:Object(g.jsx)(vFn,{children:Object(g.jsx)(fA.a,{store:e,children:Object(g.jsx)(d.a,{children:Object(g.jsx)(b.a,{basename:"",window:Aqe,children:Object(g.jsxs)(ZA,{children:[Object(g.jsx)(XPn,{}),Object(g.jsx)(lFn,{}),Object(g.jsx)(mFn,{children:Object(g.jsx)(wFn,{})}),Object(g.jsx)(dFn,{}),Object(g.jsx)(UPn,{})]})})})})})})};const yFn=kA.c.header(uFn||(uFn=Object(s.a)(["\n  display: flex;\n  width: 100%;\n  height: 67px;\n  align-items: center;\n  background-color: #ffffff;\n  border-bottom: 1px solid rgba(0, 0, 0, 0.1);\n  padding-left: 24px;\n  box-sizing: border-box;\n"]))),VFn=kA.c.main(AFn||(AFn=Object(s.a)(["\n  box-sizing: border-box;\n  padding: 32px 180px;\n\n  ","\n  h2 {\n    font-size: 20px;\n    color: rgba(0, 0, 0, 0.87);\n    font-weight: 600;\n  }\n"])),Yg.a.lessThan("medium")(hFn||(hFn=Object(s.a)(["\n    padding: 32px;\n  "])))),SFn=kA.c.section(pFn||(pFn=Object(s.a)(["\n  margin: 0 auto;\n  padding: 2rem;\n  background-color: #ffffff;\n  border: 1px solid rgba(0, 0, 0, 0.1);\n  text-align: center;\n\n  p {\n    margin-top: 1rem;\n    line-height: 1.3;\n  }\n"]))),kFn=kA.c.h3(gFn||(gFn=Object(s.a)(["\n  display: block;\n  font-size: 8rem;\n  font-weight: bold;\n  color: #e2001b;\n  text-align: center;\n"]))),IFn=kA.c.a(OFn||(OFn=Object(s.a)(["\n  color: #e2001b;\n"])));var TFn=t(1781);Boolean("localhost"===window.location.hostname||"[::1]"===window.location.hostname||window.location.hostname.match(/^127(?:\.(?:25[0-5]|2[0-4][0-9]|[01]?[0-9][0-9]?)){3}$/));var DFn=t(199),EFn=t(807),RFn=t(805);TFn.a({dsn:"https://c0d09589f17448cc96fb428ac2da078a@o404506.ingest.sentry.io/5268558",release:"samurai-0j@84f1367",environment:void 0,integrations:[new RFn.a],tracesSampleRate:.1,ignoreErrors:["ResizeObserver loop limit exceeded","Network Error","FirebaseError","InvalidStateError","Remote Config: Error thrown when reading from storage","Remote Config: Fetch client failed to connect to a network","Installations: Could not process request. Application offline","\u3053\u306e\u30b5\u30fc\u30d0\u306e\u8a3c\u660e\u66f8\u306f\u7121\u52b9\u3067\u3059","Remote Config: Error thrown when opening storage","Remote Config: Error thrown when writing to storage","UnhandledRejection","Request failed with status code 401","Failed to load Stripe.js","Remote Config: Fetch server returned an HTTP error status. HTTP status: 403. (remoteconfig/fetch-status).","Installations: Firebase Installation is not registered.",'Remote Config: The config fetch request timed out.  Configure timeout using "fetchTimeoutMillis" SDK setting. (remoteconfig/fetch-timeout).',"Failed to execute 'transaction' on 'IDBDatabase': The database connection is closing.\n","Can't find variable: IntersectionObserver","The operation is insecure.","Possible side-effect in debug-evaluate","Unexpected end of input",'SecurityError: Blocked a frame with origin "https://terakoya.sejuku.net" from accessing a cross-origin frame. Protocols, domains, and ports must match.',"can't access dead object","null is not an object (evaluating 'this.h.src')","Cannot read properties of null (reading 'sessionId')","Failed to execute 'pushState' on 'History'","jf_ChgDns is not defined",oqe,"undefined is not an object (evaluating 'r[\"@context\"].toLowerCase')","\u30d1\u30b9\u30ef\u30fc\u30c9\u8a66\u884c\u56de\u6570\u304c\u8d85\u904e\u3057\u307e\u3057\u305f","A history state object with URL 'file:///C:/'","Cannot read properties of undefined (reading 'firefoxSample')","A request was aborted, for example through a call to IDBTransaction.abort."],denyUrls:[/cdn\.nmgassets\.com/i,/best-movie100\.com/i,/cdn\.mouseflow\.com/i,/js\.intercomcdn\.com/i,/www\.youtube\.com/i,/cdn\.taboola\.com/i,/static\.karte\.io/i,/analytics\.tiktok\.com/i,/www\.clarity\.ms/i]}),DFn.default.configure({Auth:{mandatorySignId:!0,region:"ap-northeast-1",userPoolId:"ap-northeast-1_F0mnLQTVn",userPoolWebClientId:"4ffbv404e26o5mehn9qr3kobkp"}}),wA.a.defaults.baseURL="https://api.lms.sejuku.net";const zFn={apiKey:"AIzaSyAq2KTu9w7EHBL6yDKzKqOO8KW56bRIXs8",authDomain:"lms-production-af731.firebaseapp.com",projectId:"lms-production-af731",storageBucket:"lms-production-af731.appspot.com",messagingSenderId:"1093866784080",appId:"1:1093866784080:web:899b65fb07114838769855",measurementId:"G-DLN40S4ZLF"};oFn()&&EFn.a.initializeApp(zFn),c.a.render(Object(g.jsx)(r.a.StrictMode,{children:Object(g.jsx)(CFn,{})}),document.getElementById("root")),"serviceWorker"in navigator&&navigator.serviceWorker.ready.then((e=>{e.unregister()}))},884:function(e,n){}},[[1656,1,2]]]);